Hopper-v2/_weights.pth (torch, 284047 bytes, 8 tensors)

hidden1.weight f4 [256, 11]
0	0xbe713e27	-0.23558865
1	0x3ef9870b	0.48735842
2	0x3f03a8fb	0.5142972
3	0x3cad342e	0.021143045
4	0x3f0c6682	0.54843915
5	0xbf20c9f8	-0.6280818
6	0xbe363af4	-0.17795926
7	0x3f3b40dc	0.7314584
8	0xbed01c2e	-0.406465
9	0x3e9e4185	0.30909362
10	0x3d89092f	0.06691205
11	0x3e93aebc	0.2884425
12	0xbf860e3e	-1.0473096
13	0x3f03af21	0.514391
14	0xbf80d325	-1.0064436
15	0xbf399078	-0.72486067
16	0xbe7b5d35	-0.24547274
17	0x3ec5da8a	0.38643295
18	0xbeda74ba	-0.4266718
19	0x3e1b9358	0.15192926
20	0xbee738fc	-0.45160663
21	0xbf5171e9	-0.8181444
22	0x3e2b67b2	0.16738775
23	0xbd96bfee	-0.073608264
24	0x3d202e14	0.039106444
25	0xbe78d75b	-0.24300902
26	0xbd6ea997	-0.058267202
27	0xbda4b768	-0.080427945
28	0x3e4297b4	0.19003183
29	0x3dbb1756	0.0913531
30	0x3ca1cc7b	0.019750824
31	0x3de397f0	0.11112964
32	0x3ed69a4d	0.41914597
33	0x3ee87f62	0.45409685
34	0x3f20adf9	0.6276546
35	0xbf74a913	-0.95570487
36	0xbe8a37c4	-0.2699567
37	0xbcf25679	-0.029582249
38	0xbf1a6e47	-0.6032452
39	0xbcbbd17e	-0.022927042
40	0x3f11bcad	0.5692852
41	0x3f3d16ea	0.7386309
42	0x3e1df86e	0.154268
43	0xbe6d48b4	-0.23172265
44	0x3e99b432	0.3002029
45	0xbd140616	-0.036138617
46	0x3f1da838	0.61584806
47	0x3f6adfd1	0.91747767
48	0xbf3324f6	-0.6997827
49	0xb9c17b68	-0.00036903773
50	0x3ef5b74a	0.479914
51	0x3f140eb2	0.57834923
52	0x3f2660bf	0.6499137
53	0x3ea11351	0.3146005
54	0x3e9da8d5	0.3079287
55	0xbec9ec69	-0.3943818
56	0xbed1a0f1	-0.409431
57	0xbee7bccb	-0.45261225
58	0xbeec41a1	-0.4614382
59	0x3f56a419	0.83844143
60	0x3ea511a3	0.32240018
61	0x3f018d9d	0.5060671
62	0xbdd6b208	-0.104831755
63	0xbb5698dc	-0.003274492
64	0x3eb7ae9c	0.35875404
65	0x3e5b6f23	0.21429114
66	0x3f062a27	0.5240807
67	0xbee684f5	-0.45023313
68	0x3e8193d9	0.2530811
69	0x3e8fbed4	0.28075278
70	0xbe85e79e	-0.26153272
71	0xbf5f18ac	-0.8714702
72	0xbe6dcc49	-0.2322246
73	0xbee8c5db	-0.45463452
74	0xbef11f2e	-0.470941
75	0x3d833ef1	0.064084895
76	0x3ef3c03d	0.47607604
77	0xbf0ddd19	-0.55415493
78	0xbe0e52a0	-0.13898706
79	0x3e9c5b12	0.3053823
80	0xbe40f91d	-0.18845029
81	0xbd5b2ba9	-0.053508434
82	0xbf160f65	-0.5861724
83	0xbf1fc5ec	-0.6241138
84	0xbe064143	-0.13110833
85	0x3f3ff318	0.74980307
86	0x3ded795e	0.115954146
87	0x3e51129e	0.20417258
88	0xbe698939	-0.22806253
89	0x3e8a44ed	0.2700571
90	0x3d40d11e	0.04707443
91	0x3d4e29fe	0.050333016
92	0x3e61e85d	0.22061296
93	0xbe29b4ba	-0.16572848
94	0x3ef6b905	0.48188034
95	0x3e2943c8	0.16529763
96	0x3ef962ed	0.48708287
97	0xbe6420ec	-0.22278184
98	0x3f0db67f	0.5535659
99	0x3f0907c1	0.53527457
100	0x3f844bbe	1.0335615
101	0xbf03b115	-0.5144208
102	0x3e60d646	0.21956739
103	0xbd576064	-0.05258216
104	0xbf797fc3	-0.97460574
105	0xbe4c4d7a	-0.1995143
106	0xbf04ee46	-0.51926076
107	0xbf2bdb2a	-0.6713129
108	0x3c241411	0.01001455
109	0x3eaf1604	0.34196484
110	0x3e6ac470	0.22926497
111	0xbc83b0bc	-0.016075484
112	0x3e8c4c69	0.27402046
113	0x3f44e02a	0.7690455
114	0xbe81c3f8	-0.25344825
115	0x3d91da91	0.07121766
116	0xbd9ba1f0	-0.075992465
117	0x3e2587d8	0.16165102
118	0x3b294764	0.0025829906
119	0x3f3bfea3	0.7343542
120	0xbc67ef98	-0.014156245
121	0x3d9d5b4a	0.07683428
122	0x3eb12385	0.34597412
123	0x3d13d090	0.036087573
124	0x3f0587c1	0.5216027
125	0xbe735668	-0.2376343
126	0x3e9712a0	0.29506397
127	0xbe52f481	-0.20601083
128	0xbe04b7f5	-0.12960799
129	0x3d8cfc17	0.0688402
130	0xbecf67fc	-0.4050902
131	0x3c7e2afd	0.015513179
132	0xbe03f27f	-0.12885474
133	0x3e8a8d84	0.27061093
134	0xbdc18d92	-0.094508305
135	0x3e8ea6c8	0.2786162
136	0x3e6bcec2	0.2302809
137	0x3ecca44a	0.39969093
138	0x3f06ad69	0.5260835
139	0xbe9e0813	-0.30865535
140	0x3f0f0c41	0.5587807
141	0x3ecaa500	0.3957901
142	0x3e6d7e1a	0.23192635
143	0xbc74f643	-0.0149512915
144	0xbed644ea	-0.41849452
145	0x3cf99d95	0.030470649
146	0xbe884fb6	-0.26623315
147	0x3e8a9543	0.27067003
148	0x3f7b5ea3	0.9819128
149	0xbe211e71	-0.15734269
150	0x3e61336d	0.21992274
151	0xbd8d210d	-0.068910696
152	0xbe71f75b	-0.23629515
153	0x3d780d78	0.06055972
154	0x3e664026	0.22485408
155	0xbf60cb8e	-0.878106
156	0x3db57188	0.08859545
157	0x3ed3b5a5	0.4134952
158	0xbeb803e4	-0.35940468
159	0x3e007dae	0.12547943
160	0xbef35ee3	-0.4753333
161	0x3df826df	0.12116789
162	0xbe85c8f8	-0.2612989
163	0xbf5ba182	-0.85793316
164	0xbd277fa0	-0.040893197
165	0xbf37277d	-0.7154463
166	0x3f022bed	0.50848275
167	0x3f52c083	0.82325
168	0x3e723f28	0.23656905
169	0x3ec7cb8e	0.39022487
170	0x3f089473	0.53351516
171	0x3e60e866	0.21963653
172	0x3c96cb92	0.018407617
173	0xbe7f96ed	-0.24959917
174	0xbc80fc8c	-0.015745424
175	0x3ea04c6b	0.31308302
176	0xbeb35080	-0.35022354
177	0xbba5af67	-0.00505631
178	0xbf5b07ea	-0.8555895
179	0xbf055dd2	-0.52096283
180	0xbe6c6ecf	-0.23089145
181	0x3edc6913	0.43048915
182	0xbe3599a5	-0.17734392
183	0x3e3403f7	0.17579637
184	0xbd86f0fc	-0.06588933
185	0x3e73e2e1	0.23817016
186	0x3f02b40e	0.5105599
187	0x3e7a0787	0.24416934
188	0xbe837193	-0.25672588
189	0x3e1486fe	0.1450462
190	0x3e4b784f	0.19870113
191	0x3e3f6fb1	0.1869495
192	0xbe96c021	-0.29443458
193	0x3f0a2bd7	0.53973144
194	0xbe903fff	-0.28173825
195	0xbf7de3df	-0.9917583
196	0xbf5eee18	-0.8708205
197	0xbe9bf6c0	-0.30461693
198	0x3ebd4b74	0.3697163
199	0xbf60474b	-0.87608784
200	0xbf300a98	-0.68766165
201	0x3ecc15d3	0.398604
202	0xbead399f	-0.33833024
203	0x3f03c471	0.5147162
204	0x3e81bf39	0.25341204
205	0xbdf5c1cc	-0.119998544
206	0x3e3a3cad	0.18187208
207	0x3d5ea240	0.054353952
208	0xbf166968	-0.5875459
209	0x3e4dc75a	0.20095578
210	0xbf61f21e	-0.88260067
211	0xbf428bcc	-0.75994563
212	0x3e914c56	0.28378552
213	0xbf00005a	-0.50000536
214	0xbf059de1	-0.5219403
215	0x3efd132f	0.49428698
216	0x3d8b7fc8	0.06811482
217	0xbdc13086	-0.09433083
218	0x3e893105	0.2679521
219	0x3f9f0728	1.2424059
220	0x3f4a1600	0.7893982
221	0x3f3d3c08	0.73919725
222	0xbdf8d7fc	-0.12150571
223	0x3dff72d6	0.12473075
224	0xbe89a6e2	-0.26885134
225	0x3d9a2b78	0.07527822
226	0xbbd52a9a	-0.0065053226
227	0xbeb52b51	-0.3538461
228	0x3e31ff2d	0.17382498
229	0x3d719522	0.058980115
230	0x3f0e28bf	0.55530924
231	0xbf4eeff4	-0.8083489
232	0x3d403cee	0.046933107
233	0x3f15b987	0.5848622
234	0xbe260805	-0.16213997
235	0x3cf64da8	0.030066326
236	0xbebe3e49	-0.37156895
237	0xbe3d6d7e	-0.18498799
238	0x3dba2300	0.09088707
239	0x3eacbbe9	0.33737114
240	0x3e9e1857	0.30877945
241	0x3fa6e469	1.3038455
242	0x3e5054c4	0.20344836
243	0xbef52d31	-0.4788604
244	0x3e5dab5e	0.21647403
245	0xbdff21ac	-0.12457594
246	0x3e53d012	0.20684841
247	0xbf31934f	-0.693654
248	0x3c99f713	0.018794572
249	0x3e68aec2	0.22722915
250	0xbf32824b	-0.6973006
251	0xbefbce65	-0.49180904
252	0xbc8d3088	-0.017235056
253	0x3edad8e6	0.42743605
254	0xbf459d02	-0.771927
255	0xbbba7a13	-0.005690822

hidden1.bias f4 [256]
0	0xbd5ad75c	-0.05342804
1	0xbd16c5a1	-0.036809567
2	0xbd1a4455	-0.037662823
3	0xbd31082c	-0.043220684
4	0x3d0a96a1	0.033835057
5	0xbc97d6e5	-0.018535087
6	0x3c5d1c31	0.013495491
7	0x3d6cf68f	0.057852324
8	0xbd13725d	-0.035997737
9	0xbd9fbd3a	-0.07799764
10	0x3d040f45	0.032241125
11	0xbbfc1c9c	-0.00769384
12	0x3b054d2c	0.0020340187
13	0xbcfc982a	-0.030834276
14	0xbcdb07e1	-0.026737155
15	0xbd986a48	-0.074421465
16	0xbd320bbc	-0.043468222
17	0x3a4744e9	0.0007601516
18	0xbce56e08	-0.028006569
19	0xbd2ca17e	-0.0421462
20	0x3cf4de01	0.029891016
21	0xbd755200	-0.059892654
22	0xbdb4754b	-0.08811434
23	0x3c068bbe	0.008212028
24	0x3d8069e2	0.062701955
25	0x3cf1c4f7	0.029512865
26	0xbc29f61d	-0.010373619
27	0xbe45b4d7	-0.19307266
28	0x3d7253e6	0.059162043
29	0xbd07067e	-0.032965176
30	0x3d4649a5	0.048410077
31	0xbdbae6e2	-0.09126069
32	0x3c9658d0	0.018352896
33	0x3c5c4100	0.013443232
34	0x3d44157c	0.04787205
35	0xbd0a6eff	-0.03379726
36	0xbdd88341	-0.1057191
37	0xbd328049	-0.043579374
38	0xbbf9fe0c	-0.0076291617
39	0x3c73d343	0.014881912
40	0xbce14213	-0.027497327
41	0xbd05d577	-0.03267428
42	0x3c899580	0.01679492
43	0xbd4534a5	-0.04814591
44	0xbd5df8ae	-0.054192238
45	0xbe049923	-0.12949042
46	0xbbabe326	-0.005245584
47	0xbc7996ce	-0.015233709
48	0xbc9f6582	-0.019457582
49	0x3db58211	0.08862699
50	0xbc8dd28b	-0.017312309
51	0xbb504938	-0.0031781923
52	0xbd7632a1	-0.060106877
53	0xbc87abd9	-0.016561436
54	0x3cf983eb	0.030458411
55	0xbd7be654	-0.061498955
56	0xbc6bd700	-0.014394522
57	0xbd3cfb74	-0.046138242
58	0x3db610a0	0.0888989
59	0x3d37cc5c	0.044872627
60	0x3d3a923e	0.045549624
61	0x3d793215	0.060838778
62	0x3d0e448a	0.034733333
63	0xbd44bebf	-0.048033472
64	0xbd343fe5	-0.044006247
65	0x3c9aaf88	0.018882528
66	0x3dfb243d	0.12262771
67	0xbc189b24	-0.009314332
68	0xbd2a2689	-0.041540656
69	0x3d167aba	0.036738135
70	0x3cc6843e	0.02423298
71	0xbd68a813	-0.056800913
72	0x3c9e0350	0.019288689
73	0xbd3292e9	-0.043597136
74	0xbc58747b	-0.013211365
75	0xbd9d8c49	-0.07692773
76	0xbcdabb6e	-0.026700702
77	0x3d05beb7	0.032652583
78	0xbc9c1fee	-0.019058194
79	0xbd519f84	-0.051177517
80	0x3e0981f4	0.1342848
81	0x3a70a0a4	0.0009179211
82	0xbd53862c	-0.05164163
83	0x3cd00432	0.025392625
84	0xbbc52c23	-0.0060172244
85	0xbd9edfdb	-0.07757541
86	0xbd5654ca	-0.052326955
87	0x3ca6e55c	0.020373039
88	0xbc161d44	-0.009162251
89	0xbc75a483	-0.014992836
90	0xbd49c808	-0.04926303
91	0xbdc19e71	-0.094540484
92	0xbb1a9d87	-0.0023592429
93	0x3a14a7d8	0.00056707626
94	0x3d80fb9b	0.0629799
95	0x3dd2cb97	0.10292738
96	0x3d5ab075	0.05339094
97	0xbd03c182	-0.032166965
98	0xbc2d4647	-0.010575837
99	0x3d8c6d7a	0.068568185
100	0xbd4a35e1	-0.04936779
101	0xbcbb4ef6	-0.0228648
102	0x3d0344b8	0.032047957
103	0x3ab4ae9e	0.001378495
104	0xbd1c45c6	-0.03815248
105	0xbd1f1d27	-0.03884616
106	0x3c2be16b	0.010490756
107	0xbd925159	-0.07144422
108	0xbd6f63d6	-0.05844482
109	0x3ded1c69	0.115776844
110	0xbdfa9df4	-0.122371584
111	0x3c8038c1	0.015652062
112	0xbc2c3359	-0.010510289
113	0xbd383ef4	-0.04498191
114	0x3cb4a910	0.022053272
115	0x3bd246cd	0.0064171315
116	0xbd7801f2	-0.06054873
117	0xbcd0b174	-0.025475241
118	0x3c8fb7ed	0.017543757
119	0xbd4e05d0	-0.050298512
120	0xbd95d2f8	-0.0731563
121	0xbc788c1e	-0.015170125
122	0xbd1fa41f	-0.038974877
123	0xbda7cc79	-0.08193297
124	0xbd35181c	-0.044212446
125	0xba83b5e3	-0.0010048713
126	0xbd3fe9ed	-0.04685395
127	0x3d4a2370	0.049350202
128	0xbcede632	-0.02904043
129	0x3b7b044d	0.0038302124
130	0x3dd97b00	0.106191635
131	0x3e1b51d8	0.1516794
132	0xbd0c4d3a	-0.034253336
133	0xbd461c3f	-0.04836678
134	0xbd698a0d	-0.05701642
135	0xbd49847e	-0.04919862
136	0x3af3d96a	0.0018604223
137	0xbb8198a3	-0.0039549633
138	0xbd32cd20	-0.043652654
139	0xbce21ec5	-0.027602563
140	0xbdd11c8b	-0.10210522
141	0xbd97ba6d	-0.07408605
142	0x3cd10aee	0.025517907
143	0xbdac0bad	-0.084006645
144	0x3d8d99fb	0.06914135
145	0x3c8771b9	0.01653372
146	0xbdb04ede	-0.08608793
147	0xbd0588a4	-0.032601014
148	0x3dd5887b	0.10426422
149	0x3ac5d63e	0.0015093756
150	0x3bcb1fa3	0.0061988398
151	0xbd2524c8	-0.04031828
152	0x3cb3230b	0.021867296
153	0x3d71289a	0.05887661
154	0xbdb29814	-0.08720413
155	0xbc9aed10	-0.018911868
156	0xbd110292	-0.035402842
157	0xbc298aab	-0.010348002
158	0x3d377d73	0.044797372
159	0x3d04d0ad	0.03242557
160	0x3b8e6f61	0.0043467735
161	0xbd68db01	-0.056849483
162	0xbccc4f0c	-0.024940036
163	0x3dc6671f	0.096876375
164	0xbcb3a2fc	-0.021928303
165	0xbd5a30c0	-0.053269148
166	0xbbd7bd5d	-0.006583853
167	0xbd0a31da	-0.03373895
168	0x3d8799ab	0.06621107
169	0xbc8e4e9a	-0.017371465
170	0xbdae74ef	-0.08518397
171	0xbd6c7367	-0.057727244
172	0xbddad763	-0.10685613
173	0xbc8e61e5	-0.017380664
174	0xbd88744c	-0.06662807
175	0x3b3fc9b4	0.0029264512
176	0xbd04eabc	-0.032450423
177	0xbc4950ce	-0.012287332
178	0xbcb346c7	-0.021884335
179	0xbd30c21c	-0.043153867
180	0x3d9c634f	0.07636129
181	0x3c6376fd	0.0138833495
182	0xbbcafc9b	-0.0061946637
183	0xbc35a7d3	-0.011087376
184	0xbda62910	-0.08113301
185	0x3d4b9a2d	0.04970758
186	0x3ca3b166	0.019982051
187	0xbd468af5	-0.048472364
188	0xbd04f915	-0.032464106
189	0xbd2d5bbe	-0.04232382
190	0xbd887c59	-0.066643424
191	0x3d204d66	0.039136313
192	0x3d0781c9	0.033082757
193	0x3cdddfdd	0.027084285
194	0x3b54467a	0.003239064
195	0x3d8282b3	0.06372585
196	0xbdb04b1a	-0.086080745
197	0x3d1616ba	0.036642767
198	0x3d33c9d0	0.043893635
199	0xb9b69433	-0.00034824162
200	0xbd8eab56	-0.069662735
201	0xbd139e97	-0.036039915
202	0xbbda39ef	-0.0066597383
203	0x3cee6365	0.02910013
204	0xbdea9b01	-0.11455346
205	0x3c34bced	0.011031372
206	0xbc56a63e	-0.013101159
207	0x3b601055	0.0034189422
208	0xbb97b8d6	-0.0046301885
209	0xbd2d7dee	-0.042356424
210	0xbd833746	-0.06407027
211	0xbdb781af	-0.08960282
212	0xbca8540c	-0.02054789
213	0xbccb497c	-0.024815314
214	0x3b9e72fc	0.0048354845
215	0xbca0aab3	-0.019612646
216	0xbbfe5d68	-0.0077625997
217	0x3d8e1287	0.069371276
218	0xbd992953	-0.07478585
219	0x3d017ff7	0.031616177
220	0x3c9854dc	0.018595152
221	0xbc9c1ae4	-0.019055791
222	0x3d870622	0.065929666
223	0x3da67957	0.081286125
224	0xbda733f0	-0.08164203
225	0xbca19ab0	-0.019727081
226	0xbc9106c8	-0.017703429
227	0xbd3352f6	-0.04378029
228	0xbcd0108a	-0.025398511
229	0xbd7cf8e3	-0.061760794
230	0x3cac6f1c	0.021049075
231	0xbc953f55	-0.018218676
232	0xbdeee7a5	-0.116652764
233	0x3b93b860	0.004508063
234	0x3c98a994	0.018635549
235	0xbbf86492	-0.0075803483
236	0x3d66b4dd	0.05632483
237	0x3d1a276b	0.03763525
238	0xbd7999cc	-0.060937688
239	0xbbe409e7	-0.0069591883
240	0xbccb9061	-0.024849119
241	0x3c16c0e1	0.009201259
242	0x3d468ef7	0.048476186
243	0xbbeaca5f	-0.007165238
244	0x3b18849b	0.0023272398
245	0xbc0bd630	-0.008534953
246	0x3cd6c7f3	0.02621839
247	0x3c96ee9c	0.018424325
248	0xbae34d6a	-0.0017341797
249	0xbd5d325f	-0.054003116
250	0xbb0624f6	-0.0020468808
251	0xbd5afcea	-0.053463854
252	0xbd2c6e8a	-0.042097606
253	0xbcbddb38	-0.02317582
254	0xbcfb1c72	-0.030653212
255	0xbdd1d6c9	-0.10246045

hidden2.weight f4 [256, 256]
0	0xbd0d5f7a	-0.03451488
1	0xbe14a8b0	-0.14517474
2	0xbd862d25	-0.065515794
3	0x3bdf5730	0.0068158135
4	0xbd905c69	-0.07048876
5	0xbe366229	-0.17810883
6	0xbde65b9c	-0.11247942
7	0x3d0461ff	0.03232002
8	0x3ccb06cf	0.02478352
9	0xbe08844f	-0.13331722
10	0x3d120ab5	0.035654742
11	0xbd5a9459	-0.05336413
12	0xbb94913c	-0.004533915
13	0xbcd094bf	-0.025461553
14	0x3d318601	0.043340687
15	0x3cc12689	0.023577945
16	0xbd363775	-0.04448648
17	0x3b195e78	0.0023402255
18	0x3d8c686e	0.06855856
19	0x3dc5d0ae	0.09658943
20	0x3e34a44d	0.17640801
21	0xbd0934e4	-0.033497706
22	0xbdc132d3	-0.09433522
23	0x3d8ab418	0.067726314
24	0x3d838119	0.06421108
25	0x3aebfab0	0.0018003788
26	0x3c29f291	0.010372774
27	0xbdb34741	-0.08753825
28	0xbdb3d269	-0.08780367
29	0xbd8362f6	-0.0641536
30	0xbd455c6c	-0.048183843
31	0x3d5b8ad0	0.05359918
32	0xbd5b0de5	-0.053480048
33	0x3d54172b	0.051779907
34	0xbd16bf5b	-0.036803585
35	0xbe172e09	-0.14763655
36	0x3e293e84	0.16527754
37	0x3dfc3c7c	0.12316224
38	0xbd9a24cb	-0.07526549
39	0x3d39909a	0.04530392
40	0xbd13e173	-0.036103677
41	0xbe008d53	-0.12553911
42	0xbda8a317	-0.08234232
43	0xbea5eca4	-0.32407105
44	0xbdb24fc7	-0.087066226
45	0x3e28f91f	0.16501282
46	0xbd9ed55b	-0.07755538
47	0xbcdd53f9	-0.02701758
48	0x3ce06795	0.027393142
49	0xbcc4ca4a	-0.02402224
50	0x3d4d614f	0.05014163
51	0xbe1323cb	-0.14369123
52	0xbe04abe2	-0.12956193
53	0x3df65321	0.12027574
54	0xbc9eda7c	-0.01939129
55	0xbd3f35d9	-0.046682213
56	0xbd92d753	-0.07169976
57	0x3c95e63b	0.018298259
58	0xbda4ad27	-0.08040839
59	0xbd2210c4	-0.03956677
60	0xbcb47612	-0.022028957
61	0x3c81fc42	0.015867356
62	0x3e05f69a	0.13082352
63	0xbc11c6f6	-0.008897534
64	0xbe062517	-0.13100086
65	0xbd9629e6	-0.0733221
66	0xbe82fa35	-0.25581518
67	0xbe816c54	-0.2527796
68	0xbcf87e6c	-0.03033372
69	0xbd0c3f8d	-0.034240294
70	0x3ca38f85	0.019965896
71	0xbe420ac1	-0.18949415
72	0xbd1e5811	-0.038658205
73	0xbda6ac46	-0.08138327
74	0x3ea8856b	0.3291429
75	0xbe07064a	-0.13185993
76	0xbcae7932	-0.021298025
77	0xbd554cbd	-0.052075136
78	0xbd5d6616	-0.054052435
79	0x3cc41aa4	0.023938484
80	0x3b1a15b8	0.002351148
81	0x3d05bbf6	0.032649957
82	0x3ccab30b	0.024743577
83	0xbc643b7b	-0.013930197
84	0xbdb78ce2	-0.08962418
85	0xbd58e6c4	-0.05295445
86	0xbd5b6342	-0.053561457
87	0x3d0fa589	0.035069976
88	0x3c116663	0.008874509
89	0xbdd981b1	-0.1062044
90	0xbdd4353b	-0.103617154
91	0x3d6ad973	0.057336282
92	0xbd8a26ff	-0.06745719
93	0xbdc2eaf7	-0.09517472
94	0x3d852c78	0.06502622
95	0xbd562340	-0.05227971
96	0xbd8a2b15	-0.067464985
97	0xbd944ad1	-0.072408326
98	0x3da71171	0.081576236
99	0xbd8b9fae	-0.06817566
100	0xbd25ae47	-0.040449407
101	0xbdf239c7	-0.118274264
102	0xbd297703	-0.041373264
103	0xbd5c6db8	-0.053815573
104	0x3b710682	0.003677756
105	0x3e170dd0	0.14751363
106	0x3c9163d3	0.017747795
107	0x3d0afadd	0.033930648
108	0xbd89298f	-0.0669738
109	0x3de29464	0.110634595
110	0x3d5a8b8e	0.053355746
111	0xbd16fb2e	-0.036860637
112	0x3d2ff6d5	0.042960007
113	0xbd0569fe	-0.032571785
114	0x3ddad484	0.106850654
115	0xbe27fd19	-0.16405143
116	0x3db680a0	0.08911252
117	0xbcfa9d7c	-0.030592673
118	0x3c3ed75f	0.011648028
119	0xbcb33a8c	-0.021878503
120	0x3ddddac6	0.10832743
121	0xbcc87ee7	-0.024474574
122	0x3d80ed74	0.062952906
123	0xbd66257d	-0.056188095
124	0x3e11d19a	0.14240113
125	0xbdde7d2a	-0.10863717
126	0xbaab922a	-0.0013089825
127	0xbe2a9641	-0.1665888
128	0xbd11930d	-0.03554063
129	0x3de12b8d	0.10994635
130	0x3daa2b8c	0.08309087
131	0x3b61155c	0.0034345007
132	0x3d970161	0.0737331
133	0xbcd01526	-0.02540071
134	0x3e167ea2	0.14696744
135	0x3d4f1071	0.05055279
136	0x3d798c81	0.06092501
137	0xbd893f2c	-0.06701502
138	0xbdb10ea4	-0.086453706
139	0xbcb5785a	-0.022152115
140	0xbda265c9	-0.0792957
141	0x3dc97469	0.098366566
142	0x3e0cc0d4	0.13745433
143	0x3e2be0e9	0.16785015
144	0x3ccfc04d	0.02536025
145	0x3c99de15	0.018782655
146	0x3d5dc7f0	0.054145753
147	0x3d181803	0.037132274
148	0x3d8e9eb2	0.069638625
149	0x3ddba560	0.10724902
150	0xbd33e414	-0.043918684
151	0xbe52c97e	-0.20584676
152	0xbe008601	-0.12551118
153	0xbe45f506	-0.1933175
154	0xbdb85e75	-0.09002391
155	0xbd0d35b8	-0.03447506
156	0xbcd2d56e	-0.025736537
157	0xbe1edb6e	-0.15513393
158	0x3cf09dd9	0.029372143
159	0x3da1e498	0.07904929
160	0xbd0dc415	-0.034610827
161	0x3d307dc2	0.043088682
162	0xbbf75185	-0.0075475597
163	0xbc4daee1	-0.012553901
164	0x3e08e937	0.13370214
165	0x3dafb05b	0.08578559
166	0xbce03603	-0.027369505
167	0x3e0c1b50	0.13682294
168	0xbbd9508c	-0.0066319164
169	0xbd173f75	-0.03692575
170	0x3e3ced89	0.18449987
171	0xbdd3f1af	-0.10348832
172	0x3dc84dbd	0.097804524
173	0xbda62375	-0.08112232
174	0xbd7c8db4	-0.061658576
175	0x3d8c0192	0.06836237
176	0xbdd9fe6a	-0.10644229
177	0xbd8e79f5	-0.06956855
178	0x3ca68373	0.020326352
179	0xbcfb03c6	-0.030641448
180	0x3d9652bf	0.07340001
181	0x3db3e18f	0.08783256
182	0xbd82af37	-0.06381076
183	0xbcfacc67	-0.030615045
184	0x3c6ee159	0.014580094
185	0xbdb5ca95	-0.0887653
186	0xbc7baedd	-0.015361515
187	0x3d87f2f9	0.0663814
188	0x3c6600c8	0.014038272
189	0xbdb908a5	-0.09034852
190	0x3db6e4f6	0.089303896
191	0x3c037dba	0.008025581
192	0x3cf12112	0.029434714
193	0x3a9fdf04	0.0012197201
194	0xbd86b424	-0.06577328
195	0xbe70fdb4	-0.2353428
196	0xbcca2a3a	-0.024678338
197	0xbe22de54	-0.15905124
198	0x3e25b617	0.16182743
199	0xbdd9e62f	-0.10639607
200	0xbdba3127	-0.09091406
201	0xbdc8d017	-0.09805315
202	0x3dc4adbf	0.09603452
203	0x3d46ea79	0.048563454
204	0x3d8eab4e	0.069662675
205	0xb94c94df	-0.00019510415
206	0x3dd903d6	0.10596435
207	0xbcbf0389	-0.023317115
208	0x3e44c387	0.19215213
209	0xbd35e18b	-0.044404548
210	0x3d8581a4	0.065188676
211	0xbd876767	-0.06611519
212	0x3dcfa76b	0.10139354
213	0x3d9bf5c6	0.07615237
214	0xbe21c1ae	-0.15796539
215	0x3db8103a	0.0898747
216	0xbdd7c29d	-0.105351664
217	0xbdf24cd8	-0.11831063
218	0xbd535d5c	-0.051602706
219	0xbbe55f9a	-0.006999922
220	0xbccc0807	-0.024906171
221	0xbdc6c051	-0.0970465
222	0x3d75b2bc	0.059984908
223	0xbc1a58ab	-0.009420554
224	0xbd6394ac	-0.055561706
225	0xbe3840b5	-0.17993434
226	0xbdb92cdf	-0.090417616
227	0xbdaf2229	-0.085514374
228	0x3e2a92a3	0.166575
229	0x3daf6c5f	0.08565592
230	0x3d09b476	0.033619367
231	0xbdffea26	-0.12495832
232	0xbc16bf4c	-0.009200882
233	0xbca4410c	-0.020050548
234	0xbe0acbb0	-0.13554263
235	0xbc2b933f	-0.010472118
236	0x3e2ea630	0.17055583
237	0x3d64a124	0.05581774
238	0xbc81c10c	-0.015839122
239	0xbd9be423	-0.07611873
240	0x3c0b879e	0.00851622
241	0x3caead45	0.021322856
242	0x3c448499	0.011994504
243	0xbdf80921	-0.12111116
244	0xbe00322c	-0.12519139
245	0xbe0d2b97	-0.1378616
246	0xbd07abc1	-0.03312278
247	0xbdb379cf	-0.087634675
248	0xbdbecabe	-0.09316014
249	0xbdcf7292	-0.101292744
250	0x3ddeecaa	0.10884984
251	0xbdb76bf0	-0.08956134
252	0xbe1e127b	-0.15436737
253	0x3d92830f	0.07153904
254	0xbd835b90	-0.064139485
255	0xbd7399dc	-0.059472904

hidden2.bias f4 [256]
0	0xbc79419a	-0.015213395
1	0xbcc1bf33	-0.023650741
2	0x3be4e7ee	0.006985656
3	0xbb64db0b	-0.00349206
4	0xbb3e2a5f	-0.0029016954
5	0x3be7c6c4	0.0070732553
6	0x3d96e60f	0.07368099
7	0x3a8b3f43	0.0010623712
8	0xbc10b5a7	-0.008832372
9	0xbd04237a	-0.032260396
10	0xbcfe10f0	-0.031013936
11	0xbc552483	-0.013009193
12	0x3c61d9a7	0.0137848025
13	0xbbebe426	-0.0071988283
14	0xbc5fcef5	-0.013660182
15	0xbc24912c	-0.010044377
16	0x3d74bc22	0.05974973
17	0x3bd0c9ed	0.0063717277
18	0x3c370680	0.011170983
19	0xbca13472	-0.019678328
20	0x3b851f7b	0.0040625907
21	0xbae5d953	-0.0017536081
22	0xbc1a1dbc	-0.009406503
23	0x3ced7e57	0.028990908
24	0xbd45e233	-0.048311424
25	0x3daca4e1	0.08429886
26	0x3c32e66d	0.010919196
27	0xbcf8ef0f	-0.03038743
28	0x3c805af3	0.015668368
29	0x3cc8752d	0.024469936
30	0x00000000	0.0
31	0xbc5764ec	-0.01314662
32	0xbc4b4705	-0.012407069
33	0xbd1fb877	-0.03899428
34	0x3c90b5f3	0.017664885
35	0xbcb9e815	-0.022693673
36	0x3d040a17	0.032236185
37	0x3cdff82f	0.027340023
38	0xbc61b891	-0.013776914
39	0xbd476d54	-0.048688248
40	0x00000000	0.0
41	0x3d23936d	0.039935518
42	0x3d44e283	0.04806758
43	0x3b0ba373	0.002130714
44	0xbc927d96	-0.01788215
45	0xbc5869fd	-0.013208863
46	0x3c9d6be0	0.019216478
47	0xbca1c0b4	-0.019745208
48	0x3bda1022	0.006654755
49	0xbc3a68a8	-0.011377491
50	0x3c907e1b	0.017638257
51	0x3bddda07	0.0067703757
52	0xbc1c749a	-0.009549284
53	0x3d1a7dd9	0.037717674
54	0xbc9e49ed	-0.01932236
55	0x3d4ab578	0.04948947
56	0xbcfd0879	-0.03088783
57	0xbcba41e2	-0.022736493
58	0xbc0f5afc	-0.00874972
59	0x3cf2e314	0.029649295
60	0x3c2cb51a	0.010541225
61	0xbcb17fee	-0.021667447
62	0xbd289c12	-0.041164465
63	0x3d0be3e2	0.034152873
64	0xbcc63353	-0.024194395
65	0x3c8f9578	0.017527327
66	0x3bc5c591	0.0060355146
67	0xbc7f2a3f	-0.015574037
68	0xbd0a7bfd	-0.03380965
69	0x3c1206dd	0.008912769
70	0xbbc3efbd	-0.0059795068
71	0xbc591f3d	-0.013252077
72	0xbcb1dcd3	-0.021711743
73	0xbd0b8764	-0.034064665
74	0xbce4e6fa	-0.02794217
75	0x3c887d02	0.01666117
76	0xbb8799de	-0.0041382154
77	0x38314e9c	4.22733e-05
78	0xbd77c979	-0.060494874
79	0xbd06c2b2	-0.03290052
80	0x3c434b88	0.0119198635
81	0xbc322607	-0.010873324
82	0xbc80cf93	-0.01572398
83	0x3ca3c759	0.019992517
84	0x3cd71fb2	0.02626023
85	0xbcdf4cd0	-0.027258307
86	0xbcc5d324	-0.024148531
87	0xbd063246	-0.03276279
88	0xbc01485c	-0.007890787
89	0x3be61f03	0.00702274
90	0x00000000	0.0
91	0xbd677f85	-0.056518096
92	0xbc5da11b	-0.01352718
93	0xbcb79148	-0.022408143
94	0x3d014787	0.031562354
95	0xbd053319	-0.032519434
96	0xbd023cce	-0.03179627
97	0xbcc0149f	-0.023447333
98	0x3cad65b5	0.021166662
99	0x3c61131d	0.013737467
100	0xbd07a6bc	-0.033117995
101	0xbd019684	-0.031637684
102	0xbbd96d54	-0.0066353474
103	0xbb14f27f	-0.0022727547
104	0xbd9bba2d	-0.076038696
105	0xbb87090a	-0.0041209506
106	0x3b326a8f	0.0027224158
107	0x3ce12a3a	0.027485956
108	0x3bb085bf	0.0053870375
109	0xbd90543f	-0.07047319
110	0x3bf4bc2f	0.0074687223
111	0x3ca65939	0.020306217
112	0x39050cb1	0.00012688596
113	0xbc1d0b0f	-0.009585156
114	0x3bf68ac1	0.007523865
115	0xbc34a276	-0.011025062
116	0xbcb86e44	-0.022513516
117	0xbc006534	-0.007836629
118	0xbc908578	-0.017641768
119	0x3d1e7c7a	0.03869293
120	0xbcc3ecdd	-0.023916656
121	0xbd0d60d2	-0.034516163
122	0xbc80786f	-0.015682427
123	0x3c15a288	0.009132989
124	0xbc87a27e	-0.016556975
125	0xba920043	-0.0011138994
126	0xbc0b71d6	-0.008511027
127	0xbd230b65	-0.03980579
128	0x3ccd3acf	0.025052456
129	0x3bab57bd	0.005228965
130	0x3d184714	0.03717716
131	0x3cf23d02	0.029570106
132	0xbbc146da	-0.0058983387
133	0xbcd1305d	-0.025535757
134	0xbc719c4f	-0.0147467395
135	0x3caa6489	0.020799892
136	0xbc0fd686	-0.008779174
137	0xbc1d43e8	-0.00959871
138	0x3d17e424	0.037082806
139	0xbc542c93	-0.01295008
140	0xbd01eccf	-0.03171998
141	0x3bceda18	0.00631262
142	0xbbfc55db	-0.0077006645
143	0xbcbffb67	-0.023435308
144	0xbc2edae2	-0.010672303
145	0x3b5effbd	0.0034026944
146	0xbd990f0a	-0.074735716
147	0xba6f5026	-0.00091290695
148	0xbc6010dd	-0.0136758955
149	0x3cc4658b	0.0239742
150	0xbd47b9c7	-0.048761155
151	0xbc46f6fe	-0.012143848
152	0x3ca5a97e	0.020222422
153	0x3d016dd7	0.031598892
154	0x3ca136d2	0.01967946
155	0xbd62b14f	-0.055344876
156	0xbc32f252	-0.0109220315
157	0xbbf80456	-0.0075688763
158	0x3c007e61	0.007842631
159	0xbc262f9e	-0.010143189
160	0xbc5a3cc5	-0.013320153
161	0x3cb4c24c	0.022065304
162	0xbc5cc2ff	-0.013474225
163	0x3b63d2a3	0.0034763
164	0xbd01bd13	-0.031674456
165	0x3c422c36	0.011851361
166	0xbb9dda9b	-0.0048173196
167	0x3c9f7dc7	0.019469155
168	0xbd0f5e38	-0.035001963
169	0xbcfa7eea	-0.030578095
170	0x3bcb6d7a	0.006208119
171	0x3bf5f23b	0.0075056828
172	0x3ba6dd85	0.005092325
173	0xbc7e01e4	-0.01550338
174	0x3d087fd8	0.033325046
175	0xbc7539fc	-0.014967438
176	0xbc03590c	-0.008016836
177	0x3cc3f62d	0.023921097
178	0x3bbf99b8	0.005847182
179	0x3c2f9331	0.0107162455
180	0xbd1597e2	-0.0365218
181	0xbb8e5a9b	-0.004344297
182	0x00000000	0.0
183	0xbd170e55	-0.036878902
184	0xbbfb4f03	-0.007669331
185	0xbc2a16b2	-0.010381388
186	0xbb4614b1	-0.0030224735
187	0x3cbb3557	0.022852583
188	0x3b378ce9	0.0028007573
189	0x3aa3095f	0.0012438706
190	0xbc6ff019	-0.014644646
191	0x3caa6b93	0.020803249
192	0x3adc421a	0.0016804368
193	0xbc1737c8	-0.009229608
194	0xbca7cfcb	-0.020484826
195	0x3c93c153	0.01803652
196	0xbc10ee8e	-0.008845938
197	0xbccbb3e9	-0.024866061
198	0x3cd1ac00	0.025594711
199	0x3c492074	0.012275804
200	0x3c3ccfeb	0.011524181
201	0xbbc54ede	-0.0060213646
202	0xbbe09c0f	-0.006854541
203	0xbd6ec554	-0.058293656
204	0xbbc34fd4	-0.005960444
205	0x3c6b7e76	0.014373412
206	0xbcdf01e2	-0.027222577
207	0x3b74c72f	0.0037350168
208	0xbc999fbe	-0.018752929
209	0x3c630993	0.013857263
210	0x3cdba239	0.026810752
211	0xbd4c7bad	-0.049922634
212	0x3c5240b5	0.01283281
213	0xbd323ab7	-0.043513026
214	0xbbf898e9	-0.0075865877
215	0xbccf07c3	-0.025272256
216	0x3cb69a4d	0.022290373
217	0x3c282fe5	0.010265325
218	0x3cb30777	0.021854145
219	0x3cda0cd2	0.026617441
220	0xbb50802e	-0.0031814682
221	0xbc8982f3	-0.016786074
222	0x3c59dbe8	0.013297059
223	0xbaa8dfd0	-0.0012884084
224	0xbba41b65	-0.0050081485
225	0x3cf89305	0.030343542
226	0x3d37f630	0.044912517
227	0xbd1a5dd5	-0.03768714
228	0x3be0e63d	0.006863384
229	0x3b8f0098	0.0043640845
230	0xbd9ccae7	-0.07655888
231	0x3d79221e	0.060823552
232	0xbc4428f0	-0.011972651
233	0x3cbed866	0.023296546
234	0x3cc737a8	0.024318531
235	0x3bd59df4	0.0065190736
236	0xbcdf8587	-0.02728535
237	0x3b995e60	0.00468044
238	0xbc125852	-0.00893219
239	0x3a9b7e36	0.0011863175
240	0xbd024c0f	-0.031810816
241	0xbc2cb3e6	-0.010540938
242	0x3a4ba0cc	0.0007767796
243	0x3bb7816e	0.005600146
244	0x3b0108cf	0.0019689088
245	0xbc85174b	-0.016246459
246	0xbc235fd9	-0.009971582
247	0xbc929db0	-0.017897457
248	0x3a5a4a58	0.0008327118
249	0xbcceae7d	-0.025229687
250	0x3d7a521f	0.061113473
251	0xbd221230	-0.039568126
252	0xbc307294	-0.010769505
253	0x3caa38ef	0.020779101
254	0x3d22cbf8	0.0397453
255	0xbd10dbb6	-0.035365783

mu.weight f4 [3, 256]
0	0x3cb72316	0.022355597
1	0xbd03ab17	-0.032145586
2	0xbe2bf9ce	-0.16794512
3	0xbdc2fe31	-0.095211394
4	0x3bf43926	0.0074531017
5	0xbce6a312	-0.02815393
6	0xbd6b8aed	-0.057505537
7	0xbe121030	-0.14263988
8	0xbe0a98fe	-0.13534924
9	0x3dbd5bb1	0.092460044
10	0x3d6d9971	0.05800766
11	0xbcf33efe	-0.029693123
12	0x3e0df2cf	0.13862155
13	0xbd74d0bd	-0.05976938
14	0xbd8b76ae	-0.06809746
15	0x3d323ff2	0.043518014
16	0x3e2f6fa2	0.17132428
17	0x3e481986	0.19540986
18	0x3e2b6730	0.16738582
19	0x3df102e4	0.117681295
20	0x3d19ee80	0.037580967
21	0x3dc07832	0.093979254
22	0x3d0dcb31	0.034617607
23	0xbca6b703	-0.020350939
24	0x3c994a37	0.018712146
25	0x3c331b13	0.010931748
26	0xbc97f6a6	-0.018550228
27	0x3dafd942	0.085863605
28	0x3d609beb	0.054836195
29	0xbd933db7	-0.071895055
30	0x3d03a426	0.032138966
31	0x3e0ceab8	0.13761413
32	0x3d1946eb	0.03742115
33	0xbe124a4a	-0.14286152
34	0x3c6a83f4	0.014313687
35	0xbc5126f3	-0.012765634
36	0x3db78ea9	0.08962757
37	0xbdb326af	-0.08747613
38	0xbde2c165	-0.11072043
39	0x3de3f260	0.11130214
40	0x3ba1f4f3	0.0049425303
41	0xbe8ddfe9	-0.27709892
42	0x3e578bc8	0.21049416
43	0xbd94b155	-0.07260386
44	0xbdaf885e	-0.08570932
45	0xbd61ba88	-0.05510953
46	0x3df2ae4c	0.11849651
47	0xbc99af89	-0.01876046
48	0x3e529d8f	0.20567916
49	0xbd0f4518	-0.034978002
50	0xbdb26522	-0.08710696
51	0x3dfaf0b5	0.122529425
52	0x3c8fb1f8	0.017540917
53	0xbdf45e55	-0.11932055
54	0x3de656a4	0.11246994
55	0x3daf83dc	0.08570072
56	0x3e43af6b	0.19109885
57	0xbe32e40a	-0.17469802
58	0xbe2002f3	-0.15626125
59	0xbbfd76d4	-0.0077351127
60	0xbdf04fd3	-0.11733975
61	0x3e0ec7ed	0.13943453
62	0x3cd037ea	0.025417287
63	0xbe860f57	-0.26183578
64	0xbd1d0a38	-0.038339823
65	0xbcc80549	-0.024416583
66	0x3df83d72	0.12121095
67	0xbd84701a	-0.06466694
68	0x3d9d642c	0.07685122
69	0x3e01aa9a	0.12662736
70	0xbddd5e57	-0.108090095
71	0xbd32a56f	-0.0436148
72	0xbd9a2569	-0.07526667
73	0xbdf1489f	-0.117814295
74	0xbda9234e	-0.08258687
75	0x3e291c5b	0.16514723
76	0x3db6769f	0.08909344
77	0x3dc23e49	0.09484536
78	0xbdac1822	-0.084030405
79	0x3e1b39e3	0.15158801
80	0xbdccdb34	-0.10002747
81	0x3d83a578	0.06428045
82	0x3d5999a2	0.05312503
83	0xbc9c6713	-0.019092118
84	0xbd9777df	-0.073959105
85	0xbe299259	-0.16559733
86	0xbc1e3b4c	-0.009657692
87	0x3df84dca	0.12124212
88	0x3d1b1565	0.0378622
89	0xbd5bc81e	-0.053657643
90	0xbd980892	-0.0742351
91	0x3df22bb4	0.11824742
92	0x3d9a1be5	0.07524852
93	0xbe104966	-0.140905
94	0x3ba60dd6	0.0050675673
95	0xbaa680ee	-0.0012703219
96	0xbc88522b	-0.016640743
97	0xbdac75e3	-0.084209226
98	0x3e9834b5	0.29727712
99	0xbd85b58c	-0.06528768
100	0x3dde9072	0.108673945
101	0x3d95112a	0.072786644
102	0xbdacfb4b	-0.08446368
103	0xbd5c859e	-0.053838365
104	0x3dfdf49c	0.12400171
105	0x3e031444	0.128007
106	0xbe3074a2	-0.17231992
107	0x3dd1d58e	0.102458104
108	0x3da7f0b9	0.08200211
109	0xbe309b96	-0.17246851
110	0x3e1f15f2	0.15535715
111	0x3cac8845	0.021061072
112	0x3e12e198	0.1434387
113	0x3a85f31a	0.0010219545
114	0xbd930cd9	-0.07180185
115	0xbdca7aa3	-0.09886672
116	0x3da24e97	0.07925146
117	0x3db61e7f	0.088925354
118	0xbea84b7a	-0.32870084
119	0x3e1b29a4	0.15152603
120	0x3d13adda	0.03605447
121	0x3e236fc5	0.15960605
122	0x3e49264a	0.19643512
123	0x3de47e67	0.11156922
124	0x3dedae0c	0.116054624
125	0x3e0cf45c	0.1376509
126	0x3dec7719	0.115461536
127	0xbcab5bd6	-0.020917814
128	0x3d24715e	0.040147178
129	0x3caa2da9	0.020773726
130	0xbc0e1354	-0.0086716
131	0x3df1f523	0.11814334
132	0xbd621ebc	-0.05520509
133	0x3da60a1b	0.08107396
134	0xbd1e9d16	-0.038724028
135	0xbd269049	-0.040664945
136	0xbdc38eee	-0.09548746
137	0x3d12e835	0.03586598
138	0x3a3e808f	0.00072670815
139	0x3d8da2ad	0.069157936
140	0xbdb34dc9	-0.08755071
141	0x3d255ae7	0.040369894
142	0x3decc7b3	0.11561527
143	0xbdf9bb2a	-0.12193902
144	0xbd762abb	-0.060099345
145	0x3d0fc42e	0.0350992
146	0xbeec16c5	-0.46111122
147	0xbdd417ca	-0.103561
148	0x3de481bf	0.111575596
149	0xbe126078	-0.14294612
150	0x3d2d2e7a	0.04228065
151	0xbe036821	-0.12832691
152	0x3d0e6a5b	0.034769397
153	0x3db300e6	0.08740406
154	0x3d0e6549	0.03476456
155	0x3d184f8d	0.03718524
156	0xbe1165eb	-0.14199035
157	0xbe03538c	-0.1282484
158	0xbcc63529	-0.02419527
159	0xbdea7d22	-0.114496484
160	0x3dff661f	0.1247065
161	0x3da11d11	0.07866872
162	0x3c887fb9	0.016662465
163	0x3dea5ca4	0.11443451
164	0xbe2507d7	-0.16116272
165	0x3e271b89	0.16319098
166	0xbc41efd5	-0.011836966
167	0x3e32f687	0.17476855
168	0xbe11410b	-0.14184968
169	0xbd142f0f	-0.03617769
170	0x3e37a3df	0.17933606
171	0x3d246400	0.04013443
172	0x3d8df6bb	0.06931826
173	0xbe057b46	-0.13035306
174	0xbe2a970f	-0.16659187
175	0xbd734a58	-0.05939707
176	0xbe116b33	-0.1420105
177	0x3ca7bae0	0.020474851
178	0xbe248fb9	-0.16070451
179	0xbd0cee18	-0.03440675
180	0xbc94a71f	-0.018146096
181	0x3d3b4ea5	0.0457293
182	0x3c5959f0	0.013266072
183	0xbd0be871	-0.03415722
184	0x3db05c62	0.086113706
185	0xbd48eb14	-0.049052313
186	0x3d222ebc	0.03959535
187	0x3e2086a3	0.1567636
188	0xbdbbdfb8	-0.0917353
189	0x3dcae6e6	0.09907322
190	0x3d1ca030	0.038238704
191	0x3d43ab98	0.047771066
192	0x3db3e635	0.08784143
193	0xbcc72654	-0.024310268
194	0x3cd4fd2f	0.025999634
195	0xbe155f5d	-0.1458716
196	0xbe39aaab	-0.18131511
197	0xbd23030e	-0.039797835
198	0x3e021bf4	0.12705976
199	0x3d24df6d	0.040252138
200	0xbd8cfe1f	-0.06884407
201	0xbe0f7726	-0.14010295
202	0xbd6964b9	-0.056980822
203	0xbe1041f9	-0.14087667
204	0xbc5e0e68	-0.013553239
205	0xbdd74bc7	-0.105125
206	0x3e3ccf04	0.18438345
207	0xbcd08660	-0.0254547
208	0xbdd9b34b	-0.106299005
209	0xbe067447	-0.13130294
210	0x3dc379f0	0.09544742
211	0x3e5c3c43	0.21507363
212	0x3dd368a0	0.1032269
213	0x3e3b2bba	0.18278399
214	0x3e0d9653	0.13826875
215	0xbd8fbcda	-0.070184425
216	0xbe234f0b	-0.15948121
217	0xbd92b6d5	-0.07163779
218	0xbe05c992	-0.13065174
219	0x3e1038bb	0.14084141
220	0x3dbbbb92	0.091666356
221	0xbd91326d	-0.07089696
222	0xbdcbf0f7	-0.0995807
223	0xbd546d5a	-0.0518621
224	0x3b60b484	0.0034287283
225	0xbc1fbe43	-0.009749952
226	0xbc53a560	-0.012917846
227	0xbd9618ab	-0.07328924
228	0xbc34f994	-0.011045832
229	0xbdf838e9	-0.1212023
230	0x3c0141be	0.007889209
231	0xbe168e80	-0.14702797
232	0xbe157c4d	-0.14598198
233	0xbdab3fef	-0.08361804
234	0xbe0b1d2b	-0.13585345
235	0x3dcd92bc	0.10037753
236	0xbc6bdb37	-0.014395527
237	0xbae0a39f	-0.0017138607
238	0xbd6f7bfb	-0.058467846
239	0xbdf7af9d	-0.120940425
240	0xbac59481	-0.0015074165
241	0xbd382250	-0.044954598
242	0x3cfbef48	0.030753747
243	0xbb734b95	-0.0037123908
244	0xbe0b937a	-0.13630477
245	0xbd116045	-0.0354922
246	0x3df68e56	0.12038867
247	0xbdf627aa	-0.12019284
248	0xbd91648f	-0.07099258
249	0xbd16e009	-0.03683475
250	0x3db60a64	0.088887006
251	0x3d8ccfd3	0.06875577
252	0xbd89da03	-0.067310356
253	0x3d945708	0.072431624
254	0xbd93e721	-0.07221819
255	0x3b522765	0.0032066938

mu.bias f4 [3]
0	0xba5c50e3	-0.0008404387
1	0x3c5a48f9	0.013323062
2	0x3cda67b7	0.026660783

log_std.weight f4 [3, 256]
0	0x3d38fbde	0.045162074
1	0x3d75362f	0.059866127
2	0x3daea2ce	0.08527146
3	0x3d85efab	0.06539854
4	0x3d9a0e35	0.07522241
5	0x3c15b05c	0.009136286
6	0xbdbd8679	-0.09254164
7	0x3db14e2b	0.086574875
8	0xbb0ba5f3	-0.002130863
9	0x3d88e20c	0.0668374
10	0x3c510e2f	0.012759729
11	0x3d9ff298	0.07809943
12	0xbc769ea0	-0.015052468
13	0x3d55a56c	0.05215971
14	0x3df27340	0.118383884
15	0xbb7c9aab	-0.0038544338
16	0x3d4936c6	0.0491245
17	0xbd3fc585	-0.04681923
18	0xbd23694d	-0.039895345
19	0x3c7d21e5	0.015449976
20	0x3d9a06a2	0.07520796
21	0x3c758599	0.014985465
22	0x3d8a7667	0.06760865
23	0xbde08e95	-0.10964695
24	0x3d621d17	0.055203523
25	0x3d12565f	0.0357269
26	0xbd60bee3	-0.054869544
27	0x3d2533d9	0.04033265
28	0x3c9ba28c	0.018998407
29	0xbd87ee53	-0.066372536
30	0x3bcd02cb	0.0062564365
31	0x3de59270	0.11209571
32	0xbe0b3e29	-0.13597931
33	0x3de79ff6	0.11309807
34	0xbc770f11	-0.015079276
35	0xbd7d081e	-0.06177532
36	0x3d5e9715	0.0543433
37	0xbd60dc34	-0.054897502
38	0x3bc595e0	0.0060298294
39	0x3c110a06	0.008852487
40	0xbbcce397	-0.0062527168
41	0x3c9864bd	0.018602723
42	0x3dd24e51	0.10268844
43	0xbdfddd9b	-0.123957835
44	0x3df708bd	0.120622136
45	0x3dfa7ce2	0.12230851
46	0xbd96a476	-0.07355587
47	0xbdc97fe9	-0.0983885
48	0xbd8a93df	-0.067664854
49	0xbc6874c6	-0.014187997
50	0x3df5f65b	0.12009879
51	0xbdf99fc3	-0.12188675
52	0xbd3041c6	-0.043031476
53	0xbd456967	-0.048196223
54	0x3ddd622f	0.10809743
55	0xbd153756	-0.036429726
56	0x3dd53f0c	0.10412416
57	0xbd09f1f7	-0.03367802
58	0xbdb5329a	-0.08847542
59	0xbcde0286	-0.027100813
60	0x3d8ee49d	0.06977198
61	0x3df734b6	0.12070601
62	0x3dd72bb3	0.10506382
63	0xbcb9d39b	-0.02268391
64	0x3d982111	0.07428182
65	0xbda7deae	-0.0819677
66	0xbd2b8d18	-0.041882604
67	0x3cbc61ba	0.022995818
68	0xbcfab8d6	-0.030605715
69	0xbdfb2b76	-0.12264149
70	0xbc84519b	-0.016152194
71	0x3c57364e	0.013135506
72	0x3d88fac3	0.06688454
73	0xbdc36f1d	-0.095426776
74	0x3d541d38	0.051785678
75	0xbd2cb8c3	-0.04216839
76	0x3d238bcb	0.03992824
77	0xbd720f4d	-0.059096623
78	0x3d4fda27	0.050745156
79	0x3dfbe197	0.12298887
80	0xbdc4ec6c	-0.096154064
81	0x3d8b0c66	0.06789474
82	0x3d31f3e6	0.04344549
83	0xbd99113d	-0.07473991
84	0xbd96dca5	-0.07366303
85	0x3dac2deb	0.08407196
86	0x3ced3371	0.028955193
87	0x3ddb01ae	0.1069368
88	0xbdde7c22	-0.1086352
89	0xbd12b38f	-0.03581577
90	0xbdd79da7	-0.10528117
91	0x3d4da83b	0.050209265
92	0xbd6e0a6b	-0.058115404
93	0xbd53ed09	-0.051739726
94	0xbacdd57f	-0.0015703886
95	0x3d748f36	0.05970689
96	0x3c240833	0.0100117205
97	0xbd5ac169	-0.053407107
98	0x3e0d62fe	0.13807294
99	0x3b4664a6	0.0030272393
100	0xbd832dcc	-0.064052194
101	0x3d69215f	0.05691659
102	0x3dfec13b	0.124391995
103	0xbda5fb46	-0.08104567
104	0x3d97e557	0.0741679
105	0xbcfdf810	-0.031002074
106	0x3d05c4b3	0.03265829
107	0xbddd9fd4	-0.108215004
108	0xbc5509f6	-0.013002863
109	0x3d09d946	0.033654474
110	0x3d67efba	0.056625105
111	0xbdeae38a	-0.11469181
112	0x3d36d889	0.044640098
113	0x3de51287	0.111851744
114	0xbd06193d	-0.032738913
115	0x3d95faa5	0.07323197
116	0x3dbddd4e	0.09270726
117	0x3c9c7cfa	0.019102562
118	0x3b82255a	0.003971738
119	0xbcfa184a	-0.03052916
120	0x3d92ffe8	0.071777165
121	0xbd4a8486	-0.04944279
122	0x3e7c8b1a	0.24662438
123	0xbd9b0426	-0.075691506
124	0x3d99b077	0.07504361
125	0x3dcad45e	0.09903787
126	0x3de14eaf	0.11001336
127	0xbdb61fb4	-0.08892766
128	0x3c07ebe3	0.008295986
129	0x3da42d0d	0.08016405
130	0xbd7c253f	-0.06155896
131	0xbd2a7bd1	-0.041621987
132	0xbda736c2	-0.08164741
133	0xbcd88e9a	-0.026435185
134	0x3dea820a	0.11450584
135	0x3ba97c64	0.005172299
136	0xbd8378a4	-0.06419495
137	0xbd250deb	-0.040296476
138	0xbdd4b5b5	-0.1038622
139	0xbcd75de7	-0.026289893
140	0xbdc2b5eb	-0.09507354
141	0x3cc588a0	0.024113
142	0x3db0b5fc	0.08628461
143	0x3c104888	0.008806355
144	0x3dd528dc	0.10408184
145	0xbde0cf10	-0.10976994
146	0x3e34549f	0.17610405
147	0xbd56761f	-0.052358743
148	0x3dddfdc4	0.108394176
149	0xbe027c8c	-0.12742823
150	0x3c88f4b8	0.016718253
151	0xbdde8754	-0.108656555
152	0xbde2aa82	-0.11067678
153	0x3d0894bf	0.03334498
154	0xbdcc4d7e	-0.09975718
155	0xbcf4f4e5	-0.029901931
156	0x3dd38671	0.10328377
157	0xbe1d463c	-0.15358824
158	0xbd197c84	-0.037472263
159	0x3e0861b3	0.1331852
160	0x3db9d52d	0.09073863
161	0x3c11cfb5	0.008899619
162	0xbcc9401c	-0.024566703
163	0x3dd86ac6	0.105672404
164	0x3de27ec4	0.11059335
165	0xbdb4339c	-0.08798906
166	0x3d5e8ad7	0.054331627
167	0xbd84ae91	-0.064786084
168	0xbda6cdce	-0.08144723
169	0xbcad1b4b	-0.021131178
170	0x3d108402	0.035282142
171	0x3d62f606	0.055410407
172	0xbd6ec255	-0.0582908
173	0x3d425545	0.0474446
174	0x3d59a2e7	0.05313387
175	0xbb98f7c6	-0.004668209
176	0x3cf47fc3	0.029846078
177	0xbe2c246a	-0.16810766
178	0x3df14d12	0.11782278
179	0xbcecc490	-0.028902322
180	0x3d96821c	0.07349035
181	0xbcbaac8e	-0.022787359
182	0x3e02588a	0.12729087
183	0x3da9fd58	0.083002746
184	0xbe0882e8	-0.13331187
185	0xbd95935a	-0.07303496
186	0x3cd3218c	0.025772832
187	0xbcf392ee	-0.029733147
188	0xbdc5669f	-0.09638714
189	0xbd6579fb	-0.056024533
190	0x3d87fc30	0.06639898
191	0xbdd05676	-0.10172741
192	0xbd78ee01	-0.060773853
193	0xbdd13124	-0.10214451
194	0x3dade0ed	0.08490167
195	0xbd0b13c5	-0.0339544
196	0xbdb6d13a	-0.089266255
197	0xbc23941c	-0.0099840425
198	0x3d17015d	0.036866535
199	0xbda00e1a	-0.0781519
200	0xbe11e6f8	-0.14248264
201	0xbd3fd266	-0.04683151
202	0x3df86ce9	0.12130148
203	0xbdcf0a26	-0.101093575
204	0x3d2ec92f	0.042672332
205	0xbdcfee2e	-0.10152851
206	0x3e4e34e3	0.20137362
207	0x3d17fa66	0.037104033
208	0x3e04de65	0.12975462
209	0x3dac6dce	0.08419381
210	0xbda28b9e	-0.07936786
211	0x3ceda398	0.029008672
212	0xbdbcbab0	-0.09215295
213	0x3dbe3c07	0.09288793
214	0x3d813eec	0.063108295
215	0xbe14044d	-0.14454766
216	0xbdd36710	-0.10322392
217	0xbdf9042f	-0.12159001
218	0x3d92b374	0.07163134
219	0xbde2b2a0	-0.11069226
220	0x3dc3e9e6	0.09566097
221	0xbc99e2ce	-0.018784907
222	0xbe048b46	-0.12943754
223	0xbd3102e8	-0.043215662
224	0xbe06189b	-0.13095324
225	0xbdda2117	-0.10650843
226	0xbc275e28	-0.01021532
227	0x3d68132c	0.05665891
228	0x3cf63245	0.030053267
229	0xbd3c2c1d	-0.045940507
230	0x3cc3e279	0.023911702
231	0xbd0ec63b	-0.034857016
232	0x3d73b6ff	0.05950069
233	0x3dcd7933	0.100328825
234	0xbd87e80a	-0.06636055
235	0xbe164fdd	-0.14678903
236	0x3db4bbec	0.08824906
237	0x3d46e8f5	0.04856201
238	0x3d9c323a	0.076267675
239	0xbe2092db	-0.15681021
240	0x3b6f7094	0.0036535608
241	0x3dbf5211	0.09341825
242	0xbdc4f7b7	-0.0961756
243	0xbd9bdcd1	-0.07610477
244	0xbe04f4b7	-0.12983976
245	0xbdb0ac17	-0.086265735
246	0x3d2cb535	0.042165
247	0x3d9e69d6	0.0773503
248	0xbde1f1f9	-0.11032481
249	0xbc83603a	-0.016037095
250	0xbd1e6b70	-0.03867668
251	0xbcd0a04b	-0.025467059
252	0xbd5bb091	-0.053635184
253	0xbdf8e32b	-0.12152704
254	0xbdb661a7	-0.089053445
255	0x3da88fae	0.0823053

log_std.bias f4 [3]
0	0xbd260efe	-0.04054164
1	0xbd1942ef	-0.03741735
2	0xbd0511c5	-0.03248765
