Hopper-v2/weights.pth (torch, 284047 bytes, 8 tensors)

hidden1.weight f4 [256, 11]
000000 ff 0f cd bd 1d 05 18 40 11 f5 0f 3f 33 df 0e 3d
       -0.10012817 2.375312 0.56233317 0.034880828
000010 21 d6 0c bf b6 82 da 3e c0 25 23 3e 12 d1 4a be
       -0.55014235 0.4267785 0.15932369 -0.19806316
000020 a3 70 13 3f c1 c2 6b bc d0 4d bf bc 84 7a 25 3f
       0.57593745 -0.014389695 -0.023352534 0.6464007
000030 c2 5a 63 40 a5 21 4e 3e 75 77 00 bf 44 98 5d 3d
       3.5524144 0.20130022 -0.50182277 0.05410029
000040 23 b5 13 be 99 d7 90 3e 03 36 ef be 37 d2 72 3e
       -0.14424567 0.28289488 -0.46720895 0.23713003
000050 f0 42 1a 3e 6e d1 1f bd f0 68 77 3f 87 95 4a c0
       0.15064597 -0.039018087 0.96644497 -3.1653764
000060 cf 8a d3 3d 40 0c 41 bf 76 a7 41 bf e3 a9 61 bf
       0.1032921 -0.75409317 -0.7564615 -0.8814985
000070 2d ad f3 be 40 9a 09 bf 0c f4 f9 3e 6d e9 31 3e
       -0.4759306 -0.5375099 0.48819005 0.17374201
000080 aa 05 e5 3c 90 9c e3 3d 89 49 90 3f 2c 38 2e 3f
       0.027956802 0.11113846 1.1272441 0.6805446
000090 23 e6 84 3f 4e 80 a8 3e 7a ac b1 bf 3a 15 96 bd
       1.0382732 0.3291039 -1.3880761 -0.073282674
0000a0 de 63 9d 3f ee 80 7f bf 06 18 b8 bd 03 e1 eb 3d
       1.2296102 -0.99806106 -0.08988957 0.11517527
0000b0 fc 60 51 3f 9a f4 ec bf c9 c1 a4 3f a9 17 b2 3f
       0.8178861 -1.8512146 1.2871639 1.391347
0000c0 a7 02 8a 3f e8 fa 00 bf 73 e5 11 3e 27 df 9d 3e
       1.078206 -0.5038285 0.14247684 0.30834314
0000d0 e2 a1 92 be d0 01 c8 bd 91 ff 9e bc 6a b0 b6 be
       -0.28639132 -0.09765971 -0.019408973 -0.35681468
0000e0 ce e6 03 40 59 a0 e6 bf c8 f4 5e 3e ec 9a b9 3d
       2.0609622 -1.8017684 0.21773064 0.09062752
0000f0 27 d2 ce be 13 90 05 3f 6c 98 44 3f 39 fd 2b bf
       -0.4039471 0.52172965 0.7679508 -0.6718326
000100 d9 89 93 be 43 06 69 bd 32 83 87 be 15 9e 42 c0
       -0.28816107 -0.056890737 -0.26467282 -3.0408986
000110 40 c5 6b be 46 ac 1b 3e 9b 36 46 3f 2e fd 11 bf
       -0.23024464 0.15202436 0.7742707 -0.57026947
000120 21 3b b1 bd 27 ce 1c be c7 86 c8 be 60 2b 65 3e
       -0.08653856 -0.15313016 -0.39165327 0.22379827
000130 b5 e0 c0 3d 35 ae a0 be 57 ce 21 40 80 bf 0d 40
       0.094178595 -0.3138291 2.528219 2.2148132
000140 08 f2 c4 3f 4b 54 4e bf 25 6d 2b bf 4d a6 85 3f
       1.5386362 -0.8059737 -0.66963416 1.0441376
000150 cf 79 ae be 7e a1 65 3f 12 2f 53 3f 8f 7d 6e be
       -0.34077308 0.8969954 0.824937 -0.23290084
000160 44 61 8c bf 73 57 68 40 72 91 0d bf b1 02 ae be
       -1.0967183 3.6303375 -0.55300057 -0.33986428
000170 5e 4b fd 3e 13 fe 08 3f 1d 81 6a be 27 73 7c bc
       0.49471563 0.53512686 -0.22900815 -0.015408314
000180 af 17 a8 bc 0a d1 fb 3d 0b ac 61 3e 83 45 77 3e
       -0.020519106 0.122957304 0.22038285 0.2414761
000190 9d 69 f0 3f 65 88 8f bd 8f f4 f3 bf 02 53 88 bf
       1.8782231 -0.07008437 -1.9059008 -1.0650332
0001a0 75 44 f5 be 7e 67 36 be b6 cd 0e bf 51 20 18 3f
       -0.4790379 -0.17812917 -0.5578264 0.5942431
0001b0 82 65 13 3f 36 cd 1f bd 3c 35 ca bd b5 e5 b5 40
       0.57576764 -0.039014064 -0.09873435 5.6842904
0001c0 58 d5 d0 3e 7d dd 4e be 43 69 8e 3b fc 38 da 3d
       0.40787768 -0.20201679 0.0043460443 0.106554
0001d0 a4 72 54 be 2d 8b 94 3d 31 33 8a 3d c7 7b 9a bc
       -0.20746857 0.07253108 0.06748045 -0.01885785
0001e0 07 b0 07 3e f0 78 2d bf 34 f1 1a c0 ae c4 65 3f
       0.13250743 -0.6776266 -2.4209719 0.89753234
0001f0 dd e7 76 3e b3 20 a6 3e f7 e0 74 bf 2b fb 28 bf
       0.24111886 0.32446823 -0.9565577 -0.6600825
000200 57 1d 39 bf 7d ad 00 3d c9 57 c0 be ca b8 c3 3d
       -0.72310394 0.03141545 -0.37566975 0.0955673
000210 4a 4f c5 3d 65 d4 10 c0 07 5b 92 3f 94 7b d0 be
       0.09634264 -2.2629635 1.1434029 -0.40719283
000220 4c f6 16 c0 75 25 86 be 65 90 f6 be 42 67 3d 3e
       -2.3587828 -0.26200452 -0.4815704 0.18496421
000230 04 a2 c1 bd df ad c1 be c6 91 8a bd bd bd ea 3e
       -0.0945473 -0.37827966 -0.06766085 0.45847884
000240 05 03 97 bf f8 9e 18 be a3 e6 71 3e 0b 1b b7 be
       -1.1797796 -0.14904392 0.23623137 -0.3576282
000250 df 20 a1 be 2e 4f da bd eb 86 42 bf ad 14 3e be
       -0.3147039 -0.106596336 -0.7598712 -0.18562575
000260 cb 8a ad 3e a3 fc bd 3d 51 82 eb bc 0b 3b 9d bf
       0.33894953 0.09276702 -0.028748663 -1.2283643
000270 97 2c 4a bf b0 86 12 bf 52 87 e0 be 5a e0 15 bf
       -0.7897429 -0.57236767 -0.4385324 -0.5854546
000280 e9 45 21 3e 21 50 5e be e6 5e 45 3f ae b5 44 be
       0.15749325 -0.21710254 0.7709793 -0.1920993
000290 dd db 59 3d af 49 9d 3f 0b 62 2c c0 8a 89 c9 3d
       0.053188194 1.2288111 -2.693484 0.098406866
0002a0 e4 52 4d 3f 44 eb 18 be a8 27 3d bf 50 1f e7 be
       0.80204606 -0.14933497 -0.73888636 -0.45141077
0002b0 58 e0 da be 16 db db 3e 1b cb 79 3e 38 94 37 bd
       -0.42749286 0.42940587 0.24393885 -0.044819087
0002c0 36 9e 92 3e 34 2c 89 3f e3 c6 2e 3e 24 bb a7 3f
       0.2863633 1.0716615 0.17068057 1.3103986
0002d0 d2 08 6f bf 91 20 a7 be b6 e1 aa be 5e 5d 08 3f
       -0.93372834 -0.32642034 -0.3337533 0.5326747
0002e0 bf 88 a8 be 3d 01 cb bd 30 93 84 bd 5a 6d 69 3d
       -0.3291683 -0.099123456 -0.06473386 0.05698905
0002f0 36 31 84 be 61 94 98 3f a8 ac 76 3f 20 45 4c bf
       -0.25818795 1.1920282 0.963572 -0.79792976
000300 34 a4 29 3e 4a a0 56 be f6 02 9b bc c2 9d 99 3d
       0.16566545 -0.20959583 -0.01892231 0.07500793
000310 a1 72 83 be 64 93 15 3e 6f bc 32 3f 38 5f 88 c0
       -0.25673392 0.14607006 0.69818777 -4.2616234
000320 b0 df dc 3e 4e 05 fd be 30 84 4c 3f 73 51 5e bd
       0.4313941 -0.4941811 0.798892 -0.054276895
000330 33 6f 4d 3e 7d 7c 08 bf 8f 71 bf 3e 78 f1 5b 3e
       0.2006195 -0.53314954 0.37391326 0.21478832
000340 86 79 a7 bd 7b 1f b6 3e 05 7f ad 40 38 1b 49 3f
       -0.08177476 0.35570893 5.4217553 0.7855716
000350 ed 30 89 3e 65 3e 2d bf 09 ed 1d bd b4 36 30 be
       0.2679514 -0.6767333 -0.038556132 -0.17208368
000360 2f e6 f0 3e 86 73 23 be cb 9f c0 bd b7 d7 66 bd
       0.47050616 -0.15962037 -0.09405478 -0.056358065
000370 70 ee 9e be 05 82 42 c0 b5 da 05 3f 95 91 21 bf
       -0.31041288 -3.0391858 0.52286845 -0.63112766
000380 4b d4 be be a3 65 37 bb dc ad 7a be c4 27 b7 3e
       -0.37271342 -0.0027984164 -0.24480385 0.35772526
000390 71 66 72 3b 4e 0c d7 bd 1e a2 80 bd 24 dc 86 be
       0.003698733 -0.10500394 -0.062809214 -0.2633983
0003a0 f4 ec 44 bf dd c8 05 3f 83 41 2c 3e 99 cd 9c 3f
       -0.7692406 0.5225962 0.16821866 1.2250243
0003b0 7f 9f 45 bf a2 90 1f be 4f 7b d1 be 45 e2 31 be
       -0.77196497 -0.15582517 -0.4091439 -0.17371471
0003c0 94 16 0e 3e 3a 77 83 3e dd a8 0d bf 43 63 25 be
       0.138758 0.256769 -0.5533579 -0.16151147
0003d0 a4 21 14 3f b5 af 78 3e c7 d2 9a 3d 4b f1 5c bf
       0.5786383 0.24285777 0.07559734 -0.86305684
0003e0 79 66 4f 3f eb 93 f8 3e fb f2 f8 be 47 0a 92 bd
       0.81015736 0.48550352 -0.4862288 -0.071308665
0003f0 05 d8 11 3f d2 9a 53 bf 53 01 90 3f 1a 06 f1 3e
       0.56970245 -0.8265811 1.1250404 0.47074968

hidden1.bias f4 [256]
000000 dc 72 5e be 4c f0 9d be 7f 01 e7 3e 61 94 90 3d
       -0.21723503 -0.30847394 0.4511833 0.07059551
000010 4f d7 a5 3c 66 48 cc be 27 87 00 be ba ea d7 3e
       0.020244269 -0.39898986 -0.12551557 0.4217127
000020 73 65 8a bf 60 c9 38 be 61 c6 ba be 69 03 7b be
       -1.081221 -0.18045568 -0.36479476 -0.2451302
000030 ce 1e 09 bf 4c 96 1c bf 2f 32 3a be 6e e3 9b be
       -0.5356263 -0.61166835 -0.18183206 -0.30446953
000040 6b fa 91 bc ba 65 45 3c de e2 91 be 24 7c c9 be
       -0.017819604 0.012048179 -0.28493398 -0.39352524
000050 3c 15 02 3f a0 4d 74 be 8f 93 c5 be 47 98 44 bf
       0.5081365 -0.23857737 -0.3858914 -0.76794857
000060 e3 a6 64 be c5 09 9e be f6 18 88 3e c5 86 8b 3d
       -0.22329287 -0.3086683 0.26581544 0.068128146
000070 d3 71 e9 be f6 c9 ca be bf ae 5f bf 69 d2 9a be
       -0.45594653 -0.3960721 -0.87376016 -0.30238655
000080 01 80 f0 be 22 b8 29 3e c2 c5 3f be e0 4d f9 3d
       -0.4697266 0.16574147 -0.18727782 0.121730566
000090 10 8c 24 bf e6 3a 50 bf ad 94 38 bf 15 3f 7d be
       -0.6427622 -0.8133987 -0.7210186 -0.24731095
0000a0 71 26 e1 bd 0e cb b5 3e 26 11 5a bf 92 dc 31 bf
       -0.1099366 0.3550648 -0.85182416 -0.6947719
0000b0 91 c0 d3 bf 8b 04 5a bd a1 83 29 bf d0 88 3a bf
       -1.6543142 -0.05322699 -0.66216475 -0.7286501
0000c0 80 b5 55 3e 72 a7 2f bf 7c 4c 3f be e9 1f 81 be
       0.20870018 -0.68614876 -0.1868152 -0.25219658
0000d0 f0 f7 5a bf 29 f1 6f be e4 f5 62 3d b6 d3 1e 3e
       -0.8553457 -0.23431839 0.05541028 0.15510449
0000e0 42 30 1c 3e 15 b6 53 bf 6d 50 4c 3e e2 f6 4b bf
       0.15252784 -0.8269971 0.19952555 -0.7967359
0000f0 c2 76 5a be e5 60 b0 3d a3 e4 8d bf bf 37 4d be
       -0.21334365 0.08612231 -1.1085399 -0.20040797
000100 f6 8c eb be 47 42 55 bf ae fe c5 be 59 35 ca be
       -0.46005982 -0.83304256 -0.38670868 -0.39493826
000110 25 1f 1b bf 9a 2c 07 bc e1 49 54 3f cd 76 94 be
       -0.605944 -0.00825038 0.8292523 -0.28996888
000120 99 1a 07 bd d9 f6 3f be 45 58 b9 3e 68 63 f6 be
       -0.03298435 -0.18746509 0.36200157 -0.48122716
000130 c0 db 49 3d 10 dd 0b 3e be c6 88 be 7e 0a 13 bf
       0.049281836 0.13658547 -0.26714128 -0.57437885
000140 ac b4 b7 be 4a 08 c9 be eb 6c 0b 3f 6b 7d da 3e
       -0.3588003 -0.39264137 0.5446307 0.4267381
000150 3c c4 e6 bc e8 ea e8 bd 6c f0 18 be fe f0 fa bc
       -0.028169744 -0.1137293 -0.14935464 -0.030632492
000160 2a 40 69 bf 3d 72 b6 be b3 5a e2 bf d3 2b 46 3e
       -0.9111353 -0.35634032 -1.7683929 0.19352655
000170 c0 35 00 3e 84 01 24 bf cd 3e 80 3e f4 f5 df 3c
       0.12520504 -0.6406481 0.25047913 0.02733896
000180 f5 05 b7 3e 5b 72 fd bd bb 03 a2 be fa 36 7f be
       0.35746732 -0.12375327 -0.3164347 -0.24923316
000190 35 75 99 3d 7d c5 af bd a5 bb fc bd a1 62 4d be
       0.074930586 -0.0858259 -0.12340478 -0.20057155
0001a0 52 32 10 3f c9 31 81 be 19 83 c7 bd 4c 0e 7a 3d
       0.5632678 -0.25233296 -0.09741802 0.06104879
0001b0 36 19 3f bd 36 31 2d be a8 aa 64 bf 15 a5 2b bf
       -0.046654902 -0.16913304 -0.893229 -0.6704877
0001c0 cc 31 e7 be eb f3 09 3e 0d fa 9f be c7 75 de 3e
       -0.4515518 0.13471954 -0.3124546 0.43449232
0001d0 53 7d 7f be cd 4e 99 be 26 83 ac be 81 c5 da be
       -0.24950151 -0.29942933 -0.33693808 -0.4272881
0001e0 b9 7e 4f bd 17 c2 74 be 36 5b 3d 3e df 53 d0 3e
       -0.05065796 -0.23902164 0.18491825 0.4068899
0001f0 7e e3 39 be 3f 21 65 bf 8a fa 08 be d7 e9 10 bf
       -0.18153188 -0.89503855 -0.13376823 -0.5660681
000200 4c e0 38 be e8 ce 6c 3e 90 51 9b be 56 7b b9 be
       -0.18054312 0.23125803 -0.30335665 -0.3622691
000210 22 5a 0e 3f c4 20 a8 be 1c c8 15 be d3 c7 59 3e
       0.5560628 -0.32837498 -0.14627117 0.21267633
000220 f7 dc a2 bf 43 56 d1 be 09 be 3e bf 32 44 11 3e
       -1.2723683 -0.40886125 -0.7450872 0.1418617
000230 0c b8 13 be 69 ad ae be 6f 23 24 3e aa 31 68 bf
       -0.14425677 -0.34116676 0.16029142 -0.9070078
000240 46 ae db be 14 ce 49 bf 87 e9 1b bf 51 e0 0a bf
       -0.42906398 -0.78830075 -0.6090321 -0.5424853
000250 1e 9c 77 bd 61 33 2e bf 36 50 bd be 01 39 02 3f
       -0.06045162 -0.6804715 -0.3697526 0.5086823
000260 0f e8 15 bf 7b ab b0 be f1 46 9b bc 26 d2 2e be
       -0.5855722 -0.3450583 -0.018954726 -0.17072353
000270 ed c2 4f bf 34 91 94 be 66 bb 4b bf 51 40 71 3d
       -0.8115681 -0.2901703 -0.7958282 0.058899228
000280 34 92 30 bd e7 fc 13 be ff 52 b9 bd 6f 38 01 bf
       -0.04310818 -0.14451943 -0.090490334 -0.50476736
000290 02 3f e5 3e 8e 35 b7 be 39 78 20 bf 94 ba 52 bf
       0.44774634 -0.35783046 -0.62683445 -0.82315946
0002a0 dd 97 b5 3e 36 f9 a6 3e 0f e2 76 be ad 02 61 bf
       0.35467425 0.32612008 -0.24109672 -0.8789471
0002b0 64 ae 31 3f 39 53 8c 3e 7f 42 18 3f 14 eb 03 bf
       0.69406724 0.27407244 0.59476465 -0.51530576
0002c0 c8 0f f2 bd f9 37 4f 3e 2e b0 40 3d 59 81 8b be
       -0.11819416 0.20236196 0.047043018 -0.27247122
0002d0 a4 24 41 bf 5f e1 fa bd 18 91 bb 3d 90 29 0f bf
       -0.75446534 -0.122500174 0.09158534 -0.55922794
0002e0 67 fe 26 bf b4 7b 7b 3e 98 ad 17 3e ba d1 2a 3f
       -0.6523194 0.24558908 0.14812315 0.6672627
0002f0 68 13 06 be 51 7f 1a be bc 40 e9 be 88 28 82 bd
       -0.1309334 -0.1508763 -0.455572 -0.06355387
000300 4a c5 1c bf 43 56 23 bf 87 00 31 bf 09 4b aa be
       -0.6123854 -0.638035 -0.6914143 -0.33260372
000310 34 e6 e3 3e f8 41 38 bf ee 1d 31 be 96 fc 8b 3e
       0.4451157 -0.7197566 -0.17296574 0.27341145
000320 8c 51 00 bf 33 1c 4d 3f 7d 5f 03 be ae f7 fa 3d
       -0.5012443 0.80121154 -0.12829395 0.122542724
000330 22 02 17 bf c1 45 1a be e7 27 f8 be 10 aa a6 bd
       -0.5898763 -0.15065672 -0.48467943 -0.081379056
000340 0e 4f 67 bf 8e d5 0e bf ee 1d 19 bd ba 61 86 be
       -0.90355 -0.5579461 -0.03738206 -0.26246434
000350 9f 10 11 bc 77 7c 97 3e c2 4a 04 3f b9 49 0d 3e
       -0.00885406 0.29587147 0.5167657 0.13797654
000360 74 38 12 3e 3d 23 1d bf 48 6a c6 be d6 ec 6e 3a
       0.14279348 -0.61381894 -0.3875296 0.0009114271
000370 76 fa fe be 1d 25 88 3e 63 03 f3 be 28 77 4f 3e
       -0.49800462 0.26590815 -0.4746352 0.20260298
000380 92 de 4b be 6b 40 5d bf ea 32 2a bf be 41 0a bf
       -0.19909123 -0.8642642 -0.6648394 -0.54006565
000390 3d 1b ea 3d 21 87 86 bf 0b 93 db 3c 92 68 11 bf
       0.114309765 -1.0509988 0.026803514 -0.56800187
0003a0 87 e9 77 3e b5 6b 7f bf ba 2c da be 85 9b 4e bf
       0.24210177 -0.9977372 -0.4261225 -0.80706054
0003b0 17 66 11 bf a7 0c 2e bf 80 2d 11 bf 6e 08 18 bf
       -0.567964 -0.67988056 -0.5671005 -0.5938786
0003c0 30 75 64 bf 56 cb 0b bf 1e 5d 2c bf f6 ed 18 be
       -0.89241314 -0.5460714 -0.67329586 -0.14934525
0003d0 0d 00 a0 be 3b 63 a0 3c a5 7c 8c 3e e8 49 af 3d
       -0.3125004 0.019578567 0.27438846 0.085590184
0003e0 74 b8 05 bf 7f 0b 16 3f 96 27 2c be 6a f7 37 3d
       -0.5223458 0.5861129 -0.16811976 0.044913687
0003f0 b2 0d a4 3d be 22 74 be 83 54 d4 3e 5d ad 04 bf
       0.08010425 -0.23841378 0.41470727 -0.5182703

hidden2.weight f4 [256, 256]
000000 62 88 96 3d 58 cc 9f bf d4 96 d8 3e 61 0e 0d bf
       0.07350232 -1.2484236 0.42302573 -0.55100065
000010 d6 36 34 bf 23 d8 fa bd 88 30 4c 3e b3 b9 aa 3e
       -0.70396173 -0.12248256 0.19940388 0.33344802
000020 3a cd 29 3e 1a 4c d8 bd 67 13 13 3f c8 2d 1b 3e
       0.16582194 -0.1056139 0.5745148 0.15154183
000030 8b e9 5d bd c8 b9 43 be dd 2a 0f bf b1 5a 07 c0
       -0.054177802 -0.19113839 -0.5592478 -2.1149104
000040 15 0a 2e bb a7 7c 0f bf 2a 80 f1 3e be a6 40 3e
       -0.0026556302 -0.5604958 0.47168094 0.18813607
000050 e5 97 14 3e 24 18 91 be dd f5 49 bf c3 26 06 3e
       0.14511068 -0.2833873 -0.7889078 0.13100724
000060 40 48 72 3e 25 aa dc 3b ad ab 16 be bd 6b 82 bf
       0.23660374 0.00673415 -0.14713927 -1.0189129
000070 84 b8 89 3c fe a0 bf bd 24 8f 35 bf a6 a7 5a 3f
       0.016811617 -0.09356879 -0.7092154 0.8541206
000080 7b 8f ed be 2a da 0d c0 b4 ab e4 be b6 f6 64 bd
       -0.4639853 -2.2164407 -0.4466225 -0.055899344
000090 cf 27 b9 3c 6d d3 51 be b8 0c 0a 3f d3 24 6a 3e
       0.02260199 -0.20490809 0.5392566 0.2286561
0000a0 58 12 b4 bf 2c c8 c7 be fe 5f 28 bf ab e0 dc be
       -1.4068098 -0.39019907 -0.6577147 -0.43140158
0000b0 c8 b2 9c 3e 25 5d 91 bd 47 e2 70 3e 55 72 dc 3e
       0.3060515 -0.07097844 0.23523818 0.43055978
0000c0 2a 62 6a bf de ef 34 3e 54 37 89 3d f8 05 5a 3e
       -0.91556036 0.17669627 0.06700006 0.2129134
0000d0 c9 bf 2d 3f ce bb 60 bd 55 27 5f 3e e7 23 47 bf
       0.67870766 -0.054866605 0.21792348 -0.7778916
0000e0 64 3b 93 bf d4 d5 12 bf 14 3c 00 3e 8e 15 ed be
       -1.15025 -0.57357526 0.12522918 -0.46305507
0000f0 e9 6a 50 bf 95 bb 8f bf 31 49 49 3f f4 c1 3b be
       -0.8141313 -1.122912 0.78627306 -0.18335706
000100 ed f1 c7 be bc 4f d8 be 05 8f 85 3e b7 91 dd bf
       -0.39051762 -0.42248333 0.26085678 -1.7310094
000110 a8 74 a3 3e 91 b5 e7 be 0f b3 80 3e 0d 98 9e bf
       0.3192494 -0.45255712 0.2513661 -1.2390152
000120 96 b0 08 3f 54 d7 82 3d 81 04 1e bf 33 58 2a bf
       0.5339445 0.06388727 -0.6172562 -0.6654083
000130 81 16 47 bf b2 9c 47 3f a2 6e 09 3e 85 ee fb bd
       -0.77768713 0.77973473 0.1342111 -0.12301353
000140 bc 28 e2 be 5b 15 96 3d 1b 54 90 bf 1d 18 95 be
       -0.44171703 0.07328292 -1.1275667 -0.2911996
000150 62 24 96 3e ae 98 59 be bc 30 eb bf d0 92 b7 bf
       0.29324633 -0.21249649 -1.8374248 -1.4341679
000160 25 ee 2b 3f dd 2a df 3e 06 f8 8f 3a c3 83 96 3e
       0.67160255 0.4358739 0.0010983951 0.293974
000170 1b e4 18 bf e8 32 08 c0 f0 84 cf 3e e5 1e 08 be
       -0.5972306 -2.128107 0.4053111 -0.13293035
000180 39 c4 13 bf e6 af 09 bf 8e 17 98 be c5 3c 26 bf
       -0.57721287 -0.53784025 -0.2970547 -0.64936477
000190 cd 4c 92 be 80 9b 93 be 3c 18 05 bf 5b a5 c4 3e
       -0.2857422 -0.28829575 -0.51990104 0.38407406
0001a0 93 01 1c 3d df 62 25 3f 19 80 8b be 25 fd 76 bf
       0.03808744 0.6460399 -0.27246168 -0.9648002
0001b0 bf a0 2b 3e 87 60 76 bb a2 d9 cc be 9c 7e c0 be
       0.16760539 -0.0037594156 -0.4000979 -0.37596595
0001c0 b5 fb f6 be 9e 50 fc 3e b6 92 ba 3e 3d a3 f1 3e
       -0.48238912 0.49280256 0.36440057 0.47194853
0001d0 30 12 0b bf 09 33 f1 be 47 c4 48 be dc 99 b3 be
       -0.54324627 -0.4710925 -0.19606124 -0.35078323
0001e0 2e 1b 07 c0 d1 08 95 bf 91 45 66 be e9 38 0f 3c
       -2.111034 -1.1643316 -0.22487475 0.008741596
0001f0 8d d9 b3 3f 34 4c c9 3d 57 35 c0 be 90 79 81 3e
       1.4050766 0.09828988 -0.37540695 0.25288057
000200 b8 a6 46 3e 50 b1 98 bf 90 8f 3d bf 62 ef 44 3f
       0.19399536 -1.1929111 -0.74047184 0.7692777
000210 6c af e9 bf 38 13 3a be 68 3d 13 bf 35 35 df 3e
       -1.825666 -0.18171394 -0.57515574 0.4359528
000220 aa 4f da bf 0b 91 eb 3d 6e e7 f5 be db 9b 17 3f
       -1.7055562 0.11502274 -0.4802813 0.5922219
000230 1c 83 1f be 1b 70 21 bf 7a 09 fe 3e 44 d7 c6 3e
       -0.15577358 -0.63061684 0.49616605 0.3883611
000240 ed 37 ad be 99 55 fa bc 0e c5 7b bf d2 c1 7b bf
       -0.3383173 -0.030558394 -0.98347557 -0.9834262
000250 41 7b f5 be 82 02 13 3e 61 5d 2e 3e b2 9d e0 3e
       -0.47945598 0.14356425 0.17027809 0.43870312
000260 83 dc 80 3f 0d 55 51 bf af 2f 09 3f 89 28 b4 3e
       1.0067295 -0.817704 0.53588384 0.35187176
000270 69 1f c7 be 6e 50 d1 be 9c 15 3f bf fe 3d 0a 3f
       -0.38891152 -0.40881675 -0.7464235 0.5400084
000280 b3 27 b3 bf b7 8d aa 3c c7 85 df be da 0d c1 3e
       -1.399649 0.020819528 -0.43656752 0.3770588
000290 37 21 59 3f 52 42 77 3d d7 b3 96 3d 10 c7 60 3e
       0.84816307 0.060365982 0.073585205 0.21950936
0002a0 12 21 b0 bd 10 4c 6d be e1 2b e6 3e b8 73 bd bc
       -0.08600058 -0.23173547 0.44955352 -0.023126468
0002b0 07 dc 5d 3e e8 14 91 bf 20 18 c7 bd 03 b7 94 be
       0.21665965 -1.1334505 -0.09721398 -0.29045877
0002c0 94 93 e2 3d 34 79 75 3f 6c 1d b2 bf df f1 60 3d
       0.110633045 0.95888066 -1.3915229 0.054918166
0002d0 f1 27 b5 bf 8f 56 de 3e 9e d5 71 bf c2 0e b6 3e
       -1.4152814 0.43425414 -0.9446658 0.35558134
0002e0 91 3c 3e 3e 1a b5 d6 bd 25 a1 73 be b9 eb b9 bf
       0.18577792 -0.10483761 -0.2379194 -1.4525062
0002f0 f3 d0 6f 3e 38 57 76 be 1c 63 c5 bf 43 1e 39 3f
       0.23419552 -0.24056709 -1.5420871 0.723118
000300 9e 96 00 bf 8a 3b 32 be 4a 75 d4 3d 2a f8 7c bf
       -0.50229824 -0.17405525 0.103739336 -0.9881617
000310 00 f0 48 bf ac a1 68 be 82 64 62 bd 9d 2d 57 3e
       -0.7849121 -0.22717923 -0.055271633 0.21013494
000320 47 2f 11 bf a5 ea e3 be 81 98 14 bf f2 b5 91 bf
       -0.56712765 -0.44514957 -0.580452 -1.138365
000330 41 3c 5a be c6 53 62 bf 2b 95 90 bf 37 0d 3f be
       -0.21312048 -0.8840908 -1.1295522 -0.18657385
000340 c8 c3 83 be ce 38 2b bf 9e 2a 03 bf 7e 55 85 3f
       -0.25735307 -0.6688355 -0.51236904 1.0416715
000350 f2 54 31 3e dc 7e 41 3f f1 e5 d2 bd cb cd 03 bf
       0.1731756 0.755842 -0.10297764 -0.5148589
000360 15 10 85 be 7b 09 91 bd a4 a0 01 bf 69 94 10 bd
       -0.25988832 -0.070818864 -0.50635743 -0.035297785
000370 87 37 ff 3d b7 c6 2c bf b3 78 56 bf e6 44 b5 bf
       0.12461763 -0.67490715 -0.8377792 -1.4161651
000380 b3 8c b0 bd cc 71 80 3d db 2e 20 3f e8 a9 6e bd
       -0.08620586 0.06271705 0.62571496 -0.058267504
000390 a3 74 b9 bd dd d8 97 bf a5 cc 1f be 00 5e b7 3e
       -0.0905545 -1.1863056 -0.1560541 0.35813904
0003a0 14 67 3b bc 0f 97 62 3e 60 fb d5 bd db c3 88 3b
       -0.01143815 0.22127937 -0.104483366 0.0041737384
0003b0 b8 18 3d bf d0 56 c5 be b6 29 03 bf ff ab 49 be
       -0.7386584 -0.38542795 -0.5123552 -0.19694518
0003c0 e9 29 50 3d 25 f9 7b be e4 dd ae bd 41 f5 8f bd
       0.05082122 -0.2460676 -0.08538416 -0.070292
0003d0 96 9b 94 bb 17 34 3b 3e cc a7 89 bf ad 7d f5 3e
       -0.004535149 0.1828159 -1.0754333 0.47947446
0003e0 e9 d2 d6 bf 7a d5 73 bf 94 7f 46 3d 18 77 9d 3e
       -1.6783115 -0.95247614 0.04846151 0.30754924
0003f0 50 ce 1c 3e cf 30 b9 bd 57 33 15 c0 90 21 10 3e
       0.15313077 -0.090425126 -2.3312585 0.14075303

hidden2.bias f4 [256]
000000 1d 9d a5 bd a3 7e 31 bd 80 00 05 bf b8 ff 38 3e
       -0.080866076 -0.04333366 -0.5195389 0.18066299
000010 36 89 25 3e b4 cf 7d bd 62 d5 13 bf 47 3c c1 bc
       0.16165623 -0.06196566 -0.5774747 -0.023588313
000020 e7 bf 0a bf 30 c9 3a be b1 88 ac 3e 47 75 0c 3e
       -0.5419907 -0.1824081 0.33698037 0.13716613
000030 7c 13 28 bf 68 a4 2b bf 77 87 22 3f 5f 13 3d 3f
       -0.6565473 -0.6704774 0.6348795 0.7385768
000040 58 ef 6c bd 0d 34 06 bf 8f 9f 17 3e b8 f4 d4 be
       -0.057845443 -0.52423173 0.1480696 -0.41592956
000050 b2 c1 d0 bd ee f0 60 3f ed 5e 36 be 65 c7 42 3e
       -0.101931944 0.8786763 -0.17809649 0.19021375
000060 0d ae ed be 2c 52 b7 3f 4f 72 6e bd db 76 3a be
       -0.46421853 1.4321952 -0.058214482 -0.18209402
000070 4f c9 24 3f 15 82 91 3e 7e e0 fd 3e d7 34 82 3c
       0.6436967 0.28419557 0.49585336 0.015894337
000080 d7 5c 70 3d 8e 9e 30 3e c7 ec 07 bf bc 31 42 bf
       0.05868229 0.17247984 -0.5309567 -0.7585714
000090 56 c2 51 bd a0 25 30 bf 0a 37 10 bf f6 aa 90 be
       -0.051210724 -0.6880741 -0.5633398 -0.28255433
0000a0 2b df 94 3e b4 03 9a 3e c7 b1 aa be ba 04 b1 3e
       0.29076514 0.3008095 -0.33338758 0.3457392
0000b0 2f 8e 58 bf 40 22 a2 be 8d f5 25 bf 44 37 8c be
       -0.84591955 -0.31666756 -0.64827806 -0.27385914
0000c0 b3 69 da bc 63 52 e8 be 51 ff 0f bf d2 70 8d be
       -0.02666173 -0.45375356 -0.56248957 -0.27625138
0000d0 e9 df ec 3d ec 7f 05 bf 45 28 08 be 05 61 b6 3d
       0.11566145 -0.5214832 -0.13296612 0.08905224
0000e0 e7 10 93 bd 22 72 f4 bd 61 b2 8e bb dc 5c cb be
       -0.07180958 -0.119358316 -0.0043547605 -0.39719284
0000f0 d8 d4 19 3e cf 7e 5b bf 33 6b 2d bd 97 8d b8 be
       0.150226 -0.8574037 -0.04233856 -0.36045524
000100 9f 1b 90 3e d1 7d 16 bf 10 3a 13 bb 59 f1 fc 3e
       0.28146073 -0.5878573 -0.0022465028 0.49402884
000110 07 30 cd be 0a 5f 9e be cd b4 a4 3d 4c ac ee 3e
       -0.40075704 -0.30931884 0.080422975 0.46615827
000120 76 58 b4 bd c8 c1 6b bf dc 46 b7 3d af 6d 65 be
       -0.08805935 -0.9209256 0.08949062 -0.22405122
000130 61 57 13 bf 3d b9 a2 bf 60 29 bb be 87 97 aa be
       -0.57555205 -1.271278 -0.36555004 -0.3331873
000140 7c 52 2c bf 94 80 31 3f 89 78 db 3e 22 c8 79 be
       -0.6731336 0.6933682 0.428654 -0.24392751
000150 02 44 fe be 79 94 28 3e 61 d0 9d bc 1e 5a ca be
       -0.4966126 0.16462888 -0.019264402 -0.3952188
000160 a2 5b ed 3d bd 2c 7f 3e 3d a4 1e bf 57 87 48 3e
       0.11589743 0.2491941 -0.6196936 0.19582878
000170 49 f3 24 3f 05 c3 00 3f 74 8e 72 3e 99 39 17 be
       0.64433724 0.50297576 0.23687154 -0.14768066
000180 62 e1 c5 3e 5e f7 2e 3f 30 44 6e 3e c4 dd 7b bd
       0.38648516 0.683462 0.23268199 -0.06149079
000190 b3 5f a6 bf 27 8c e4 bd df 0e a3 be a5 94 d8 be
       -1.2997955 -0.111595444 -0.31847283 -0.42300907
0001a0 c8 ac 45 bd 51 0a 98 bd c7 7f 3c 3f f6 d3 e4 be
       -0.04826048 -0.07423843 0.7363247 -0.44692963
0001b0 58 07 b7 3e da 83 3d bf 22 d8 53 bf 27 11 da be
       0.3574779 -0.74029315 -0.8275167 -0.4259121
0001c0 5e d0 8e 3f 18 a6 c7 bd 50 a5 7c 3e 7e dd fe be
       1.1157339 -0.09748477 0.24672437 -0.4977836
0001d0 3c 2b 15 3f 2e f8 02 3d ec 51 43 3f f0 7d cf be
       0.58269095 0.031974964 0.7629688 -0.4052577
0001e0 45 16 f5 be 6d d3 a7 3d 79 a5 02 bf 43 34 66 3c
       -0.47868553 0.08194623 -0.5103374 0.014050546
0001f0 1f 32 63 3d 69 09 aa 3e 2b e8 8b be 1b bb dc 3d
       0.05546772 0.33210304 -0.27325568 0.10777875
000200 de 7c 35 bf 8c ca 66 be 42 67 ea 3e ee 43 d1 be
       -0.7089366 -0.22538203 0.45781904 -0.4087214
000210 b4 6f 0d bf d4 b9 83 3e 5f 1a e5 3d da 25 36 be
       -0.5524857 0.25727713 0.111866705 -0.17787877
000220 71 f2 f9 bd 56 1c 0d bc 5e dc 73 be c1 c1 2a 3f
       -0.12204445 -0.008612713 -0.23814532 0.66701895
000230 4a 0d 96 be c6 9d 18 bd eb d5 6b be a7 ea 2d 3f
       -0.29307014 -0.03725984 -0.23030822 0.67936176
000240 cb dc a9 bd fc af e0 3d dd c4 d6 3e 13 22 fd 3d
       -0.08294066 0.10971066 0.4194707 0.12360015
000250 a9 91 01 3f ef 37 72 be 37 17 98 bf 01 c6 9c be
       0.50612885 -0.2365415 -1.1882085 -0.30619815
000260 69 80 a9 3e b7 ed 02 bf ed 7f 02 bf de 13 05 3f
       0.33105782 -0.51143974 -0.5097645 0.5198344
000270 bb 58 90 3e dd 99 12 3b 7e 8d 38 3f 70 17 7d 3e
       0.28192696 0.0022369542 0.720909 0.24715972
000280 5d f7 15 3e 80 11 3d 3e eb 01 a7 3e aa e0 16 bf
       0.14645143 0.18463707 0.3261865 -0.5893656
000290 9d 77 db bd 78 d9 f0 be 34 9a e2 bd fb e6 e1 bd
       -0.10716174 -0.47040915 -0.11064568 -0.11030384
0002a0 41 b4 94 3d ba 9a 97 3e 14 5b c3 be 6a c5 42 be
       0.07260943 0.29610234 -0.38155425 -0.1902062
0002b0 09 39 29 bf d5 bb 1a 3d c0 d1 5f bf 7b 88 f7 3e
       -0.66102654 0.037776787 -0.8742943 0.48346314
0002c0 37 4e 82 bc 81 34 90 bd a9 6e a7 3d e7 c8 5f be
       -0.015906436 -0.07041264 0.081754036 -0.21853982
0002d0 b4 17 84 bf bf f2 39 be 55 46 e4 bd e3 f6 3d bf
       -1.0319734 -0.18159007 -0.11146227 -0.74204844
0002e0 35 f2 58 be 88 dc 64 3e 51 78 51 bd 0b 7d a7 3e
       -0.21186145 0.22349751 -0.051140133 0.32712588
0002f0 9e a9 78 3c 7a 3e 9e 3f 71 b4 af be b4 14 f6 be
       0.015177159 1.2362816 -0.34317353 -0.4806267
000300 f1 cb 28 bd 0e de f7 bd 24 da 36 be 5f 8c 07 be
       -0.04121012 -0.121029004 -0.17856652 -0.13237141
000310 0d 6f 2d bf 41 1c aa be 16 6c 83 be 5a 11 66 bf
       -0.67747575 -0.3322468 -0.256684 -0.89870226
000320 08 a6 60 bf b3 98 14 bf 0e 4e cd 3c 32 06 99 bd
       -0.87753344 -0.580455 0.025061633 -0.07471885
000330 c6 7a e4 be d2 74 a2 bd 95 1d a9 bd df 54 d3 be
       -0.4462492 -0.07932438 -0.082575954 -0.4127569
000340 25 c8 bd be e9 00 9d be af b3 b9 be 48 d7 63 be
       -0.3706676 -0.30664757 -0.362699 -0.22250092
000350 a2 41 2b 3e 89 78 6c be 44 82 06 bf 17 4a c9 be
       0.16724256 -0.23092856 -0.5254252 -0.3931434
000360 4c 7c dd bd a5 d7 0c bf 6b b8 50 bf 6a 60 1e bf
       -0.10814723 -0.5501655 -0.815314 -0.61865866
000370 a4 23 b9 3c 5c 82 c2 be 05 d2 0b 3f 19 54 8e 3e
       0.022600003 -0.3799008 0.5461734 0.27798536
000380 7a 4e 91 3d f7 11 9e be 2d 75 59 bf 03 bc da be
       0.07095046 -0.3087308 -0.8494442 -0.42721567
000390 a4 61 d8 3e 2d 94 29 3e e4 7d fe be 6f 5e 4d be
       0.42261994 0.16560431 -0.49705422 -0.20055555
0003a0 70 c5 96 bd fa 12 a3 be fa e4 b0 be da 6d f4 be
       -0.07361877 -0.31850415 -0.34549695 -0.4774006
0003b0 40 23 29 be 95 af f8 be 8e 39 88 bd ec c4 9c bd
       -0.16517353 -0.48571458 -0.06651603 -0.07654747
0003c0 60 6a ab 3c 40 ac 82 bd 6b d7 01 bf 72 f4 90 be
       0.020924747 -0.0638051 -0.50719327 -0.28311497
0003d0 df 5e b6 bd cc 01 7f 3e 65 fe 72 3f 07 1a 58 bf
       -0.08904814 0.24903029 0.94919425 -0.84414715
0003e0 7e dd d8 be de d8 85 3d 4f 6e 75 3e da 22 95 3c
       -0.42356485 0.06535505 0.2396786 0.018205095
0003f0 eb f2 12 bf 52 0c 97 be e4 59 74 3e e2 e2 a9 be
       -0.57401913 -0.29501587 0.23862416 -0.3318091

mu.weight f4 [3, 256]
000000 ee cd 3e 3e c8 49 bb 3e d0 ec 82 3d d2 13 0c be
       0.18633243 0.36579728 0.06392825 -0.13679436
000010 a7 54 ec 3d ba dc 37 bd 74 3f 15 bb df c4 fa bd
       0.11539584 -0.044888236 -0.0022773417 -0.122445814
000020 58 f4 a7 be 11 ed de 3d 5e aa a7 bd 21 cb c3 3d
       -0.32803607 0.108850606 -0.08186792 0.09560228
000030 49 cc a5 3e 3d d2 b9 bd 31 98 0d bf 25 22 91 bd
       0.3238242 -0.09073303 -0.5531035 -0.07086591
000040 7c ef fb 3d e4 13 25 ba 04 62 c9 3c 14 8a 85 3e
       0.123015374 -0.00062972144 0.02458287 0.26081908
000050 57 89 97 be f5 7d 77 bd 43 d6 06 3d d7 bc 98 be
       -0.2959697 -0.060422856 0.03291918 -0.29831573
000060 41 cf ec bd 64 fb 5d 3d fe 2c 21 3c a7 63 fc bd
       -0.11562968 0.054194823 0.009837387 -0.12323695
000070 9a a9 d0 3d 10 cf 1b 3e db 47 c3 3d 21 17 1c be
       0.10188599 0.15215707 0.0953519 -0.15243198
000080 31 4d f4 bd 78 b6 c9 3d 4e e5 e8 3d 97 91 18 3d
       -0.119287856 0.09849256 0.113718614 0.03724822
000090 15 9e 0c be 14 6e 9d bb f2 6f ea bc a1 6c b5 be
       -0.13732179 -0.004804382 -0.028617833 -0.3543444
0000a0 bc f3 4b 3e d3 5f 0e 3e 26 26 a8 bd 3b c1 64 bd
       0.19917196 0.13903742 -0.08210401 -0.05584834
0000b0 77 6d c5 3d c9 a8 89 bd d9 fa b8 bc fb 6b 90 bb
       0.096400194 -0.06721646 -0.022580551 -0.0044074035
0000c0 7a 75 24 be fc d4 ba bd a6 ec 92 bd fa 79 eb 3d
       -0.16060439 -0.09122655 -0.07174043 0.114978746
0000d0 65 16 97 3d 4e 71 40 bd 75 f2 0b be 8b ac 05 3e
       0.07377318 -0.046983056 -0.13666709 0.13054101
0000e0 bd 1c 09 3e 1f b6 06 3e f6 8f 06 be b4 e8 84 3d
       0.13389869 0.13155411 -0.13140854 0.06489697
0000f0 73 16 1e 3d 04 ba 2e bd 73 10 81 be ff 19 ff bd
       0.038595628 -0.042657867 -0.25207862 -0.1245613
000100 73 f5 24 bd b8 f1 14 3e b7 24 2e 3e 0f e9 25 be
       -0.04027314 0.14545333 0.17006193 -0.16202186
000110 33 5d df 3d d6 cd cb 3d 92 f3 28 3e aa 48 01 be
       0.10906448 0.099513695 0.16499165 -0.12625375
000120 80 1d e2 3a 57 a7 0a 3d 56 f0 ab 3d c3 3c 1a be
       0.0017251223 0.033850994 0.0839545 -0.15062241
000130 17 3b 7c 3d d8 2b 15 3e 70 c3 c4 be b2 23 78 bd
       0.06157979 0.14567506 -0.38430357 -0.060580917
000140 6f 49 3a 3e bf 07 b0 bd 21 52 76 3d 08 b0 55 3e
       0.18192075 -0.085952275 0.060136918 0.20867932
000150 13 5b e4 3d 53 25 03 3c 2c 41 e4 bd d2 7b 20 3e
       0.111501835 0.008004504 -0.11145243 0.15672234
000160 bb 65 c9 bb 89 62 1f be cc 87 3a 3d 04 a6 0a bd
       -0.0061461604 -0.15564932 0.045539662 -0.03384973
000170 89 c2 b5 3d 4b ab b5 3d ba 76 0d be 8c b4 c7 3d
       0.08874995 0.08870562 -0.13814822 0.097512335
000180 14 39 d3 bd 57 c2 9d 3c f6 d2 5d 3d a1 4e f6 bc
       -0.10313621 0.019257708 0.054156266 -0.03006679
000190 54 f1 f2 bd 9d c5 53 bf 5b 68 01 3e a1 40 fa bd
       -0.11862436 -0.8272341 0.12637465 -0.12219358
0001a0 9d d3 4b 3d 93 57 3a be 14 8f 38 bc 8e 35 22 3e
       0.049762357 -0.1819747 -0.011264581 0.15840742
0001b0 42 dc 06 3d 13 76 8b 3e 4a b1 88 3d c3 6c 76 3e
       0.032924898 0.2723852 0.0667444 0.24064927
0001c0 43 21 11 bc d6 88 89 3d a6 ab cb 3d c7 09 57 3e
       -0.008858028 0.067155525 0.09944849 0.20999824
0001d0 b3 0b eb 3d 49 6c d7 bd 85 b7 b1 3c f0 ad 2c 3d
       0.11476841 -0.10518701 0.021693954 0.042158067
0001e0 90 17 cf 3d 30 f7 50 bc 83 b2 f8 bc 7f a4 3d bd
       0.10111916 -0.012754247 -0.030358559 -0.046299454
0001f0 18 59 df bd e0 65 9a 3e 1c f1 d5 3d c7 ef b3 bb
       -0.10905665 0.3015585 0.104463786 -0.00549123
000200 e0 65 d0 3d e9 24 58 3d bb f4 e8 bd c0 8e 26 3e
       0.10175681 0.052769575 -0.11374804 0.16265392
000210 0c 0a ea 3e 67 e0 2d 3e a6 d5 98 bd ea 74 69 bd
       0.4571079 0.16980134 -0.07462625 -0.056996264
000220 6f a3 1f 3e f8 e6 1f b9 1b ad dd bd 45 b9 30 be
       0.15589689 -0.00015249464 -0.10824033 -0.17258175
000230 f1 ff b2 bf 2f 7e ec bd eb 47 01 be 08 b6 27 3d
       -1.3984357 -0.11547505 -0.12625091 0.040945083
000240 c2 05 34 3e d5 0d 86 3d ba e6 8c bd ae 0c 81 3b
       0.17580321 0.06545607 -0.06879945 0.003938279
000250 0f cf d8 3d ca b0 04 bd 52 60 ec 3e 4e 49 93 be
       0.10586368 -0.03239516 0.46167237 -0.28766865
000260 22 b9 c7 3c 6d cb 84 3e c9 4b 37 3e 71 09 9f bd
       0.02438027 0.25936452 0.17900003 -0.07765473
000270 93 a0 bf 3d b3 00 ad bd 3a b4 2e be 2b bb 44 bb
       0.09356799 -0.08447399 -0.17060938 -0.0030018787
000280 b4 39 14 bd a2 35 77 3d 9e 1e e8 bd b4 d2 3e bd
       -0.036187842 0.060353883 -0.11333965 -0.04658766
000290 4d 1f b7 be 19 a3 30 3e 7c 3d 80 bd 66 24 bd bd
       -0.35766068 0.17249717 -0.06261727 -0.09235458
0002a0 94 a3 22 3e 7e 7c 8c 3d ca 2d 97 bd 8a 8e 63 bd
       0.15882713 0.068596825 -0.073817804 -0.055555858
0002b0 b2 68 ea 3d 65 e9 47 be 0d 5e 04 be 80 b9 20 bc
       0.1144575 -0.19522627 -0.12926503 -0.009809852
0002c0 bd dc 39 3e f1 bb 31 3b cb 71 06 be da 02 35 bd
       0.18150611 0.0027120078 -0.13129346 -0.044192173
0002d0 16 3b 90 3e 90 29 14 3f 81 bc c1 be 42 06 14 be
       0.2817008 0.5787592 -0.3783913 -0.14455512
0002e0 ea 49 e1 bd fb 9e 03 3e f8 3b c8 3d be 71 b4 bd
       -0.11000426 0.12853615 0.09777063 -0.08810757
0002f0 72 d5 e0 3b 36 eb 29 be 43 ba 0a bd 41 b4 22 3e
       0.006861382 -0.16593632 -0.03386904 0.15889074
000300 90 ca 03 3e 60 2f 2e bb 6f 2b e0 3d 3a fb 27 3b
       0.1287024 -0.002657853 0.10945784 0.002563192
000310 c0 ac fd bd cf 4f 80 3e 1b 03 1d 3d 98 dd aa be
       -0.12386465 0.2506089 0.03833304 -0.33372188
000320 5d f1 b7 bd 17 c6 f9 3d 1e 27 31 be cd b4 47 bd
       -0.08981583 0.12195986 -0.17300078 -0.04875641
000330 80 d6 03 3b 81 9e 63 be 39 fe b7 bd b2 4d b8 3e
       0.0020116866 -0.22228433 -0.08984036 0.35996777
000340 d4 d0 34 3d d5 c2 83 3d f8 20 14 be 40 c3 d2 3e
       0.044144467 0.06433646 -0.14465702 0.4116459
000350 91 93 58 be a1 c5 ba bc 3a 4c 24 be d8 6f 0c bd
       -0.21150042 -0.022799315 -0.16044703 -0.03428635
000360 91 34 90 3d 3b 87 77 3e ff 8e 1f be d6 48 05 3e
       0.07041276 0.2417268 -0.15581892 0.13016066
000370 35 f5 37 be 09 b6 22 ba 65 ff c4 be ab 66 ac bc
       -0.17964633 -0.0006206935 -0.384761 -0.02104505
000380 8a 3b f4 bd b3 27 33 3d 5e 82 0e be 4a 60 66 be
       -0.11925419 0.043739032 -0.13916919 -0.22497669
000390 f9 33 01 bd ea 26 24 bd 51 94 74 be ef 5c 80 be
       -0.031543706 -0.040076174 -0.23884703 -0.25070903
0003a0 a1 ae ef 3d 31 37 93 bd df 0e 16 bd 91 8a 82 3d
       0.1170323 -0.07188261 -0.036635276 0.06374086
0003b0 64 ee a4 be 7a de 2d 3e 92 16 57 be b1 b5 db 3d
       -0.32213128 0.169794 -0.21004704 0.10728014
0003c0 b4 43 29 bd 6c c1 81 bb aa f1 0e be 5d a3 83 bd
       -0.041324332 -0.0039598253 -0.13959375 -0.064276434
0003d0 14 b7 8b 3e ca 80 93 3e ff a2 ee bc 9c af 03 bc
       0.27288115 0.28809196 -0.029130457 -0.008037474
0003e0 9f 05 77 be c4 fa 2f 3d c5 55 95 bd 39 b6 20 3b
       -0.24123238 0.042963758 -0.0729175 0.0024522676
0003f0 04 3f 0a bc bc 70 17 3c 1d 5a bf 3d 68 33 27 3e
       -0.008437876 0.009243187 0.093433596 0.16328204

mu.bias f4 [3]
000000 0b 56 94 bc f9 97 8c 3e 36 ae 4e be
       -0.018107435 0.27459696 -0.20183644

log_std.weight f4 [3, 256]
000000 b9 77 f4 bc 77 e9 9f 3e 75 a5 11 3d 14 01 6d bc
       -0.029842244 0.31232807 0.035558183 -0.014465589
000010 a1 28 83 bc 20 b7 9f bc 1f b8 fb 3c f7 84 f8 3c
       -0.016010584 -0.0194965 0.030727444 0.03033684
000020 c8 4c 19 3b 76 d6 9e 3d f2 9f 1f bd 41 44 64 3d
       0.0023391712 0.07755749 -0.038970895 0.055729154
000030 00 aa b8 3d 1c 2b 5b 3c 6a 6d 10 3e e3 9c 28 bd
       0.090168 0.013376977 0.14104238 -0.041165244
000040 7a 0b 1f 3d da be 3d bd 67 e7 cf bb f8 30 28 bc
       0.038829304 -0.04632459 -0.006344724 -0.010265581
000050 98 9e 9f 3d 76 5a 1c bd 53 ba b3 bc df d2 8d bd
       0.07793921 -0.038172208 -0.021939432 -0.06924986
000060 0a e3 c9 3c 4c b0 a8 bc 16 78 ad bc 4a 8c 3a 3d
       0.024644393 -0.020591877 -0.021175425 0.045543946
000070 2e 4b f6 3c c7 d9 c6 3c 43 3b 7f 3d 9b 48 e6 3c
       0.030065145 0.024273766 0.062312376 0.028110793
000080 63 83 99 bc 95 38 00 3d 96 e1 e8 3c bc d6 36 bd
       -0.018739408 0.03130396 0.02842788 -0.04463838
000090 1b 1e ae bc 7d 18 41 3d 34 b7 5b 39 50 45 43 3e
       -0.02125459 0.047142494 0.00020953716 0.1906941
0000a0 c0 a4 0d 3e 96 95 c4 3c 96 8a 49 b8 59 73 80 bc
       0.13832378 0.02399711 -4.8051203e-05 -0.015680002
0000b0 d4 02 33 3d 23 12 13 3b 96 d8 d8 3b 9c 02 30 3d
       0.04370387 0.002244123 0.006617616 0.04297124
0000c0 6d 53 8f 3d 31 44 76 3c cb ef 81 bc d4 63 c7 3d
       0.06998334 0.015030907 -0.015861413 0.097358376
0000d0 b8 0a b4 3c f8 cb ff 3b 2a 04 6f 3c 2d 41 5d 3d
       0.021977767 0.0078062974 0.014588395 0.054017235
0000e0 f1 b3 a7 3d 2e 7c 00 3f 06 e9 04 3e 25 87 11 3d
       0.08188618 0.50189483 0.12979516 0.035529274
0000f0 fd f0 b2 ba a0 e1 63 bc 13 d6 1c 3d f9 89 63 bb
       -0.0013652142 -0.013908774 0.038290095 -0.003471969
000100 6a ef 3d 3c 47 e0 4e 3d 7e da d9 3c ba c5 55 3d
       0.011592725 0.050506856 0.026593443 0.05219052
000110 ba b8 4a 3d 63 f1 a4 3d d0 b1 f9 bc 0b 39 52 3b
       0.049492575 0.08053853 -0.030480295 0.0032077457
000120 b9 e2 35 bd bb 53 8e 3b 43 aa 72 3b d9 c4 b1 bc
       -0.044405673 0.0043434775 0.0037027753 -0.02170031
000130 12 5e 38 bd dc f5 94 bc 9f ca 64 3e 3d e2 f2 bc
       -0.045011587 -0.018183641 0.22342919 -0.029648894
000140 93 07 26 3d 08 eb b3 bc bf 04 b9 3c b7 83 05 3e
       0.040534567 -0.021962658 0.02258527 0.13038526
000150 1e 65 7f 3c f0 24 5c 3d 50 ad b7 3c 7d 3b 8a 3d
       0.015588073 0.053746164 0.022421509 0.06749628
000160 66 1c d5 bc a2 04 53 bd 45 cc d5 ba bd f4 2e 3c
       -0.026014518 -0.05151809 -0.0016311487 0.010678467
000170 30 c5 0e bd 85 e8 4b 3c 1a 5c 56 bd 5f 7d 02 3d
       -0.03485602 0.012445574 -0.05233393 0.031857844
000180 95 36 c3 3c ea 25 11 bd 13 ce e3 bd 6f fa c0 3d
       0.023829738 -0.03543655 -0.1112329 0.094227664
000190 a2 65 a7 ba 9f 2e 6a 3e 9c a8 6d bc 28 6b bd 3d
       -0.0012771378 0.22869347 -0.014505532 0.09248954
0001a0 2e 59 f1 bb 77 cb a2 3d ae cd e3 3a 14 89 b2 bb
       -0.0073653674 0.07948964 0.0017380023 -0.00544847
0001b0 7c 9d be bc aa 10 b0 3c 55 ad 61 3c dd 87 a1 3d
       -0.023268454 0.021492321 0.013774236 0.07887242
0001c0 23 03 88 bd 37 86 78 bc af b2 a8 bc 71 30 aa 3d
       -0.06641223 -0.015168718 -0.020593015 0.08310021
0001d0 3c f6 da 3c c9 2f 20 3c 78 c9 8f bd e4 f0 8d bd
       0.026728742 0.009777018 -0.07020849 -0.06930712
0001e0 97 9a 15 bc b0 3e 61 bb 86 37 15 bd e5 4a 10 3e
       -0.009131095 -0.003436964 -0.036429904 0.1409107
0001f0 d9 6b 5b bd b3 0c 0f 3d d3 6b a3 bb 89 54 8a bd
       -0.05356965 0.03492422 -0.004987219 -0.06754405
000200 03 88 26 3d 90 34 35 3c 47 d8 f9 3b 4f e2 48 3c
       0.040657055 0.011059895 0.007624659 0.012260987
000210 98 7b ca 3d ce f4 2f bc 63 41 0b bd 13 6f 31 3c
       0.09886855 -0.010739518 -0.033997905 0.010829705
000220 84 60 49 3d e1 13 a1 bc 30 4b b9 3d 4a e6 f4 3c
       0.04916431 -0.0196628 0.09047544 0.029894967
000230 33 54 b0 3e 81 1b 3d 3d be 79 b9 3d 22 b6 c1 3b
       0.3443924 0.046168808 0.090564236 0.0059116045
000240 5f ab 04 3d 4a 4d 82 bd a1 39 bd bc 41 20 09 3c
       0.032389995 -0.06362398 -0.023098769 0.008369506
000250 ed 25 39 3d b2 12 93 3c 5b 3c 33 3e e8 4c fa bc
       0.045202184 0.01795325 0.17503493 -0.03055425
000260 73 67 d0 3d c3 e2 bd 3c 01 8b fa 3d 9a af 04 bd
       0.101759814 0.023179417 0.12233544 -0.03239403
000270 5e 0c bf bd 14 08 54 bd 7b ae 76 3d d9 02 fd 3c
       -0.09328531 -0.051765516 0.06022499 0.030885147
000280 b6 eb 23 bc 7b 49 b7 3c 9c 34 5e 3b 53 a9 78 bd
       -0.010004928 0.022373905 0.003390587 -0.060708355
000290 65 ba 16 3e 4e 25 b5 3d 4b 12 66 bd d7 9f cc bd
       0.14719541 0.08845006 -0.05616979 -0.099914245
0002a0 42 72 41 3d 5b 1c 19 3d 53 de 0c 3d b9 d5 b3 bc
       0.047228105 0.037380558 0.034391712 -0.021952497
0002b0 30 0f ce 3c 2a ad 57 3d 84 67 3a bd 48 4a 80 bc
       0.025153726 0.052655376 -0.045508876 -0.01566042
0002c0 84 02 84 3d 0c d7 ca 3c dd 70 ae 3c 9c ac 75 3a
       0.06445792 0.024760745 0.021294052 0.0009371729
0002d0 35 57 e5 3d 6f a1 96 3e 60 16 51 3d 61 0d ad bc
       0.11198274 0.2942004 0.05104673 -0.021124544
0002e0 ce d5 d8 bc aa c5 c8 3c 98 7d 1e bd 75 cd 6c bb
       -0.026469138 0.024508316 -0.038693994 -0.0036133204
0002f0 64 5d d9 bc 85 03 8f 3c ea 5c f8 bb 77 28 6b bc
       -0.02653379 0.017457733 -0.0075794356 -0.014352909
000300 3a 51 90 3c fb 5d 19 3d 78 1a e9 bd ae 09 1d bc
       0.017616857 0.037443142 -0.11382002 -0.009584827
000310 9d 73 39 bd 82 2f 9d 3d bd c3 96 bd 74 cf c3 3c
       -0.045276273 0.07675077 -0.07361553 0.023902632
000320 57 2a d6 bc 8b 75 04 bd d7 05 2c 3d 06 77 fa bd
       -0.026143236 -0.03233866 0.041997757 -0.12229733
000330 e0 f6 7a bc 8a 33 c9 bc fd 79 06 bc f6 51 a7 3d
       -0.015317649 -0.024560709 -0.008207795 0.0816993
000340 8a 9c 22 3c ae 41 3a 3c 90 06 a8 3c de ff 8a 3d
       0.009925017 0.011368198 0.020510942 0.06787084
000350 0c 06 86 3d e1 b4 f0 bc 73 94 8d 3c 53 0b 73 3d
       0.06544122 -0.029383125 0.0172827 0.05933697
000360 14 de 8e bc a6 9e a5 3d ef d5 d6 3b e5 c7 87 3c
       -0.01743988 0.080869004 0.0065562646 0.01657481
000370 74 64 4b 3d 41 f0 af 3d df 39 85 3d 55 59 d2 3d
       0.049656346 0.08590747 0.06505179 0.10270945
000380 d6 7e c4 3c 8a 95 8d bd c8 b9 c8 bc 3d 7b b2 3d
       0.023986261 -0.06913288 -0.02450265 0.08714912
000390 b5 0a fe bc 79 05 9a 3d 65 00 33 3d 9b 9b a5 3c
       -0.031010965 0.07520575 0.043701548 0.0202158
0003a0 65 d3 96 3c 47 4f dd 3d 03 d5 03 bc 61 59 5a bd
       0.018411348 0.108061366 -0.008046391 -0.053307895
0003b0 71 9a 0a 3e 2b 2c 97 3d 25 54 02 bd c9 24 07 bd
       0.13535477 0.07381471 -0.031818528 -0.032994065
0003c0 db 41 47 3c 28 36 2c bd 83 7a 18 3d a3 f2 cd 3c
       0.012161697 -0.042043835 0.03722621 0.025140112
0003d0 04 38 e0 3d 3e 95 02 3d c9 ea 84 3b 1e 35 a1 bd
       0.10948184 0.03188061 0.004056309 -0.078714594
0003e0 11 c6 aa 3d df 14 1e bd 2b 9e 02 bd 4e aa 03 bc
       0.083385594 -0.038594123 -0.031889122 -0.008036209
0003f0 9c 68 93 bd 23 6f 80 bc 93 b7 0c 3d fc 1c 51 3d
       -0.07197687 -0.015677994 0.034354758 0.051053032

log_std.bias f4 [3]
000000 b5 1a 67 bf a8 5e 16 bf 75 95 3a bf
       -0.90275127 -0.58738184 -0.72884303
