Hopper-v2/weights.pth (torch, 284047 bytes, 8 tensors)

hidden1.weight f4 [256, 11]
000000 c0 7a c6 bd f6 b1 3e 40 ff 2f 13 3f ec 35 b3 3e
       -0.096913815 2.9796119 0.5749511 0.35002077
000010 e9 38 9c be 21 7f e3 3e 17 5a 38 3e e4 ff 0b be
       -0.3051217 0.4443293 0.18003117 -0.13671833
000020 2e 86 13 3f 66 7a f8 bc f6 95 93 3d e6 c6 cf 3e
       0.57626617 -0.030331802 0.07206337 0.40581435
000030 b9 88 19 40 74 78 b2 be cc bd 63 bf a6 49 7a 3d
       2.39897 -0.34857523 -0.8896148 0.061105393
000040 f2 26 1b be 5b e7 a0 3d 86 4d de be 8d 08 a6 3e
       -0.15151575 0.078566276 -0.4341852 0.324284
000050 36 e1 3b 3e 0d 45 49 bd 7b 6d 3c 3f 3a 7f 20 c0
       0.1834763 -0.049138118 0.73604554 -2.5077653
000060 10 29 06 3e c2 d1 4f bf c8 c5 ed be 2d c5 32 bf
       0.13101602 -0.8117944 -0.46439958 -0.69832116
000070 fb e8 ab be 6a d3 e3 be e1 03 c9 3e 31 ac 4f 3e
       -0.33576187 -0.44497234 0.39260772 0.2028053
000080 3e f0 95 3d bf 66 71 bd c5 b0 95 be 29 17 d3 3e
       0.07321213 -0.058935877 -0.29236427 0.41228607
000090 54 0b 70 3f 8b bb 14 3f 3a 39 7f bf 14 31 ed bd
       0.93767285 0.5809867 -0.99696696 -0.115816265
0000a0 bd d4 75 3f c1 3f 6a bf 2b 0e 00 bc 12 b1 e4 3d
       0.9602774 -0.9150353 -0.007815878 0.11166586
0000b0 9f 64 4a 3f 37 00 9b bf 7a 67 29 3f 1a a2 dd 3f
       0.79059786 -1.210944 0.6617352 1.7315094
0000c0 fc e8 a9 3f b4 e7 0f bf c2 a2 a8 3e 0c 0e 5e 3e
       1.3274226 -0.56212926 0.32936674 0.21685046
0000d0 0e 7e 2a be a5 2f 43 bd 1c 37 0c be 39 93 62 be
       -0.16649649 -0.04765286 -0.13692898 -0.22126473
0000e0 7f a8 25 40 e6 98 74 bf 27 d5 28 40 a4 56 ce 3e
       2.5884092 -0.95545805 2.6380098 0.40300477
0000f0 81 30 7f bd 4d 8e e0 3e f7 69 e7 3e 4d 29 b3 be
       -0.062302116 0.43858567 0.45198032 -0.34992447
000100 c7 1d 84 be 2c df 50 3d 0a ef b3 be 1f 3a 02 c0
       -0.25803968 0.050994083 -0.3514331 -2.0347974
000110 b2 78 26 3f c8 4e 86 3f 60 ae 9d 3f 68 f9 f3 be
       0.65027916 1.0492792 1.231884 -0.4765122
000120 c7 e9 40 bd cb 13 bf bd fa 2c cb be 85 0f ce 3e
       -0.047097947 -0.09329947 -0.39682752 0.40246215
000130 0d 7c 10 3d 18 ff d9 be df 77 0c 40 ba 30 0a 40
       0.035274554 -0.42577434 2.1948164 2.159224
000140 64 1a 02 3f 5d cb 12 bf fa a8 b9 be c2 36 59 3f
       0.5082152 -0.5734156 -0.3626173 0.8484918
000150 10 4b 3f bf 5c b9 99 3f 3a 5f 96 3f 4a 9a f1 bc
       -0.7472391 1.2009692 1.1747811 -0.029492516
000160 43 74 55 bf 16 ce a1 3e 0d 37 69 bf 1d 42 0d 3e
       -0.83380526 0.31602544 -0.91099626 0.13794751
000170 ae a5 28 3f e1 b7 eb 3e d5 17 31 be 87 18 f0 3c
       0.6587781 0.46038726 -0.17294247 0.02930857
000180 56 57 0a be c0 e2 f3 3a 01 d4 8b 3c 14 c2 72 3d
       -0.13509879 0.0018607005 0.017068865 0.05926712
000190 bc b5 76 be 74 34 4f 3d 1b 01 91 bf 31 c3 8f bf
       -0.24092764 0.050587133 -1.1328462 -1.1231443
0001a0 b1 53 9a be 6e 4c 81 be e1 bf 07 bf 02 44 04 3f
       -0.30141976 -0.25253624 -0.5302716 0.5166627
0001b0 9d ef 39 3f b9 2c 16 3d 73 f0 81 be 3e 26 af 40
       0.72631246 0.036663745 -0.2537876 5.473418
0001c0 e2 97 41 3e 90 72 72 be a0 f2 a7 3e c9 e7 00 3d
       0.18905595 -0.23676515 0.32802296 0.031471048
0001d0 e7 d4 d2 be 5e 23 11 bd d1 0e d3 bc 9d f1 fa bd
       -0.41178057 -0.03543412 -0.025763901 -0.12253115
0001e0 46 77 1c 3d 49 27 2f bf 95 04 84 bf 2e f3 66 3f
       0.038199686 -0.6841932 -1.0313898 0.9021481
0001f0 92 41 35 3f 78 1b 02 3f ac be 28 be 67 ae 5e bf
       0.7080318 0.50823164 -0.16478986 -0.86984867
000200 2f dd 8b be 56 fb eb 3c 09 ec 87 bd d7 fd 0e be
       -0.27317187 0.02880637 -0.06636817 -0.1396402
000210 b3 0f a2 3d 0f c5 d8 bf 9b d3 6b 3f 90 18 c6 be
       0.07913151 -1.6935138 0.9211976 -0.38690615
000220 22 e7 a4 bf 2c f4 11 be b9 38 5a be c7 5f 3b 3e
       -1.2883036 -0.142533 -0.213107 0.18298255
000230 ed 58 ec bd 2a 44 e2 be b5 77 0d be 68 c1 e9 3e
       -0.11540399 -0.4419263 -0.13815196 0.4565537
000240 7f bd d3 bf 4b 99 a1 3e f9 2b 96 3f 45 83 2e bf
       -1.6542205 0.31562266 1.1732169 -0.6816905
000250 6d 9a 24 bd 08 33 80 be 01 21 33 bf 54 7f 65 3d
       -0.040186334 -0.25038934 -0.69972235 0.056029633
000260 ad 01 1d 3e 49 e5 30 bd 67 f1 b5 3e 7f c6 0b bf
       0.1533267 -0.043187413 0.35535738 -0.54599756
000270 df 6a f4 be 2f f0 4c bf 39 22 32 bf 56 5e 27 bf
       -0.47737786 -0.8005399 -0.6958347 -0.6537832
000280 a0 b3 bb 3d 4d 13 f6 be 2d 82 1e 3f dd a3 ff bc
       0.0916512 -0.480616 0.6191738 -0.031206066
000290 67 6e 4d 3d 24 a8 27 3f 27 24 03 c0 06 22 07 3e
       0.050154116 0.6549094 -2.0490816 0.13196573
0002a0 d9 ef 92 3f a1 58 a5 be 89 21 01 bf 7e 93 aa be
       1.1479446 -0.3229418 -0.50441796 -0.33315653
0002b0 e9 65 f9 be b1 34 da 3e 7a 55 f1 3d e6 2c af bd
       -0.48710564 0.42618325 0.117838815 -0.085534856
0002c0 fa 52 93 bc 8d 09 ea 3f 6c 8e 86 3e 0c 23 93 3f
       -0.017983902 1.8284165 0.26280534 1.149507
0002d0 c9 19 86 bf b1 67 f8 bd eb ba 2b be 35 53 ec 3e
       -1.0476619 -0.121291526 -0.16770522 0.46157232
0002e0 9c 6f bc be 0c 1c 84 3d cd 16 73 3d 6f 9a 82 be
       -0.368039 0.06450662 0.059347916 -0.25508448
0002f0 a1 21 c7 be 8e 08 65 3f 0d 45 ab 3e 52 c5 2c bf
       -0.38892844 0.8946618 0.3345112 -0.67488587
000300 6a d8 ac 3e a9 62 1a be a5 f1 7c be 51 b6 b5 bc
       0.3375886 -0.15076698 -0.24701555 -0.022181662
000310 d2 3a bb bc bb a6 06 3e c7 5c 11 3f d1 d4 02 c0
       -0.022855196 0.1314954 0.5678219 -2.0442393
000320 48 ea 52 3f f0 a7 90 bf ef e2 12 3f a5 00 82 be
       0.82388735 -1.130125 0.57377523 -0.25391117
000330 14 86 1a 3f 76 4d 2e bf ff e1 ae 3e 1c f2 0a be
       0.60360837 -0.68086946 0.34156796 -0.1356892
000340 36 18 81 3d 18 a0 9e 3e f5 91 27 40 8f 55 2f 3f
       0.06303446 0.30981517 2.6182835 0.6848993
000350 e9 c1 8c 3e f4 f8 09 bf f1 65 2b 3e 37 f7 20 3e
       0.27491692 -0.538955 0.16738106 0.15719305
000360 0b 95 93 3e 78 d0 09 be 3c ef 54 be bb 5d 2e 3d
       0.28824648 -0.13458431 -0.20794386 0.042569857
000370 54 ee 6b be cc 94 0e c0 63 4f 16 3f 24 d0 f4 be
       -0.23040134 -2.2278318 0.58714885 -0.4781505
000380 d4 dd 90 be 94 e2 07 bd 73 9c a8 be b0 e4 9e 3e
       -0.2829424 -0.033175066 -0.3293186 0.3103385
000390 68 ce 1c be a6 05 30 be c7 36 78 bd 80 5c aa be
       -0.15313113 -0.17189655 -0.060599115 -0.33273697
0003a0 9b 91 96 bf 75 c1 c7 3e e0 5b 8e bc 12 6f 89 3f
       -1.1763185 0.39014784 -0.017377794 1.0737021
0003b0 29 73 d5 be c6 12 8b 3e d0 51 44 bf 0b 6e 98 3d
       -0.41689423 0.2716276 -0.76687336 0.07442864
0003c0 d9 71 39 3e 10 12 9b 3e 41 94 45 bf c4 f5 a5 3f
       0.18109836 0.30287218 -0.7717934 1.2965627
0003d0 c4 7a 6a 3f 4f 40 aa 3f 51 e0 8a 3d f0 0c 8a bf
       0.91593575 1.3300875 0.06781066 -1.0785198
0003e0 e2 48 23 3f 1c 1f 1e 3e 19 46 d8 bd 42 19 37 be
       0.63783085 0.15441555 -0.10560245 -0.17880729
0003f0 d8 2d 33 3f 21 1e 22 bf 47 99 b9 be bd 9c af 3d
       0.69991827 -0.63327223 -0.36249754 0.08574817

hidden1.bias f4 [256]
000000 00 14 a1 bd c8 66 80 be e5 ef 50 3e 18 92 16 3e
       -0.07865143 -0.25078416 0.20404013 0.14704168
000010 08 68 66 3e 78 c1 f7 be 2b ca 84 be f2 b0 73 3e
       0.22500622 -0.48389792 -0.25935492 0.23797968
000020 8d 25 35 bf 47 e5 9b be 26 1a c8 be 2b 66 3a be
       -0.7076042 -0.30448362 -0.3908245 -0.18203036
000030 c2 74 ff be 99 e6 37 bf 88 68 1b 3e fd a7 ba be
       -0.49893767 -0.7183624 0.15176594 -0.3645629
000040 50 2c 40 be a1 f4 09 be 48 7f ce ba 29 da 58 be
       -0.18766904 -0.13472225 -0.0015754486 -0.21176971
000050 ce 34 ac 3e 88 a0 bb be 8f f2 16 bf c4 4e dc be
       0.33634037 -0.36645913 -0.58963865 -0.43028843
000060 26 0b ae be 3a b1 57 be a7 fa 87 3e 65 a1 a8 bd
       -0.3399288 -0.210637 0.2655842 -0.082339086
000070 2f db 3d bf 54 0d 1a be 68 40 19 bf 8e d7 b0 be
       -0.7416257 -0.15044147 -0.598639 -0.34539455
000080 b9 20 67 be a4 a5 1f 3e f5 55 41 bc 57 bf ae bc
       -0.22571076 0.1559053 -0.011800279 -0.021331472
000090 ad 01 02 bf d1 94 21 bf 14 7e 22 bf b1 3f e5 bd
       -0.5078381 -0.631177 -0.6347363 -0.11193789
0000a0 f9 fb 67 be 02 53 a9 bc dd e5 1b bf 2c 26 5b be
       -0.22654714 -0.020669464 -0.6089762 -0.2140128
0000b0 62 92 7b bf 21 d4 3f 3e 7c 89 14 bf bb f4 3c bf
       -0.9827024 0.18733265 -0.58022285 -0.7381093
0000c0 1b 81 4c 3e 38 8d 0d bf 71 53 51 bd 4a 01 de be
       0.19971125 -0.5529361 -0.051104967 -0.43360358
0000d0 d8 e7 ef be 7d 0e e1 be 96 5d b9 3d d4 c1 3e 3d
       -0.4685657 -0.43956366 0.09051053 0.046571568
0000e0 41 6b f1 3d 2b b3 35 bf e7 ac b5 3e 1f b2 36 bf
       0.11788035 -0.70976514 0.35483477 -0.7136554
0000f0 01 c4 16 be 80 7c 91 3c 55 31 25 bf 30 8b b8 be
       -0.14723207 0.017759562 -0.645284 -0.36043692
000100 d7 e2 c4 be c6 0e 52 bf dc f7 30 bf a3 52 8f be
       -0.38454315 -0.8205379 -0.69128203 -0.27992734
000110 31 9c 0c bf b7 26 64 3e cc 67 50 3f e7 ec e5 bd
       -0.5492583 0.22280394 0.8140838 -0.11226826
000120 50 00 ff bc 82 6f 45 be fe a6 04 3e 99 4d 6e be
       -0.031128079 -0.19280818 0.12954327 -0.23271789
000130 8f 70 be bd 7f dc bd 3d 0a d0 5b 3d bc d4 aa be
       -0.092988126 0.09270572 0.0536652 -0.33365428
000140 ee 5d ad bd 5d a8 77 be 23 4e 2d 3f 6f b2 e3 3e
       -0.08465181 -0.24185319 0.6769735 0.44472072
000150 ee 90 9d bd 89 29 26 be 5e 21 e5 3d 0e b8 0c be
       -0.07693659 -0.16226782 0.11188005 -0.13742086
000160 d0 6e 0d bf a0 4c af be 01 87 99 bf 08 15 29 3d
       -0.5524721 -0.34238148 -1.1994325 0.041279823
000170 d2 2f a5 3c 5c 4f 02 bf f5 ce c6 3e 83 e4 8f 3d
       0.020164404 -0.5090234 0.3882977 0.07026007
000180 69 d8 26 3e b5 9d 5a 3d c7 a1 28 be 39 f8 9a be
       0.16293491 0.053373057 -0.16467963 -0.30267504
000190 c7 27 55 3e b1 9b b9 bd 1e 30 8e be d1 75 06 bf
       0.20815955 -0.09062899 -0.27771086 -0.52523524
0001a0 89 a1 c6 3c aa 9b 84 be 5d b9 44 bd 62 d6 38 be
       0.024246948 -0.25900012 -0.04802834 -0.1805053
0001b0 71 d2 a4 bd 62 25 10 be 40 fb d0 be 41 08 e1 be
       -0.08047951 -0.1407676 -0.4081669 -0.4395161
0001c0 44 b8 8f be c3 14 39 be 8c b0 92 be 54 27 89 3e
       -0.2807027 -0.18074326 -0.2865032 0.26787817
0001d0 df 84 10 bb 58 65 14 bf 48 55 24 3d 7b 7b cf be
       -0.0022051854 -0.5796714 0.040120393 -0.40523896
0001e0 cf 9d 3c be 56 b0 bd be bd c3 bc be c4 7e 91 bc
       -0.18419574 -0.37048596 -0.36868086 -0.017760642
0001f0 0a 4f 87 be b5 59 30 bf 54 65 33 bb 7f 64 de be
       -0.2642749 -0.6888688 -0.0027373629 -0.43436047
000200 25 7a 95 be ea 77 78 3e 36 25 63 be 90 f2 c6 be
       -0.2919475 0.24264494 -0.22182164 -0.38856936
000210 5d f1 02 3f 1d 06 b2 be cd 36 50 3e 6a 4c e2 bd
       0.5114954 -0.3477029 0.20333405 -0.11049731
000220 1a f8 91 bf 10 8b 80 bd 45 b8 c3 be 0d c6 15 be
       -1.140384 -0.06276524 -0.38226524 -0.14626332
000230 00 26 c6 bc 83 f6 82 be b3 52 a3 3e c5 2c 30 bf
       -0.024188042 -0.255787 0.31899032 -0.6881831
000240 02 85 95 be 20 4a e8 be 79 0b 66 be 9b f1 29 bf
       -0.2920304 -0.45369053 -0.22465314 -0.66384286
000250 1e 78 df 3c 6a 3c 4a bf e7 3b b5 be 9f 18 05 3e
       0.027278956 -0.78998435 -0.35397264 0.12997673
000260 05 91 09 bf f8 e8 01 bf 3c 8f ac bd f3 9c 4c be
       -0.5373691 -0.5074611 -0.08425757 -0.19981746
000270 d5 99 44 bf 53 45 34 be 06 41 24 bf 28 24 8b bd
       -0.7679723 -0.1760457 -0.6416172 -0.06794006
000280 d6 d4 33 be ff 35 66 be d0 90 87 3d 06 06 cf be
       -0.17561659 -0.22481535 0.06619418 -0.40434283
000290 13 9a 01 3f c7 21 98 be 41 10 20 bf b2 c9 6e bf
       0.50625724 -0.2971327 -0.625248 -0.9327651
0002a0 e4 28 90 3e 50 0a 51 3c 48 0f be be b2 da 13 bf
       0.28156197 0.012758806 -0.37121034 -0.5775558
0002b0 2d 8a ed 3e 99 54 8d 3c 6e a0 36 3f 71 42 31 be
       0.46394482 0.017252253 0.71338546 -0.17310502
0002c0 44 f2 d1 bd 83 ee 90 3d 90 53 54 3d 4d 0f a4 be
       -0.102512866 0.070767425 0.051837504 -0.32042924
0002d0 de 5e 98 be 4c 32 3a 3c 00 37 74 bc 75 75 9f be
       -0.29759878 0.011364531 -0.014905691 -0.311443
0002e0 2a 10 05 bf 98 9a 29 3e b6 a4 18 bc 73 05 06 3f
       -0.5197779 0.16562879 -0.009316614 0.52352065
0002f0 82 ca 61 be 4a ca c4 bd e5 3a 81 be 7f de 1f 3e
       -0.22049907 -0.09608896 -0.25240245 0.1561222
000300 e6 29 f0 be 22 01 03 bf bd e3 e7 be d0 13 19 be
       -0.46906966 -0.51173604 -0.45290938 -0.14948964
000310 a5 40 3d 3e 60 d2 14 bf 10 2b 65 be 24 a9 22 3d
       0.18481691 -0.58133507 -0.22379708 0.039712086
000320 4d 2a 3f be f1 cb ff 3e 1c ac 6a be 15 ff 60 3d
       -0.1866848 0.49960282 -0.22917217 0.054930765
000330 a1 ec 05 bf bd 8a 9a be a3 70 0b bf bf c6 bc 3d
       -0.5231419 -0.30183974 -0.54468745 0.09217595
000340 cb ad 2a bf f7 55 c8 be 4c 22 8f bd 7f cc 89 be
       -0.6667144 -0.39128086 -0.069889635 -0.2691383
000350 3f 08 eb bc 49 ab 98 3d b4 bb 93 3e a2 9e 30 3d
       -0.028690455 0.07454545 0.28854144 0.043120034
000360 6a 18 00 bd f6 5c 42 bf fb 29 ee be 23 47 12 3e
       -0.031273283 -0.759231 -0.46516404 0.14284949
000370 09 a3 1f be 26 0b 4c bd 9e ef fa be 87 18 ad 3d
       -0.15589537 -0.04981532 -0.49010938 0.08451944
000380 91 d2 a0 be 03 c5 3e bf b8 01 05 bf 42 72 19 bf
       -0.3141065 -0.74519366 -0.5195575 -0.5993997
000390 0a a8 b3 bd 72 43 de be ee 19 60 3c 5e 82 18 bf
       -0.08772285 -0.43410832 0.013678057 -0.59573925
0003a0 12 02 09 be f4 88 47 bf 7e 47 f9 be ba 59 1e bf
       -0.13379696 -0.7794335 -0.48687357 -0.6185566
0003b0 48 28 09 bf 7d 0a f5 be 2f 02 01 bf 7b 81 97 be
       -0.5357709 -0.47859564 -0.50393957 -0.29590973
0003c0 64 59 27 bf a9 8a 17 be 39 81 60 be db a6 0b be
       -0.65370774 -0.14798988 -0.21924295 -0.13637869
0003d0 b8 8a 52 be 9b 67 43 be b3 55 0f be f2 fa 2e be
       -0.2056073 -0.19082491 -0.13997535 -0.17087916
0003e0 d8 37 a1 be 8e a3 52 3e 00 c0 e5 bd cb 78 46 be
       -0.31487918 0.20570204 -0.11218262 -0.19382016
0003f0 60 a9 eb 3c f0 7b 96 be 86 0d 3c 3e 64 1d dc be
       0.028767288 -0.29391432 0.18364534 -0.42991173

hidden2.weight f4 [256, 256]
000000 8a a5 f3 be 20 f1 69 bf f3 7a 83 3d bf f1 23 be
       -0.47587234 -0.9138355 0.06419935 -0.16010188
000010 a8 2a 42 bf b6 dd e6 3e 9d d4 b9 bd bc dd 89 3e
       -0.7584634 0.45091027 -0.09073756 0.26926982
000020 84 4b 2d 3d 19 c5 de bd 3d d6 66 3c c4 1c 4a 3e
       0.042308345 -0.10877437 0.014089164 0.19737536
000030 e2 44 cf be 3d 54 b6 3c 34 78 86 3e 51 cc ef bc
       -0.4048224 0.022256965 0.26263583 -0.02927223
000040 40 48 04 be fa a1 bd be 1a 0d 25 bf 4b 90 31 3e
       -0.12918186 -0.3703764 -0.64473116 0.173402
000050 87 66 94 be 35 94 72 bf dd 8b 80 ba af 15 1e 3e
       -0.28984472 -0.94757396 -0.0009807308 0.15437959
000060 d7 99 8d bd 9c ca d4 bd ad ab 16 be c7 92 c6 be
       -0.06914108 -0.10390207 -0.14713927 -0.38783857
000070 a6 89 b5 3d 82 c7 80 be 71 05 1f bf 8e b9 8c 3e
       0.08864145 -0.25152212 -0.6211768 0.27485317
000080 fa ff 0a bd d2 01 21 bf 37 99 d1 be 41 67 1d 3d
       -0.033935525 -0.628934 -0.40937206 0.03842855
000090 46 a2 69 bf 2f 93 ba 3e e9 4c d2 bd e7 dc ca bb
       -0.91263235 0.36440417 -0.10268576 -0.0061908844
0000a0 00 cc bc bf 2f 75 0c be c4 f9 36 be 63 0f fe 3e
       -1.4749756 -0.13716577 -0.17868716 0.49621114
0000b0 3d 00 d3 3e a0 1e eb 3d 60 dc a3 3f 27 40 51 be
       0.4121112 0.11480451 1.2801628 -0.20434628
0000c0 0c 1d c5 be 59 9a 8b be 46 42 29 bf 2d 1d 53 3e
       -0.38498724 -0.27266195 -0.6611675 0.20616598
0000d0 4e 8d da 3e 7b b8 01 be c2 9a 1e bf 05 57 49 bf
       0.42685932 -0.1266803 -0.6195489 -0.78648406
0000e0 8b e4 e3 3e 11 f8 e7 bd a4 94 3e bf 16 53 c1 bd
       0.44510302 -0.11326612 -0.7444556 -0.094396755
0000f0 bb f8 88 bf 71 fb 9d be 9f f7 a8 bd 5b 44 cb bd
       -1.0700907 -0.30855897 -0.08250355 -0.09925147
000100 f3 94 bd be 75 83 0b 3f 95 e3 2a be b6 cc 21 3e
       -0.37027702 0.5449746 -0.16688378 0.15800747
000110 97 13 14 3e c7 51 3f be 4f c7 ed 3e 4b 6f 89 bf
       0.14460598 -0.1868354 0.46441123 -1.0737089
000120 2b 4b dd 3e 9a ec 44 be 93 11 72 be 33 58 2a bf
       0.4322141 -0.19230881 -0.23639517 -0.6654083
000130 44 4b 41 bf b7 a5 fb be 5a 47 71 3f cf fb 52 3f
       -0.7550547 -0.49149868 0.942495 0.8241548
000140 b2 d3 09 bf cd c6 54 be 03 b4 c3 bf a1 0a 3a 3f
       -0.53838646 -0.20778961 -1.528931 0.7267247
000150 33 20 6d be c2 34 9a be 09 f8 9e bf 66 45 cf be
       -0.23156814 -0.30118376 -1.2419444 -0.40482634
000160 f4 bb 65 3e 33 fd d0 3e 8e 18 49 3d a0 ed d3 3e
       0.2243498 0.40818176 0.049095683 0.4139223
000170 c9 d0 71 be a9 63 ea be 7e a2 d7 3c 00 82 90 be
       -0.23614801 -0.4577916 0.0263226 -0.28224182
000180 48 6d 82 be cb 2d d1 be 9a 79 08 bf 77 21 1c bf
       -0.25474 -0.4085525 -0.5331055 -0.60988563
000190 7f 9c 4a 3e 83 4e fa bc 66 cb dd be 64 ea e9 3e
       0.19786261 -0.030555015 -0.43319243 0.45686638
0001a0 5e 81 28 bc b5 f0 13 3f 01 40 bf be 28 8f 74 bf
       -0.01028475 0.57789165 -0.3735352 -0.9553094
0001b0 f0 41 d1 3d 0b dd 84 3c 32 3c 52 bf 95 12 00 3e
       0.10217655 0.016218683 -0.821231 0.12507088
0001c0 a3 2f 2c bb 16 42 21 be a8 e5 c2 3d 61 2d fd 3e
       -0.002627351 -0.15747866 0.0951646 0.49448684
0001d0 0d 6a aa be 1e f5 e8 be 1f 9d f6 3c 88 c1 44 bc
       -0.33284035 -0.4549951 0.030104218 -0.012009032
0001e0 e6 dd d0 bf 54 bd 6b bf da fd b2 bd f5 7d 69 bd
       -1.6317718 -0.92085767 -0.087398246 -0.057004888
0001f0 2d c1 b7 3e d2 69 06 bf 18 0b 45 bf 33 2f 2c bc
       0.3588957 -0.5250522 -0.7697005 -0.0105093
000200 1e 61 cf bc 19 78 ac be cc fb 26 bf ca 1c 25 3e
       -0.025314864 -0.33685377 -0.6522796 0.16124263
000210 bb 25 eb bf 38 13 3a be bc c1 d2 be 4a f2 3f 3f
       -1.837089 -0.18171394 -0.41163433 0.7497908
000220 b2 4f 19 bf db 1a 24 be 26 23 d1 be a8 64 4f 3d
       -0.5988723 -0.1602587 -0.4084713 0.050633103
000230 87 7e 9e bf 9b e1 98 bf a0 24 fc 3d 0b f5 82 3e
       -1.2382363 -1.1943849 0.12311673 0.25577578
000240 29 ed 9f bd a7 c4 2a 3e da e0 5f bf 91 46 0e bf
       -0.078089066 0.1667658 -0.8745247 -0.55576426
000250 d6 70 4c be eb 43 25 be 91 29 2b be 5a 1d ec bc
       -0.19964918 -0.1613919 -0.16715075 -0.02882259
000260 ea df a2 3d 01 a2 cf be 6f 86 83 3f c1 74 1d 3b
       0.079528645 -0.40553287 1.0275401 0.002402589
000270 a2 9e e0 be 3c 48 93 bd a1 56 82 bf de 94 2a be
       -0.43871027 -0.07191512 -1.0182687 -0.16658351
000280 3b ee 72 3d e4 a1 8b 3c c1 53 f9 be 25 52 c0 bd
       0.059309226 0.017044969 -0.48696712 -0.09390668
000290 92 cb 85 3e d2 88 2e be 44 35 90 bc 1b e3 39 3e
       0.26131874 -0.1704438 -0.017603524 0.1815304
0002a0 37 93 35 3c f3 15 b4 bd 61 66 ee 3d c8 5b 25 bc
       0.011082462 -0.08793249 0.11640621 -0.010092683
0002b0 c5 5d ff 3e 11 0b 0a 3e 4a 96 13 be 73 77 26 3d
       0.49876228 0.13480784 -0.144128 0.04064126
0002c0 89 25 b3 3d 56 dd 63 3e 60 35 2f 3e 58 ba e0 bc
       0.08747394 0.22252402 0.17110205 -0.027432606
0002d0 0e 7c c2 bf 0e c6 02 bf 6f 28 fb bd 7f 3e c4 bc
       -1.5194108 -0.5108346 -0.122635715 -0.023955582
0002e0 11 7f 4a 3e fe 1c 5b be 92 65 7a bf b4 c5 96 bf
       0.19775034 -0.21397778 -0.97811234 -1.1779084
0002f0 ad f1 79 be 79 1e fd 3e 97 ce 45 bf c0 2a 31 3e
       -0.24408598 0.4943731 -0.77268356 0.17301464
000300 13 7b 30 c0 8a 3b 32 be 69 93 ef 3c 84 81 06 be
       -2.7575119 -0.17405525 0.029245095 -0.13135344
000310 8e 35 eb be 49 cc 8c be 0c b4 72 3e 9c d0 73 3d
       -0.45939296 -0.27499607 0.23701495 0.059525117
000320 8d 80 75 be eb a1 4b be 69 70 00 bf 51 e6 7d bf
       -0.2397482 -0.19885986 -0.50171524 -0.9917956
000330 47 1f a9 bd 59 f0 8a bf 69 21 59 bf 37 0d 3f be
       -0.08257919 -1.0854598 -0.84816605 -0.18657385
000340 09 3b 11 3e 65 2b 9e be f7 9f fa 3d 7a 62 44 3f
       0.14182676 -0.30892482 0.12237542 0.76712763
000350 2c 1f 81 be 22 4d d8 3e 07 80 13 3e 59 d7 bb bd
       -0.25219095 0.42246348 0.14404307 -0.09171934
000360 4c 1e 95 be 4b 4b e8 3d d1 1c dc be 6d ba bc 3d
       -0.29124677 0.11342486 -0.42990735 0.092152454
000370 76 b3 87 3e 22 b4 24 3e 4d 72 76 bc 2c 77 f5 3e
       0.26504105 0.1608434 -0.0150419 0.47942483
000380 05 58 7e bd 17 29 b5 bd f3 78 a9 3d ea 8e a4 be
       -0.06209566 -0.08845728 0.08275022 -0.32140285
000390 d5 a9 31 be 4b 27 a6 bf b1 71 41 bf 4a 98 0c 3d
       -0.17349942 -1.2980741 -0.75564104 0.03432492
0003a0 1d 9f c2 be 53 38 8e 3e 60 fb d5 bd cc fb ad 3d
       -0.3801202 0.27777347 -0.104483366 0.08495292
0003b0 73 11 b0 be 6f 23 bd be 09 b8 c3 be 4b b0 88 bf
       -0.34388313 -0.36941096 -0.38226345 -1.06788
0003c0 d9 a1 b6 bd ac b8 47 3e 4a 25 8f 3e e0 6c 85 be
       -0.08917589 0.1950404 0.27958137 -0.26059628
0003d0 60 3c 32 bf 90 53 54 be 71 fd 85 bd 13 57 10 3b
       -0.69623375 -0.20735002 -0.06542481 0.0022024557
0003e0 77 26 3b bf 42 0e 80 3e fd 02 ea 3d 95 d2 55 3e
       -0.7310557 0.25010878 0.11426351 0.20881112
0003f0 ce f9 63 3d 40 fb 55 be c2 5e 97 be 95 a8 c5 3d
       0.055658154 -0.20896626 -0.29564482 0.09651295

hidden2.bias f4 [256]
000000 a8 40 25 be 01 12 f3 3e e3 ff 96 be d5 35 4f bc
       -0.16137946 0.47474673 -0.294921 -0.012647112
000010 b1 fa 77 3d b4 cf 7d bd 56 43 83 bf 81 90 9f be
       0.060541812 -0.06196566 -1.0254924 -0.31164935
000020 05 fb dd be 5d fe 11 be c4 cd 49 be 33 83 49 be
       -0.43355575 -0.14257188 -0.197074 -0.19678955
000030 e4 c5 0f bf 21 64 a9 be 6d be 5c 3e fe 48 30 3e
       -0.5616133 -0.33084205 0.21557017 0.17215344
000040 1a 14 93 3e 9d ea 22 be 96 06 03 3e 86 9b 08 bf
       0.28726274 -0.1590981 0.12795481 -0.5336231
000050 87 bd a1 bd 0e fe e3 3e fb d4 01 3e e7 b3 26 3e
       -0.078974776 0.44529766 0.12678902 0.16279565
000060 c0 4e e1 be f1 d2 59 3f 0c f3 55 bd 7b a1 cb be
       -0.44005394 0.85087496 -0.05223374 -0.39771637
000070 18 dc ee 3e 20 06 8b 3e cd 49 52 3f e5 0a cd 3d
       0.46652293 0.2715311 0.8214386 0.100118436
000080 c6 8c 85 3d 8f 67 3c bc 42 8b d0 be a2 0d f8 be
       0.06520991 -0.0114993 -0.40731245 -0.484479
000090 62 2c 85 be c6 e4 8f be a6 2d b8 be 39 2e 31 ba
       -0.26010424 -0.28104228 -0.35972327 -0.0006758902
0000a0 e7 20 a0 3e d1 d6 c4 3e 11 ad ea bd 3e 3e a0 3e
       0.31275102 0.38445142 -0.11458791 0.31297487
0000b0 ea 57 47 bf 5a ef 5d 3d be 08 17 bf 9c 0d ee be
       -0.7786852 0.05418334 -0.58997715 -0.46494758
0000c0 42 d3 11 3e b6 d7 9c bd 1b 88 f5 3d 9d 97 95 be
       0.14240745 -0.07658331 0.11988851 -0.29217234
0000d0 0e e7 f9 bd 31 6e 26 bf 0f 80 02 bf 63 87 2d 3d
       -0.12202273 -0.6501189 -0.5097665 0.042365443
0000e0 4f ce 94 be 6d db c0 bd e1 0e 52 3e 64 62 ca 3c
       -0.2906365 -0.09416852 0.20513488 0.02470512
0000f0 57 03 b7 be 17 b0 8b be 26 f8 c3 3d a6 3b 5f be
       -0.35744736 -0.27282783 0.09568815 -0.21800098
000100 7f 1f 19 3e 62 0f 63 be dd db b0 be 47 dc 9b 3d
       0.14953421 -0.22173837 -0.34542742 0.07610374
000110 8e 55 4b be 3d 62 33 be 06 cf b8 3e fa 67 ec 3d
       -0.19856855 -0.17517944 0.36095446 0.115432695
000120 20 a3 73 bd 73 d2 23 bf c5 78 75 3e c4 04 d2 be
       -0.05948174 -0.63992995 0.23971851 -0.4101926
000130 0c 27 a6 be ea 9c 69 bf d6 d4 d6 bb 8a a9 c0 3c
       -0.32451665 -0.91255057 -0.0065561337 0.023518343
000140 5d 7e 0c bf 15 5c 8a 3d 48 86 d7 3e ce b1 ee bd
       -0.54880315 0.067558445 0.42094636 -0.11655007
000150 5e e4 ed be b8 0c 47 be 86 21 21 be e8 1d 96 be
       -0.46463293 -0.19438446 -0.15735444 -0.29319692
000160 1b db 55 3e e3 59 a5 3e 5e 7c 8d bd 4a 72 1f 3e
       0.20884363 0.3229514 -0.06908487 0.15570942
000170 b5 31 cc 3e 56 f9 38 3e db 5d 74 3d 8c 50 a3 3d
       0.39881673 0.18063864 0.05965982 0.079743475
000180 40 63 da 3c e8 86 df 3e 4a bd 64 be c4 dd 7b bd
       0.026658654 0.43657613 -0.22337833 -0.06149079
000190 c2 90 40 bf b6 74 97 bd 4f 1f 16 3e 26 f4 a1 be
       -0.7522088 -0.07395308 0.14660381 -0.31631583
0001a0 38 b7 6e 3e 64 82 51 bd 83 8c 24 3f 3d 89 66 be
       0.2331208 -0.05114974 0.64276904 -0.2251329
0001b0 5c 02 df 3d 1a d4 79 be 91 46 d3 be 67 ea 9e be
       0.10889122 -0.24397317 -0.41264775 -0.3103821
0001c0 6f e1 48 3f 43 5e 66 be e8 77 8a bc 5a a5 2c bd
       0.78468984 -0.22496895 -0.016902879 -0.04214988
0001d0 00 45 2a 3e ff cf 03 3e 51 b2 f6 3e ae ed 95 3d
       0.16627884 0.12872313 0.4818292 0.073207244
0001e0 0d 1c 0b bf 07 8b 27 3e 2d 5c 8d 3d 00 a3 af 3d
       -0.5433968 0.16361628 0.06902347 0.08576012
0001f0 44 13 c3 bd a6 0b 50 3e a9 0d c4 bd 30 e6 40 3e
       -0.09525159 0.20316944 -0.09572918 0.1883781
000200 6f a7 83 be c8 e7 a9 be e6 0b f9 3d e1 22 0f bf
       -0.2571368 -0.33184648 0.121604726 -0.55912596
000210 45 36 81 be c5 89 5e 3e bc 3d c0 3e c6 60 69 be
       -0.25236717 0.21732242 0.375471 -0.22790822
000220 0f 32 c6 be 23 c2 44 bd 5a 2a 94 3d e3 73 b8 3e
       -0.38710067 -0.048036706 0.072346404 0.36025915
000230 a6 19 87 be 02 c6 0d 3e 34 83 b4 be 25 ac 12 3f
       -0.26386756 0.13845065 -0.3525635 0.5729392
000240 48 e4 f2 3d 60 48 94 3e c6 41 37 bd b4 12 ed 3e
       0.118599474 0.28961468 -0.04474046 0.46303332
000250 0d 26 15 be dc 96 4a bd 9e d8 5d bf 45 6c 3d be
       -0.14565296 -0.049460277 -0.86658657 -0.18498333
000260 b2 4e 80 3e 9a 4a 36 be 2c f3 ac bd 21 f9 bc 3e
       0.2506004 -0.17801896 -0.08444819 0.3690882
000270 6b 79 21 3e df df a3 3e 19 aa 68 3e 61 a3 4d 3e
       0.15768974 0.32006738 0.22721137 0.20081855
000280 c3 70 c2 3c be f2 43 3e 37 6a 35 3d ae 18 7a be
       0.02373541 0.19135568 0.044290747 -0.24423477
000290 62 24 fe bd 93 6a 8f bd 56 28 95 be e8 16 98 bd
       -0.12409283 -0.07002749 -0.29132336 -0.07426244
0002a0 5d d8 65 3d 98 0e c1 3c 62 f2 b6 be 03 1c ca bd
       0.056114543 0.02356653 -0.35731798 -0.09868624
0002b0 a7 78 0b be db c9 3e be 0c cb 1f bf 5f c4 1a 3f
       -0.13620244 -0.18631689 -0.624192 0.6045589
0002c0 22 ce a5 3e 8f c6 65 3e 55 47 b4 3b 0c a2 23 3e
       0.3238383 0.22439025 0.0055016675 0.15979785
0002d0 d0 84 9c be 80 7c ba bd 4b 6f 96 be 8c 27 b3 be
       -0.30570078 -0.09105778 -0.29381785 -0.3499111
0002e0 2a ac 38 3e a1 b9 38 3d 51 78 51 bd f8 ce 97 3e
       0.18034425 0.045098905 -0.051140133 0.29650092
0002f0 99 8d d5 3d ae 57 09 3f 15 80 88 3d 05 fa 75 be
       0.10427398 0.53649414 0.06665055 -0.24021156
000300 f8 36 a9 bb 57 7f e2 3e d3 d6 92 be 37 ea 7c 3d
       -0.0051640235 0.44237778 -0.28679523 0.061746802
000310 56 73 04 bf 0f 7e e0 be 5d 8c 81 be 55 31 ff bd
       -0.5173849 -0.43846175 -0.253024 -0.12460581
000320 1e 27 07 be 1b fa 15 bf 37 e6 fc bd 73 82 85 bd
       -0.13198516 -0.58584756 -0.123485975 -0.06519022
000330 e4 8b d2 be 4a f9 0b bd 1e 23 c1 3d 42 1b 3c be
       -0.41122353 -0.034173287 0.09430526 -0.18369773
000340 5b aa f2 be 8f e0 23 bc 26 7d 33 bd 1c 51 c2 be
       -0.47395596 -0.010002269 -0.043820523 -0.37952507
000350 c0 22 8b 3d 16 6b ec 3b 5a 42 00 3c 1f e9 0a bf
       0.067937374 0.007214914 0.007828319 -0.54261965
000360 78 2c 78 3e 9a c3 9f 39 7b 37 25 be 6b e5 2b bf
       0.24235713 0.00030472578 -0.16134445 -0.6714694
000370 8b ea d8 bc 58 c3 0a 3e 4c 33 09 bd 67 64 c9 3e
       -0.026479026 0.1355108 -0.033496186 0.39334413
000380 aa 10 26 3e 86 be a2 bd d7 00 06 be b7 00 ad bd
       0.16217294 -0.07946496 -0.13086258 -0.08447402
000390 b6 c8 93 3e a1 4b c8 3e eb c4 b9 be 18 0c fd bd
       0.28864068 0.391202 -0.3628305 -0.12355822
0003a0 1a 94 ed 3d a6 cf 36 3c 39 1b a0 bd d9 0b 9b be
       0.11600514 0.011157906 -0.07817692 -0.30282477
0003b0 71 5c 04 3d c6 81 de be ca 6c 00 3e ea ce 55 bd
       0.03231472 -0.43458384 0.125415 -0.05219928
0003c0 c4 fd 62 3e 40 ac 82 bd d9 cc a8 be ce 65 cd 3e
       0.22167116 -0.0638051 -0.32968786 0.40116733
0003d0 71 71 29 3c 57 80 da 3e da 29 9f 3e de 2c 92 be
       0.010341988 0.4267604 0.31086618 -0.28549856
0003e0 1e a8 8b bd f2 94 42 be 2f e8 9e bd c8 97 e7 3d
       -0.06819175 -0.1900213 -0.07759129 0.11308247
0003f0 d2 00 56 be 08 4e 86 be dc ce f2 3d 44 14 8e be
       -0.2089875 -0.26231408 0.118558615 -0.27749836

mu.weight f4 [3, 256]
000000 00 05 2a 3d df 6d dc bd 1c a6 88 3e e2 2d 8f bd
       0.041508675 -0.10763144 0.2668923 -0.06991173
000010 44 7f 92 3e ba dc 37 bd 4f fc a7 3c 11 d2 89 3d
       0.2861272 -0.044888236 0.020506052 0.0672952
000020 ed 2e e8 be 63 ce f5 3d fb a2 a7 bd 6c 12 fc 3d
       -0.45348302 0.12002256 -0.08185383 0.12308201
000030 9d b2 1d 3e 20 a9 15 bd dd d5 b0 3e 54 62 07 3e
       0.15400167 -0.036538243 0.34538165 0.13221103
000040 09 52 f6 3d 0b 13 52 3d ec 7c 12 bf a9 56 36 3e
       0.12027366 0.051287692 -0.57221866 0.17806496
000050 10 44 e5 3d 6b a0 14 bc c1 f8 ac 3b bb 8a 19 be
       0.111946225 -0.00907145 0.005278677 -0.14994328
000060 6d 3f b2 bd aa a5 1b bd d1 01 07 3c 64 15 d6 bd
       -0.08703504 -0.037999786 0.008240179 -0.10453299
000070 b6 3d 6b 3b 0e 7d 1a 3d 23 a8 b0 3c a9 2c 51 be
       0.0035894937 0.037716918 0.021564549 -0.20427193
000080 9b 1f c4 3e 0b ab 4b 3d 7e 58 09 be a9 86 1c 3e
       0.38305363 0.049723666 -0.13412663 0.15285744
000090 56 60 39 be 78 bb 18 3d 37 95 86 bd 42 06 81 be
       -0.18103155 0.03728816 -0.06571429 -0.25200087
0000a0 e2 88 d9 3d f0 d5 22 bd 1f b4 79 be 28 e5 2a 3d
       0.106218114 -0.039754808 -0.24385117 0.041722447
0000b0 5b 90 b0 3d 6f 1e b0 be fd 05 9d 3d 4b 9b 19 be
       0.086212836 -0.3439822 0.07667158 -0.15000646
0000c0 7c 47 7f be ac f7 c9 3d b1 68 9b be a5 19 5d 3c
       -0.24929613 0.09861693 -0.3035331 0.013494884
0000d0 64 d7 0d 3d 5c b5 b8 3d 15 0d 70 bd e7 40 e5 3c
       0.03462924 0.090189666 -0.058606226 0.02798505
0000e0 cb fb 20 3e 42 54 10 3e 6a 27 24 be 4c fa 24 3e
       0.15721051 0.14094642 -0.1603066 0.16111106
0000f0 7a 26 9b 3d bf f0 85 bd 3a 84 24 be 96 d2 a3 bd
       0.07575698 -0.06540059 -0.16066065 -0.079991505
000100 22 08 d2 bd 53 1f 1d 3e 3d a1 53 3e ab 5c 70 3d
       -0.102554575 0.1534398 0.20666976 0.058682125
000110 29 a0 b5 3d 5c 7b ed 3d f3 e7 41 3d 48 a8 8d bd
       0.08868439 0.115957946 0.047340345 -0.06916863
000120 26 82 c3 bb e4 bc 01 bd e0 fb b2 bd 58 92 ff be
       -0.0059664426 -0.03167428 -0.087394476 -0.4991634
000130 7c 63 6c 3c 54 39 22 bd 70 a2 93 bd 46 a0 0c be
       0.014428016 -0.039605454 -0.07208717 -0.13733014
000140 7c 66 ae 3d 6d 50 74 bd 0f 8a 29 be 03 77 9e 3e
       0.08515641 -0.059647013 -0.16556571 0.30950174
000150 34 a9 96 3d 4b 4c 8d bd 3f 5a f2 bd ba c5 22 3e
       0.07356492 -0.06899317 -0.11833619 0.15895739
000160 4e 8d 91 be 05 f7 a5 be 5b 08 b7 3c c1 9b 35 be
       -0.2842812 -0.32415023 0.022342851 -0.17735197
000170 81 e5 42 3d 08 2c 2b be b8 fd 0c 3f 2b 86 91 3d
       0.047582153 -0.16716015 0.55074644 0.07105669
000180 ae 14 90 bd ca ae dc 3b 0f 84 de 3d a1 4e f6 bc
       -0.07035194 0.0067347037 0.10865032 -0.03006679
000190 86 b5 75 3e d7 3d 6a bf c3 f3 8a 3e c0 43 0f bf
       0.23995027 -0.9150061 0.271391 -0.55962753
0001a0 f7 00 eb 3d 12 b2 7e be 6f 7c b8 3c a7 c1 a7 3e
       0.114747934 -0.24872616 0.022520272 0.32764933
0001b0 20 08 d4 3e d6 65 10 3e 81 d8 80 bd c0 ae 90 3e
       0.4141245 0.14101347 -0.06291295 0.28258324
0001c0 00 ac 95 3c 12 2e ed bc 44 9e ff 3d 66 71 2c 3d
       0.018270493 -0.028952632 0.12481359 0.042100333
0001d0 be b1 1b 3e 00 d4 60 bd 82 e2 1d 3c bf a8 bd bd
       0.15204522 -0.05488968 0.009636523 -0.092607014
0001e0 a1 bd 90 bc 3a a5 73 be e1 4b 1e be 10 1e 4d be
       -0.017668547 -0.23793498 -0.15458633 -0.20030999
0001f0 ee 2a 34 be 88 ce 3f 3e f9 e9 01 3e 7a 1b b6 3d
       -0.17594501 0.18731129 0.1268691 0.088919595
000200 6b a3 a1 3e 6a e8 6d bc d6 ff 11 be 08 bf 8f bd
       0.3156999 -0.014520744 -0.1425775 -0.07018858
000210 77 e8 a7 3e 97 e0 81 3d 22 93 fb bb 1d 45 d4 bd
       0.32794544 0.06341665 -0.0076774517 -0.10364745
000220 99 dd 87 bc 93 a2 ab 3e 89 bf 0e 3e f1 b4 b6 3c
       -0.016585158 0.33522472 0.13940252 0.022303076
000230 a1 0d b9 bf 6b e3 c3 bc 54 48 45 be 1c 90 ae 3e
       -1.4457284 -0.023912152 -0.19265872 0.34094322
000240 50 94 d9 3e c3 b1 36 3d 8e 3c a2 bd 0d 81 a1 3d
       0.42495966 0.04460312 -0.07921706 0.078859426
000250 51 41 72 3d fe 73 f5 bd 42 bd c6 3c 7c da 75 3e
       0.05914432 -0.119850144 0.024260167 0.24009126
000260 c1 7b ab 3d 7f 01 f6 3d c7 67 3e 3c 60 11 35 be
       0.083732136 0.12012004 0.011621422 -0.1768241
000270 a2 f2 4f bd a2 54 90 3d 79 07 c2 be e2 a1 2c bc
       -0.050768502 0.070473924 -0.37896326 -0.010536643
000280 86 0e 08 be 1e b6 85 bd 17 b7 30 3e 2f ae 29 3d
       -0.1328679 -0.06528877 0.17257343 0.04142588
000290 8d e0 17 bd f0 17 81 3e 53 fd 14 be 86 d2 04 3e
       -0.037079383 0.25213575 -0.1454976 0.12970933
0002a0 3a d0 37 3f 4b f8 8e 3d bc cd 0e be ba 71 1a be
       0.71802104 0.06980952 -0.13945669 -0.15082446
0002b0 32 c4 30 3e 82 f9 12 be 67 06 8e 3e 06 11 81 bd
       0.17262343 -0.14352992 0.2773926 -0.06302075
0002c0 cb 2d 8f 3e d5 2a b1 3e af 63 00 be 23 d9 7a 3c
       0.27964625 0.3460299 -0.12538026 0.0153105585
0002d0 62 b0 02 3e ff f7 20 3f 03 d9 a3 be f4 94 8e 3d
       0.12762597 0.6287841 -0.32001504 0.06962004
0002e0 1a 20 e5 3c 3b 33 46 3e f8 3b c8 3d 10 a0 97 bd
       0.027969409 0.1935548 0.09777063 -0.074035764
0002f0 68 15 27 3e e1 7b 99 bd c9 25 b6 3c de 41 02 3e
       0.1631676 -0.07494331 0.022234814 0.12720439
000300 b6 16 bc 3d d2 18 fe 3c 67 ad 46 be 74 93 9b 3c
       0.09184019 0.031017695 -0.19402085 0.01899121
000310 d8 c6 d3 3c 11 71 fe 3d 28 49 82 be 9d 61 17 bc
       0.025851652 0.124239095 -0.2544644 -0.009239581
000320 ac ed 9e 3d a0 ba 06 bd 70 c1 06 bd 0f bc 6e bd
       0.07760176 -0.032892823 -0.03289932 -0.058284815
000330 00 02 3c be c0 eb 7f be fa ec a0 3e 10 3c 28 3e
       -0.18360138 -0.24992275 0.314308 0.16429162
000340 27 4f bb 3d 28 de f2 bd a9 5a cc 3c 74 7b 19 3f
       0.091459565 -0.11858779 0.024945574 0.59954
000350 6e ae 12 be 92 49 60 3e d5 28 76 bd 4f 70 38 bd
       -0.14324352 0.21903065 -0.060097534 -0.04502898
000360 42 d7 dd 3d 49 0f 91 bc 1d 88 03 3e 6a c1 06 3d
       0.10832073 -0.017707484 0.12844892 0.032899298
000370 47 83 37 be 8c c4 40 bb 2b 5f a4 be bd b4 dc 3a
       -0.17921172 -0.0029414026 -0.32103857 0.0016838532
000380 cb 35 e6 bd d3 2b 4d 3e ee dc c9 3e 3f 88 ed bd
       -0.11240729 0.20036249 0.39426368 -0.115982525
000390 31 b0 9c be f8 da 77 bd 14 91 09 be 98 01 c2 be
       -0.30603173 -0.06051156 -0.13434249 -0.3789184
0003a0 b8 ad c3 3b 6d f0 f8 bc 5d eb a6 bd dd f2 68 3d
       0.0059716366 -0.030388081 -0.08150361 0.056872237
0003b0 6e 0d f5 bd fa d4 6f 3e 08 40 19 bd 36 7d 37 3f
       -0.11965452 0.23421088 -0.03741458 0.7167543
0003c0 87 d6 ab be 6c c1 81 bb 13 27 cc be 15 d8 ba be
       -0.3356211 -0.0039598253 -0.3987356 -0.36492983
0003d0 02 91 41 3f f5 90 40 3d 3c 5f 4c be 83 5a 55 bd
       0.7561189 0.04701324 -0.19958204 -0.05208827
0003e0 22 71 e7 bd 88 72 14 3e 9e e2 33 3e eb c5 74 3d
       -0.11300875 0.14496815 0.17566916 0.05975906
0003f0 74 f2 3b 3e 5f 22 de be 6a ca 3e 3d ea 24 00 bd
       0.18354207 -0.43385598 0.046579756 -0.031285204

mu.bias f4 [3]
000000 45 80 a7 3b 0c 1b a9 3e 23 b2 31 3c
       0.0051117265 0.33028448 0.010845694

log_std.weight f4 [3, 256]
000000 bc 48 70 3c 61 fb a2 3d 30 10 e5 bd ba 67 ff bc
       0.014665779 0.07958103 -0.11184728 -0.03117739
000010 b5 00 dc 3c 20 b7 9f bc 87 5c 24 3c c5 52 70 3c
       0.026855806 -0.0194965 0.010031826 0.014668171
000020 b9 d7 e5 3d f1 ca 0f 3c 31 a4 e4 bd b3 56 9b bb
       0.112227865 0.008776412 -0.111641295 -0.00474056
000030 29 98 89 3d 5d e8 75 bd db 41 aa bd 22 80 43 bd
       0.06718475 -0.060036052 -0.08313342 -0.04772962
000040 a8 f3 a6 3b 77 ea 10 bc 58 5a 14 bd 3c fa 00 3e
       0.005094964 -0.008844963 -0.03621897 0.12595457
000050 73 23 0a be de d5 fb 3c 2c 85 25 3c bb c5 0d bd
       -0.13490085 0.030741628 0.010102551 -0.0346124
000060 0f 45 30 bc ac 24 90 bc 1a b6 14 bd 3b be 4d bc
       -0.010758652 -0.017595612 -0.036306478 -0.0125575615
000070 d0 ae 8d 3d eb 22 06 bd 45 55 81 3e 05 a4 25 3e
       0.069181085 -0.032748144 0.25260368 0.1617585
000080 b3 fb 08 3e b7 7f b6 3d 16 d3 2b bd b0 ae 53 3d
       0.13377266 0.089110784 -0.041949354 0.051680267
000090 98 ef e4 3d ac 0d 15 3c 05 91 38 3c fe d1 28 3e
       0.111785114 0.009097498 0.011265044 0.16486356
0000a0 18 e8 02 3c c7 6d cf bd e3 72 6c 3d 89 07 e2 bb
       0.007989906 -0.1012836 0.057726752 -0.006897871
0000b0 aa 70 5e bd fe c1 2b 3d 59 30 c7 bc bc 77 3d bd
       -0.054306664 0.041933052 -0.024315046 -0.046256766
0000c0 15 ab 1d 3e 9e 76 e8 39 cf a8 5f 3d b0 49 bf bd
       0.15397294 0.00044338865 0.054604348 -0.09340227
0000d0 82 c7 63 3c 14 e9 32 bc a7 1c 03 bd 66 70 72 bb
       0.013902547 -0.010919828 -0.032009747 -0.0036993264
0000e0 16 19 a8 3c c2 a5 f1 3e 53 c1 81 3d d5 cb ec 3c
       0.020519774 0.47196776 0.06335702 0.028905788
0000f0 cc e3 7d bd 3e 80 13 bd cd f6 8a bd e3 08 a9 3c
       -0.061984822 -0.036010973 -0.06785355 0.02063412
000100 41 2a 20 3d 89 bd d8 3d 2d ac 25 3c 33 88 06 be
       0.039102796 0.10583026 0.010111851 -0.13137893
000110 c7 62 da 3b 2f 6b ea 3a 9e c2 27 3c 70 91 a6 bd
       0.006664607 0.0017884726 0.010239271 -0.08133209
000120 a3 6d 8f bd 0d f7 1e 3c e2 da 2e bc 28 3f 0e bd
       -0.070033334 0.009702456 -0.010672303 -0.0347282
000130 d2 23 48 bb 50 bd 89 bc 27 cf 81 bd c5 35 38 3d
       -0.0030538929 -0.016813904 -0.06338339 0.044973154
000140 92 13 68 bc 89 79 64 3d 1d 38 69 bc 3e 23 54 3d
       -0.014164822 0.055779967 -0.01423457 0.051791422
000150 6a 13 9d bd 4d 2a bb bc 40 d6 9c 3c 70 64 09 3d
       -0.076697186 -0.022847319 0.019145131 0.03354305
000160 6b 4d df 3c c3 d7 13 bd 68 73 53 bc ed 0a 98 bd
       0.027258595 -0.03609444 -0.012905933 -0.07423959
000170 20 72 a2 3d 43 60 03 bc bc 62 2c be 22 ab 04 bd
       0.07931924 -0.008018556 -0.16834539 -0.032389767
000180 07 22 46 bc 7d 29 8a bc 95 e5 fa 3c 6f fa c0 3d
       -0.012093074 -0.016865486 0.030627051 0.094227664
000190 bb 64 75 3d 48 f8 47 3e ca c0 97 3d 3d 02 0b 3e
       0.059910517 0.19528306 0.074098185 0.13575073
0001a0 19 1d f4 3c 1c 18 1b 3e f4 38 04 bd bd c7 6f bd
       0.029799031 0.15145916 -0.032280877 -0.058540095
0001b0 48 a7 45 3e 08 18 44 bd c3 03 ad bc 86 14 73 3d
       0.19302094 -0.04787448 -0.021119958 0.059345745
0001c0 5c 97 bd 3a 12 db a4 bd 35 a5 82 3d 00 44 3b 3c
       0.0014464664 -0.08049597 0.06379167 0.011429787
0001d0 8a 58 a2 3b 51 18 0e 3d fd dd 03 bd e8 fc b2 bd
       0.0049544023 0.03469116 -0.032194126 -0.08739644
0001e0 d7 7b 1f bc b7 f9 9e 3d 30 78 c7 3d 20 a8 1b 3d
       -0.009734116 0.07762473 0.09739721 0.038002133
0001f0 b3 77 06 bd 93 08 16 be ac a9 1e 3b f5 ab 80 3d
       -0.032828998 -0.14651708 0.002421002 0.06282798
000200 c6 89 93 3c 63 79 b8 bc a5 86 06 3d 79 f2 f9 bb
       0.018010031 -0.02251882 0.03284325 -0.007627782
000210 31 8f 24 bd 61 56 1c 3d 46 09 fd b9 8b 4c 0f 3d
       -0.04017562 0.038168315 -0.0004826283 0.034985106
000220 6b 25 5e 3c 40 ac ce 3d 30 72 d7 3d a3 2c 96 3c
       0.013558726 0.10091448 0.105198264 0.018331831
000230 3a b1 af 3e ad 69 86 3d c4 93 56 3d 9e 91 65 bd
       0.343149 0.06563125 0.052387014 -0.056047074
000240 99 70 09 3e b6 c2 a8 3b 19 d1 16 bc 2e e7 29 3c
       0.13421859 0.0051501645 -0.009205126 0.010370059
000250 e9 a3 30 bd 65 3e 8a bd 23 f9 a7 3c 88 a1 0f bd
       -0.043125067 -0.06750182 0.02050454 -0.035066158
000260 ef 88 68 3d e2 09 a4 3c 53 12 02 3e b5 c6 1f bd
       0.056771215 0.020024244 0.12702303 -0.03900786
000270 8a 35 26 3c 95 b4 44 3a 16 35 c5 3d cf 69 0b 3e
       0.010144601 0.00075037155 0.09629266 0.13614582
000280 8a ff f7 3c 25 89 ab bc cb 7a 2a 3d ba 30 06 bd
       0.030273218 -0.020939419 0.04162101 -0.032761313
000290 b3 e0 71 3d 99 51 1e 3e d2 ce 6f bd 31 df b8 3d
       0.05905218 0.15460815 -0.05854685 0.090269454
0002a0 af 00 27 3e 3d 8e f5 bc 69 47 94 3d aa cc da bc
       0.16308855 -0.029975051 0.07240183 -0.02670892
0002b0 46 56 0b bd 36 43 0a bd 32 81 ad 3c 50 0c 09 bd
       -0.034017824 -0.033755504 0.02117977 -0.033459008
0002c0 91 1d b0 3c b2 13 be 3d 45 e4 8d 3d a8 b0 0d 3e
       0.021498473 0.092811 0.069283046 0.1383692
0002d0 76 1b 34 bd 9c 18 38 3e 13 a5 62 3c cb 2b e0 3d
       -0.0439715 0.17978138 0.013833302 0.10945853
0002e0 2e 86 0e be 9b d6 f3 3d 98 7d 1e bd 0b 26 99 bc
       -0.13918373 0.11906167 -0.038693994 -0.018694898
0002f0 35 ef 25 3d f6 5c 23 3d a1 c2 0a 3c 98 ef f6 3b
       0.04051133 0.039883576 0.008469255 0.007535886
000300 89 fc 0b 3d b1 40 03 3e 74 b6 3f 3e 18 78 d8 3d
       0.034176383 0.12817647 0.18721944 0.10569781
000310 d9 b3 74 bc 72 cd bd 3d 15 93 6b 3d 80 ff f2 bd
       -0.014935457 0.09267701 0.057513315 -0.11865139
000320 20 75 ad 3c 71 69 04 3c c4 c5 05 3d b4 f6 e6 bd
       0.021174014 0.00808178 0.032659307 -0.11277524
000330 c4 0c 35 3d bc 3a 22 bd 87 a9 c5 bd 06 dc 51 3d
       0.044201627 -0.039606795 -0.096514754 0.05123522
000340 af 78 e1 3c 2c 10 c0 3d d4 4d 1d bb 13 71 1c 3f
       0.027523367 0.093780845 -0.0024002688 0.6111004
000350 fb 7e 08 3a 63 c7 00 bd 62 38 d8 bc c8 b0 8b 3d
       0.000520691 -0.03144015 -0.026394073 0.06820828
000360 ab be 69 3c 7c 9a dc 3c 13 73 b3 3d 3f 29 89 bc
       0.01426665 0.026929133 0.08762183 -0.0167433
000370 a3 c9 20 3d 89 8c 12 bd 1f e8 98 3d f6 69 c5 bd
       0.039254796 -0.035778556 0.074661486 -0.09639351
000380 9e cf 76 bd da b8 b2 3d 8a 9c c0 3d 70 b9 2a bd
       -0.060256593 0.08726664 0.094048575 -0.041680753
000390 67 07 b5 3e 91 b0 9c 3d 66 4b 97 3d 74 f3 7a 3b
       0.3535721 0.07650865 0.07387428 0.0038292082
0003a0 d8 5f 4b bd b0 04 12 3e 8a 92 e1 bb 42 f0 df 3c
       -0.04965195 0.142596 -0.006883924 0.027336244
0003b0 a5 77 bc bc c2 25 98 3d 80 41 46 bd 8e 66 64 bd
       -0.02300627 0.07429077 -0.04840231 -0.055761866
0003c0 12 a1 72 bd 28 36 2c bd 8e 8b de 3d 48 d0 ab 3d
       -0.05923564 -0.042043835 0.10866462 0.08389336
0003d0 3d a8 c9 3e b8 bf 11 be 7f f6 fc 3d 23 38 58 3d
       0.39386168 -0.14233291 0.12351703 0.05278791
0003e0 a6 a0 01 bd a2 69 24 3d 74 b3 08 ba 6c 32 32 3d
       -0.031647347 0.0401398 -0.0005214729 0.043505117
0003f0 54 b2 ec 3c 28 11 0e 3d ce 99 6c be d2 11 4e bd
       0.028893627 0.03468433 -0.23105547 -0.050309964

log_std.bias f4 [3]
000000 44 94 7d bf f5 54 3d bf bf a0 7a bf
       -0.9905436 -0.7395776 -0.9790153
