Hopper-v2/weights.pth (torch, 284047 bytes, 8 tensors)

hidden1.weight f4 [256, 11]
-0.7326885 -0.94276786 0.9715071 -0.46006614 -0.38622057 0.23371652 -0.4782005 -0.5905677
0.404216 0.21566524 0.008968833 -0.6553943 -0.7237069 -0.26836023 -1.2493361 0.69705427
-0.1149439 1.2627859 0.27082384 -0.2652858 -0.1842958 0.12520708 -1.0207521 -0.86250037
0.4971045 -0.7184066 -0.8721072 -0.32880253 0.453536 0.039212048 -0.44154105 0.25137892
0.31828952 -0.06113152 6.460361 -0.8767708 -0.15355808 0.68186617 -0.1972595 -0.3265967
0.47090715 -0.13618304 -0.41045004 -0.06770361 -0.45792165 4.4292836 1.1631995 -1.8638823
-0.41448972 -0.4826573 -0.913958 0.41648605 -0.0012597003 0.3070085 0.0038417447 -0.16741687
-2.0274003 -0.32730973 -0.5037387 -0.6116458 -0.40338308 0.36488065 0.3436336 -0.24129821
0.16302378 -0.24718234 -0.56307673 -1.6062442 0.5159158 0.036677152 0.23416254 0.4165558
-0.37805173 -0.12634063 -0.031334426 -0.3472997 0.17555021 0.3784375 1.4820219 1.2555732
1.9160252 0.9785037 0.028481616 -0.120518364 -0.2764979 0.32331797 0.02823736 -0.122702636
-0.78072625 3.8197768 0.7190353 0.752828 1.4631053 0.15550779 -0.39658135 -0.32263625
0.35121557 0.13440086 0.015152342 0.43084553 -0.3524851 0.81776214 1.6555405 1.36221
-0.098146155 0.3417227 -0.82882464 0.77084017 0.4314607 -0.06603452 -0.30114377 -2.637918
-0.42829782 -0.7302955 0.12096627 -0.3660257 0.06277018 0.59452116 -0.5188245 -0.23593578
0.23428157 0.98941517 -0.072256126 1.4394678 -0.4621974 -2.5770328 -0.8722791 -0.57454544
-0.4136163 0.3632316 0.23564294 -0.0029534143 0.50843775 2.2216856 -0.92659515 -0.8506839
1.9961752 -0.6109879 0.60439885 0.16091207 -0.09556284 0.046518933 -0.16102394 0.09943051
2.2412903 -0.36610848 1.3826268 -0.93710136 0.53105384 -0.36456853 -0.078629114 0.07025574
-0.1196532 -0.011204439 0.3050252 -2.5394652 1.3655914 0.63822454 -0.36366764 -0.23991685
0.11448276 0.9092595 -0.72882706 -0.55485934 0.005262661 -0.16166538 2.6125944 -1.1520146
-0.79565936 1.6910177 -0.22893834 0.27982923 0.3995494 -0.34773582 -0.16732652 -0.26750466
0.514632 -1.6214314 2.3163369 4.525804 -1.0913261 0.14827089 -0.06796292 0.42729807
-0.33560064 -0.29040486 -0.05069717 0.6809062 -3.5319643 -0.6428357 1.6481149 -0.96726876
-0.25010857 -0.16026627 -1.2092385 0.9805164 0.5684864 0.038244404 0.1846925 2.3570428
2.1763706 0.4771918 -1.6805584 -0.19951163 -1.3498036 0.22250196 -0.15522903 -0.010890406
0.17187105 -0.36852318 0.92283064 0.38254577 1.1463549 -3.5052607 -0.40892506 -0.2620598
-0.042098902 0.12680618 0.14478704 -0.29505095 -1.3780202 -0.07865578 0.19627458 -1.4985025
-0.3900158 0.18818818 0.48538366 0.33268976 -0.4331812 -0.16559814 -0.05128077 -0.7368116
-0.6715408 0.84155715 -1.5935277 1.3328806 0.09998945 0.17402445 0.43150392 -0.27696916
0.09865613 -0.169464 -0.21285991 2.7387872 -1.9708754 -1.1505033 -0.4522938 0.46650925
0.12020182 0.09252978 -0.11336988 -0.08436569 -0.03728971 0.7332545 0.094967335 -0.5218471
00000000: 7991 3bbf 3c59 71bf b0b4 783f ca8d ebbe
00000010: b4be c5be 6253 6f3e b2d6 f4be 722f 17bf
00000020: 66f5 ce3e 59d7 5c3e 03f2 123c ecc7 27bf
00000030: db44 39bf 8366 89be 3fea 9fbf 2672 323f
00000040: b567 ebbd f8a2 a13f 6ca9 8a3e 8ad3 87be
00000050: 0ab8 3cbe 4936 003e 01a8 82bf d3cc 5cbf
00000060: 7b84 fe3e 7fe9 37bf 6b42 5fbf ce58 a8be
00000070: df35 e83e d09c 203d ab11 e2be bdb4 803e
00000080: d8f6 a23e 0b65 7abd 47bb ce40 0d74 60bf
00000090: 543e 1dbe c88e 2e3f 65fe 49be af37 a7be
000000a0: be1a f13e 9173 0bbe 8226 d2be 31a8 8abd
000000b0: b574 eabe b1bc 8d40 b9e3 943f b293 eebf
000000c0: ff37 d4be dc1e f7be 27f9 69bf a93d d53e
000000d0: 871c a5ba 3830 9d3e c8c5 7b3b 546f 2bbe
000000e0: edc0 01c0 2495 a7be 05f5 00bf d294 1cbf
000000f0: 3a88 cebe a3d1 ba3e bef0 af3e e116 77be
00000100: b5ef 263e 5e1d 7dbe cc25 10bf 6999 cdbf
00000110: 0f13 043f c83a 163d 4ec8 6f3e cd46 d53e
00000120: ff8f c1be 705f 01be 8758 00bd 44d1 b1be
00000130: 6fc3 333e 8fc2 c13e e5b2 bd3f 9fb6 a03f
00000140: 5040 f53f 387f 7a3f 4752 e93c 55d2 f6bd
00000150: 2291 8dbe ef89 a53e 0952 e73c 854b fbbd
00000160: addd 47bf 3977 7440 b312 383f 56b9 403f
00000170: 0947 bb3f 6f3d 1f3e b60c cbbe 9430 a5be
00000180: 87d2 b33e 61a0 093e 8741 783c c997 dc3e
00000190: ed78 b4be dc58 513f c0e8 d33f e65c ae3f
000001a0: da00 c9bd 47f6 ae3e da2d 54bf c855 453f
000001b0: 6be8 dc3e 1b3d 87bd 842f 9abe a6d3 28c0
000001c0: da49 dbbe a5f4 3abf 2abd f73d b867 bbbe
000001d0: a78d 803d 8a32 183f afd1 04bf 2699 71be
000001e0: 82e7 6f3e 504a 7d3f 05fb 93bd 7b40 b83f
000001f0: 23a5 ecbe 1bee 24c0 af4d 5fbf 6915 13bf
00000200: 84c5 d3be 7ef9 b93e 624c 713e 128e 41bb
00000210: fa28 023f 1930 0e40 5735 6dbf 6cc6 59bf
00000220: ab82 ff3f b469 1cbf e2b9 1a3f 22c6 243e
00000230: 73b6 c3bd a38a 3e3d 76e3 24be 39a2 cb3d
00000240: 4d71 0f40 9272 bbbe eaf9 b03f e0e5 6fbf
00000250: 25f3 073f baa8 babe 4d08 a1bd 3ee2 8f3d
00000260: bd0c f5bd d392 37bc 432c 9c3e 9986 22c0
00000270: b3cb ae3f af62 233f a532 babe c3ac 75be
00000280: f075 ea3d 3bc5 683f 6994 3abf 430b 0ebf
00000290: 6672 ac3b 9c8b 25be bf34 2740 3775 93bf
000002a0: 55b0 4bbf 4573 d83f d06e 6abe c745 8f3e
000002b0: bd91 cc3e 6e0a b2be a557 2bbe 5ff6 88be
000002c0: ecbe 033f 108b cfbf dd3e 1440 63d3 9040
000002d0: 93b0 8bbf 53d4 173e 2530 8bbd d0c6 da3e
000002e0: d9d3 abbe f2af 94be d6a7 4fbd de4f 2e3f
000002f0: b40b 62c0 e190 24bf 6ef5 d23f ed9e 77bf
00000300: 3b0e 80be d71c 24be 54c8 9abf 1f03 7b3f
00000310: 5388 113f 2aa6 1c3d 0820 3d3e cad9 1640
00000320: a849 0b40 7c52 f43e 8a1c d7bf c74c 4cbe
00000330: 5dc6 acbf 8ed7 633e 5cf4 1ebe ac6d 32bc
00000340: f7fe 2f3e 12af bcbe a13e 6c3f 0add c33e
00000350: c2bb 923f 3156 60c0 a05e d1be b42c 86be
00000360: e66f 2cbd 7bd9 013e 0e43 143e eb10 97be
00000370: f762 b0bf 4816 a1bd 34fc 483e eece bfbf
00000380: 27b0 c7be 67b4 403e 3584 f83e 5056 aa3e
00000390: edc9 ddbe 8f92 29be c90b 52bd af9f 3cbf
000003a0: 19ea 2bbf 4a70 573f b7f8 cbbf d59b aa3f
000003b0: 45c7 cc3d 7733 323e 15ee dc3e e7ce 8dbe
000003c0: 3a0c ca3d f987 2dbe f3f7 59be 4a48 2f40
000003d0: a545 fcbf b143 93bf 0e93 e7be 4dda ee3e
000003e0: 5f2c f63d 4180 bd3d 782e e8bd ebc7 acbd
000003f0: 18bd 18bd 91b6 3b3f 3c7e c23d c697 05bf

hidden1.bias f4 [256]
0.4921455 -0.24600485 -0.60859776 -0.49327973 -0.1567148 -1.0140396 -0.90353906 -0.44926482
-0.103008084 -0.5976549 -0.47467765 0.40154397 -0.7922204 -1.3225276 -0.29239917 -1.2401986
0.033462796 -0.56059027 -0.16333592 -0.49428412 0.048075642 -0.5612048 -1.412053 0.19969991
-0.5770214 0.03666852 -0.378369 -0.33891603 -0.23147646 -0.48617664 0.3723441 0.18922964
-1.1482389 -1.1733629 0.21466781 -1.4491642 -0.23788936 -0.7876996 -0.27493942 -0.7694266
0.13882625 0.20132333 -0.21074174 0.00034344383 -0.14143415 0.364903 -0.09028757 -0.61557806
-0.025881918 -0.8831661 -0.5906234 -0.31947452 -0.3560138 -0.72837436 -0.67678356 -0.3577835
-0.5184218 -0.47249332 0.060776547 -0.26939 -0.5102267 -0.15718526 0.059489302 -0.5871099
-1.622931 -0.23532824 -1.5864625 -0.40684038 -0.2323974 -0.3216332 -1.3885136 0.73958814
-1.0182954 -0.07433494 0.16797902 -0.3336271 0.08437035 0.39943203 -1.3963879 0.16327313
-0.65798587 -0.45309496 -0.022420086 -0.28682917 0.8860328 -0.5099369 -0.12415063 -0.3210225
-0.14017585 0.089658454 -0.34284297 -0.6487923 -1.0704095 -0.39924273 0.7713938 0.22522579
-0.34923446 -0.2218177 -0.48715195 -0.31536457 -0.19151433 -0.08166572 -0.49321866 -0.30540335
0.32636374 -0.26534766 0.26722026 0.0005306294 -0.46709868 -0.69586563 -0.4631275 -0.2858371
0.15824805 -0.25984678 0.26739007 1.1741862 -1.0534332 -0.01914798 -0.28115234 -0.45263252
-0.009110188 -0.63561994 -0.16130523 -0.9409074 -0.8289601 -0.21209927 0.2267758 -0.42967883
-1.3751973 -0.16095999 -0.43409386 -0.65529835 -0.14948136 -0.05823053 -0.4976405 -1.1344854
-0.017915128 -0.81081635 -0.536767 -0.8440005 -0.44519007 -0.6484803 -0.74851096 0.07279011
-0.825464 0.27545318 0.16722867 0.2769126 0.65203565 -1.0967757 0.038057476 -0.18320717
-0.23254487 0.77864647 -0.40276507 -2.0407429 0.06437288 0.38531923 -0.84428674 -0.54290944
-0.3880087 -0.38774675 -0.20936628 0.21350604 0.5882701 0.026884029 -1.7625068 -0.13869615
0.7352349 0.16350614 -1.3775852 -0.96696395 -0.49535048 -0.06067583 -0.13696848 -0.50141793
-1.2465632 0.41085175 0.4943791 -0.78879005 -2.0299783 -0.29939625 -0.22312306 0.42366716
0.3656141 -0.37929875 0.8948211 1.6456274 -0.36672568 0.25288564 0.092775814 -0.48535582
-0.20972534 -0.5733613 0.047269747 -0.62346774 -0.7882221 -1.1784251 -0.6314186 -0.12513861
0.98079354 0.7076772 -0.36031207 -0.648033 0.63487136 0.32692212 -0.22983776 -0.9244961
-0.24303101 -1.13612 -0.12651218 -0.80809146 -0.6259441 0.21159166 -0.9931772 0.1625688
-0.100924276 0.5309294 -0.76399803 0.61952376 0.1482394 -0.3602534 -1.0941457 0.7939599
-0.8249271 -0.24040231 0.09497641 -0.23442972 -0.21639876 0.3343828 -0.27400187 -0.28818974
0.6678765 0.054650597 0.65872633 -0.6450998 -0.11182611 -0.22868532 0.2213298 0.30457443
-0.28117868 -0.015074599 -0.09280808 -0.7038095 -0.26517692 0.9368444 0.377558 0.16899887
0.31945306 -0.4564624 -0.09637843 0.62253463 -0.17058682 -0.4644045 -2.0084746 0.8593309
00000000: 7ffa fb3e b2e8 7bbe 10cd 1bbf 298f fcbe
00000010: d879 20be 0dcc 81bf 564e 67bf 0a06 e6be
00000020: e7f5 d2bd e9ff 18bf f308 f3be 2c97 cd3e
00000030: f5ce 4abf 9648 a9bf 58b5 95be d4be 9ebf
00000040: 4910 093d d882 0fbf 8841 27be cf12 fdbe
00000050: f7ea 443d 1eab 0fbf 27be b4bf 227e 4c3e
00000060: adb7 13bf bb31 163d 95b9 c1be 6786 adbe
00000070: 2a08 6dbe 25ec f8be e3a3 be3e 6ac5 413e
00000080: 7ef9 92bf c130 96bf e1d1 5b3e 367e b9bf
00000090: 4599 73be aea6 49bf dcc4 8cbe 24f9 44bf
000000a0: 7828 0e3e b427 4e3e afcc 57be 4010 b439
000000b0: 1dd4 10be 91d4 ba3e b1e8 b8bd 8696 1dbf
000000c0: 5106 d4bc 2c17 62bf 1833 17bf 2a92 a3be
000000d0: 7147 b6be be76 3abf b041 2dbf 662f b7be
000000e0: 4bb7 04bf a5ea f1be d4f0 783d 7ced 89be
000000f0: 389e 02bf 2cf5 20be 0eab 733d d64c 16bf
00000100: 34bc cfbf e3f9 70be 3411 cbbf 624d d0be
00000110: 96f9 6dbe 1bad a4be d0ba b1bf a655 3d3f
00000120: 8157 82bf eb3c 98bd b102 2c3e 2cd1 aabe
00000130: 5dca ac3d 5b82 cc3e d7bc b2bf 1231 273e
00000140: c371 28bf 10fc e7be 54aa b7bc 46db 92be
00000150: 0cd3 623f 3a8b 02bf af42 febd 105d a4be
00000160: 428a 0fbe da9e b73d 1d89 afbe 4117 26bf
00000170: 2e03 89bf 8b69 ccbe 107a 453f 97a1 663e
00000180: dcce b2be 2e24 63be fb6b f9be 7777 a1be
00000190: 551c 44be 5b40 a7bd 2887 fcbe d45d 9cbe
000001a0: 2619 a73e a6db 87be 18d1 883e f019 0b3a
000001b0: 8f27 efbe 4024 32bf 0c1f edbe 3e59 92be
000001c0: c70b 223e a30a 85be 5ae7 883e bc4b 963f
000001d0: e6d6 86bf 39dc 9cbc 33f3 8fbe 73bf e7be
000001e0: e642 15bc fdb7 22bf 332d 25be 4fdf 70bf
000001f0: bb36 54bf 8d30 59be ea37 683e ddfe dbbe
00000200: 7706 b0bf b2d2 24be 8d41 debe a2c1 27bf
00000210: a411 19be 2383 6ebd bcca febe d136 91bf
00000220: bfc2 92bc a991 4fbf 9069 09bf 6b10 58bf
00000230: f4ef e3be ce02 26bf 6a9e 3fbf fb12 953d
00000240: 9c51 53bf 3308 8d3e fe3d 2b3e 7dc7 8d3e
00000250: cfeb 263f 2563 8cbf 28e2 1b3d a99a 3bbe
00000260: 3e20 6ebe 6055 473f 3937 cebe 889b 02c0
00000270: eed5 833d 9048 c53e 2d23 58bf 1dfc 0abf
00000280: 14a9 c6be be86 c6be 1d64 56be 54a1 5a3e
00000290: df98 163f e53b dc3c d399 e1bf 5d06 0ebe
000002a0: 5b38 3c3f 276e 273e b654 b0bf f38a 77bf
000002b0: 949e fdbe 3887 78bd 7741 0cbe ed5c 00bf
000002c0: 628f 9fbf 295b d23e 421f fd3e 25ee 49bf
000002d0: 2aeb 01c0 774a 99be 5f7a 64be e7ea d83e
000002e0: c531 bb3e 7233 c2be ff12 653f eba3 d23f
000002f0: 78c3 bbbe 3a7a 813e 3f01 be3d 8f80 f8be
00000300: 3dc2 56be cec7 12bf ec9d 413d 959b 1fbf
00000310: ecc8 49bf a2d6 96bf a6a4 21bf 5624 00be
00000320: 4915 7b3f 552a 353f d37a b8be 7ee5 25bf
00000330: ee86 223f 5662 a73e 975a 6bbe c7ab 6cbf
00000340: 1fdd 78be 616c 91bf 698c 01be 15df 4ebf
00000350: df3d 20bf 7cab 583e dc40 7ebf 6f78 263e
00000360: 63b1 cebd fdea 073f 6095 43bf 1c99 1e3f
00000370: 12cc 173e 2273 b8be f70c 8cbf f540 4b3f
00000380: 6c2e 53bf 062c 76be fe82 c23d 580e 70be
00000390: a397 5dbe 3934 ab3e f949 8cbe 9b8d 93be
000003a0: f4f9 2a3f 4ed9 5f3d 4aa2 283f 4325 25bf
000003b0: 1605 e5bd 7c2c 6abe 47a4 623e 2ef1 9b3e
000003c0: a7f6 8fbe 73fb 76bc 2a12 bebd dc2c 34bf
000003d0: 45c5 87be 09d5 6f3f 484f c13e 0a0e 2d3e
000003e0: 5a8f a33e 71b5 e9be 0e62 c5bd 6e5e 1f3f
000003f0: 50ae 2ebe 6dc6 edbe d98a 00c0 1cfd 5b3f

hidden2.weight f4 [256, 256]
-0.44291297 0.17632355 -0.4040917 -0.18729101 -0.14298353 -0.2044332 0.3759262 0.6737924
-0.284083 -0.10345685 -0.17159133 -1.8518052 -0.098979406 0.012080948 -0.16760747 -0.3827807
0.34220755 -0.7601412 0.26187432 -1.7149386 0.0051479707 -0.07937741 -0.23735344 -1.6910474
0.3053218 -0.10618772 0.08320521 -0.16745493 -2.6639855 0.6050945 0.92691284 0.42733765
0.076288484 0.457665 0.7606634 -0.37761146 0.32113102 -0.76561654 0.36248815 0.13909808
0.019580323 -1.3648852 0.033798482 0.57293296 -0.11671828 0.12912665 -0.11673756 0.47603726
-0.5067513 0.24979256 0.17562133 -0.29875132 -0.1836334 -0.4257553 -0.15612337 0.52598
-0.5038142 -0.07981522 0.03717698 0.24680538 0.3426366 -0.10784287 0.66578084 -0.08152659
-0.487985 0.0026500805 0.4294177 -0.96837753 -0.57513046 0.25414672 0.3307711 0.035781745
-0.12558399 -0.5312598 -0.2509214 0.018378597 0.8822112 -0.021688573 -0.30249265 -0.259696
-3.1293283 -0.41367933 -0.063794054 -0.032581657 -2.0451548 -0.50397563 0.07617168 0.038282644
-0.24863742 0.45952412 -0.6788283 0.1281139 0.01136744 -0.2361029 -3.4655392 -1.2563804
-0.20944628 0.31150964 -0.4388937 -0.3797466 0.44168657 0.26763037 -0.5207539 -0.5081648
0.97045106 -0.9437898 -0.1364013 -1.0908285 -0.8822434 -0.30517352 0.8851663 -0.1597117
1.6046865 -0.0032437972 -0.7846652 -0.040851843 0.270019 -0.5272762 -0.54433906 0.5067044
0.2684554 -1.8032529 0.24218524 -0.8485737 0.83924216 -0.3422167 0.1123756 0.20794201
0.112238005 0.20906703 -0.5278135 0.18604535 -0.66057485 0.0787756 -0.30210456 -0.7929667
-0.07287209 0.019420175 0.5953668 1.3305087 0.40217346 -0.321744 0.2734252 0.019750113
0.5407869 0.34383225 -0.82203966 0.1937028 0.23502095 0.18982612 0.7273712 0.45887327
0.264898 0.36829203 0.4338003 0.6165043 -2.0262148 0.10420371 -0.29088885 0.10701841
-0.82276696 -0.0124360835 -0.66203207 0.39972314 -1.8566858 0.3382298 1.2177452 -0.81226814
0.660367 -1.3449094 -0.8318277 -1.0818609 -0.079110235 -0.41811872 -0.47333133 -0.1731881
0.166 -1.3010609 -0.9514138 0.45965388 -0.17926985 -0.6386823 -0.67631865 -0.41016755
0.19220798 -0.58071345 -0.32077178 1.2992343 -0.23664461 0.5942297 -0.44825968 0.30295768
-0.4446565 0.16204758 0.46707794 0.4145719 -0.65367514 -0.6199148 0.6309017 0.5636827
1.191839 0.033381637 -0.4483827 0.15430553 -2.3488386 -1.657021 -0.3852627 0.018680567
0.3777364 -0.18665445 -0.36480314 -0.055951968 -0.4138934 0.16459341 -0.51081806 0.18378861
-0.22767155 -0.8730298 0.6594145 -0.5286541 -0.6785137 0.2948066 -1.4859108 -1.7964983
-1.9592974 -0.9064095 -0.13124107 -0.014150864 0.22966927 -0.526399 0.09729264 -0.3529414
-0.12488445 0.1728866 -0.20843141 0.45072833 -0.7936161 -0.609639 -0.5543419 -0.5708943
-0.9141418 -0.1911693 0.25797686 0.9738212 0.4629457 0.92844605 0.6320561 -0.18760473
0.09484932 0.4326936 -0.3105537 1.1250311 0.68214434 -0.10410032 0.15408671 -3.6907153
00000000: 7dc5 e2be 298e 343e 1be5 cebe 37c9 3fbe
00000010: 466a 12be f056 51be 6679 c03e a97d 2c3f
00000020: 5473 91be 2fe1 d3bd a3b5 2fbe f407 edbf
00000030: b7b5 cabd 2bef 453c 4ba1 2bbe d5fb c3be
00000040: d435 af3e 9d98 42bf 6414 863e 1c83 dbbf
00000050: 4fb0 a83b a090 a2bd c80c 73be 3e74 d8bf
00000060: 2453 9c3e f378 d9bd 7e67 aa3d 4e79 2bbe
00000070: bd7e 2ac0 79e7 1a3f 294a 6d3f 00cc da3e
00000080: 233d 9c3d 1153 ea3e d6ba 423f 4a56 c1be
00000090: 496b a43e 72ff 43bf 0c98 b93e ba6f 0e3e
000000a0: ea66 a03c 8fb4 aebf 4770 0a3d bcab 123f
000000b0: fe09 efbd c739 043e 1a14 efbd 28bb f33e
000000c0: 74ba 01bf 9fc9 7f3e 14d6 333e eff5 98be
000000d0: 650a 3cbe 99fc d9be cede 1fbe a0a6 063f
000000e0: f8f9 00bf 2976 a3bd e446 183d 8dba 7c3e
000000f0: 106e af3e b9dc dcbd 9d70 2a3f 6af7 a6bd
00000100: 2bd9 f9be f9ac 2d3b a3dc db3e 97e7 77bf
00000110: c03b 13bf 851f 823e d45a a93e e18f 123d
00000120: 1799 00be a400 08bf c578 80be b68e 963c
00000130: 98d8 613f 3cac b1bc 51e0 9abe e0f6 84be
00000140: ea46 48c0 c7cd d3be 75a6 82bd 5874 05bd
00000150: d1e3 02c0 8c04 01bf e6ff 9b3d 43ce 1c3d
00000160: cf9a 7ebe bf46 eb3e b1c7 2dbf 4a30 033e
00000170: 803e 3a3c f5c4 71be 65cb 5dc0 13d1 a0bf
00000180: 1679 56be 317e 9f3e adb6 e0be 256e c2be
00000190: be24 e23e d906 893e 2150 05bf 1717 02bf
000001a0: 7b6f 783f 359c 71bf c8ac 0bbe 45a0 8bbf
000001b0: b4da 61bf b43f 9cbe 429a 623f 778b 23be
000001c0: 5e66 cd3f e395 54bb d2df 48bf 4354 27bd
000001d0: ee3f 8a3e 93fb 06bf ce59 0bbf 61b7 013f
000001e0: fc72 893e fed0 e6bf 68ff 773e 203c 59bf
000001f0: 93d8 563f 0737 afbe 2e25 e63d c0ee 543e
00000200: 0add e53d ab15 563e c91e 07bf ac82 3e3e
00000210: 6f1b 29bf 1a55 a13d 73ad 9abe deff 4abf
00000220: f63d 95bd 0f17 9f3c f569 183f 1c4e aa3f
00000230: aee9 cd3e a1bb a4be 63fe 8b3e fdca a13c
00000240: 0371 0a3f c80a b03e 3171 52bf 075a 463e
00000250: 55a9 703e c761 423e 0035 3a3f 70f1 ea3e
00000260: b6a0 873e c690 bc3e 131b de3e 3ad3 1d3f
00000270: 81ad 01c0 c168 d53d 62ef 94be 782c db3d
00000280: dba0 52bf b7c0 4bbc ef7a 29bf 83a8 cc3e
00000290: e1a7 edbf 752c ad3e 13df 9b3f cef0 4fbf
000002a0: d00d 293f fe25 acbf a9f2 54bf 6b7a 8abf
000002b0: 8c04 a2bd a813 d6be 7c58 f2be 3958 31be
000002c0: e7fb 293e 2a89 a6bf db8f 73bf c157 eb3e
000002d0: 8492 37be af80 23bf 3823 2dbf 7b01 d2be
000002e0: 2bd2 443e a3a9 14bf 333c a4be 4f4d a63f
000002f0: f752 72be 701f 183f 4b82 e5be 451d 9b3e
00000300: 04aa e3be cdef 253e d724 ef3e c542 d43e
00000310: 4157 27bf bdb2 1ebf c682 213f 824d 103f
00000320: 2e8e 983f 2fbb 083d 6b92 e5be 4502 1e3e
00000330: 5f53 16c0 4419 d4bf 2741 c5be fd07 993c
00000340: aa66 c13e 5822 3fbe 7ac7 babe e42d 65bd
00000350: d6e9 d3be 2d8b 283e f9c4 02bf 1533 3c3e
00000360: bb22 69be e27e 5fbf 64cf 283f e055 07bf
00000370: 13b3 2dbf e4f0 963e 5332 bebf a8f3 e5bf
00000380: 42ca fabf 740a 68bf 0f64 06be 07d9 67bc
00000390: 6c2e 6b3e 16c2 06bf 5d41 c73d bcb4 b4be
000003a0: 6bc3 ffbd 2f09 313e 0b6f 55be ddc5 e63e
000003b0: 6d2a 4bbf 4d11 1cbf 5ae9 0dbf 2126 12bf
000003c0: 3205 6abf e3c1 43be 8b15 843e 594c 793f
000003d0: 3807 ed3e a4ae 6d3f 6ece 213f 741b 40be
000003e0: 5c40 c23d 048a dd3e e500 9fbe 0501 903f
000003f0: 03a1 2e3f 8c32 d5bd e8c8 1d3e ae34 6cc0

hidden2.bias f4 [256]
0.60645723 0.32877037 0.04497068 0.41887176 -0.57699084 0.21225633 0.20292616 -0.07358656
0.20173076 -0.24886131 -0.55305684 -0.43946636 -0.589516 0.12251219 0.5268855 -0.15139468
-1.0200201 -0.18227738 -0.58920056 0.14736842 -0.91814744 0.7681514 0.15477888 0.13336457
-0.6105196 -0.7328869 -0.5727716 -0.30221307 -1.0552349 -0.27777785 0.43304047 0.6451378
-0.7572753 -0.05803673 0.11824891 -0.17379233 -1.1151633 -0.5116141 -0.96226287 -0.7371965
0.6018556 0.349269 -0.20147306 -0.33141467 0.0957494 0.72094625 -0.9699051 0.39358446
-0.74897444 -0.6446847 1.5473555 0.56487715 0.5661543 0.24449992 -0.20937215 1.6981399
-0.17996177 -0.56375325 -0.9473902 0.10113138 0.47008097 0.3474776 -0.45689046 0.27100474
-0.2074472 0.12884031 0.23524867 -1.0849242 -0.055047665 -0.20877859 0.8483801 1.0206223
0.2838594 -0.13180573 -0.026215168 -0.56783324 -0.55666035 -0.2661645 -0.12099788 -0.40307707
-0.04590267 0.2608022 0.39691317 -0.33609322 -0.5239622 -0.022712711 0.05525958 -0.41664016
0.35504794 -0.56821567 0.5873817 0.31615835 0.15919413 -0.23927793 -0.69036084 -0.54587764
-0.25432783 -0.5210701 -0.31184822 0.4362372 -0.7561284 -1.3164965 0.060141068 -1.2598536
0.212165 -0.23462471 -1.697254 0.2121674 -0.4565263 -1.1018836 -0.09194559 0.13974208
0.26914233 -0.0012497102 -0.06555777 -0.1993951 0.44092068 0.47166616 1.0482507 -0.2314646
1.0495552 0.52954024 0.43074346 -0.7580649 0.66447943 -0.89364845 -0.25161868 0.57147723
0.122719 -0.0727364 0.3044762 -0.5129315 0.25430873 -0.6264591 -0.015242483 0.27931094
-1.0119379 -0.03701963 -0.058419395 -0.99706024 0.071720794 -1.2195374 -0.7165537 -0.79402936
0.48376784 -0.07863087 -0.24278092 -0.5362382 -1.08416 -1.384163 0.1926492 -0.6487231
-0.95168287 0.29861814 -0.1503961 -0.47495922 -1.0370886 -0.21619944 0.39152035 -0.20119289
-0.08790526 1.6979935 0.062653646 0.017681666 -0.30982378 -0.59725887 1.3354036 0.3142176
-0.18012227 1.3321067 -0.7704552 0.8448871 0.82906836 -0.089453414 -0.3622459 -2.0787227
-0.52026784 0.12767836 -0.7812213 0.114354394 -0.7550614 -0.35326704 -0.10390548 -0.09694284
0.13174799 0.08141074 -0.80173904 0.06977508 0.32246011 -1.1935377 -0.2861591 0.68893474
0.18385355 -1.0155505 -0.123889364 -0.5109028 0.416815 0.51839566 -0.39405057 0.13371977
-0.43058118 1.1932862 -0.04007041 0.37296125 0.022208817 0.088105544 0.16062416 -0.182344
-0.22783807 0.13928165 -0.6961849 0.48471412 -0.5043668 -0.4686966 -1.3025091 -0.35021213
0.46794358 -0.24069415 0.7902403 -0.38469467 -0.012953112 -0.23983021 -0.7484746 -1.0088204
-0.23264557 0.45123968 0.31035233 0.57728034 -1.4081513 -0.18101607 0.061131157 -0.22655877
-0.16390324 0.39148805 0.18834566 -0.8232297 -0.3612954 -0.17373243 -0.49772605 -0.21138524
0.069804564 -0.3202294 0.24848709 -0.42624626 0.64068496 1.1842828 -0.35107434 0.54993296
-0.5380239 -0.38661194 -0.5264799 0.8113391 1.3032211 0.8374567 -0.47001994 -0.08935174
00000000: c840 1b3f 9754 a83e 2d33 383d 5c76 d63e
00000010: acb5 13bf b959 593e e0cb 4f3e 8db4 96bd
00000020: 8292 4e3e 80d5 7ebe 2295 0dbf bc01 e1be
00000030: 85ea 16bf ace7 fa3d f8e1 063f 3507 1bbe
00000040: 0590 82bf eca6 3abe d9d5 16bf bfe7 163e
00000050: b60b 6bbf 92a5 443f 5b7e 1e3e b990 083e
00000060: 034b 1cbf 7a9e 3bbf 29a1 12bf acbb 9abe
00000070: f011 87bf e638 8ebe 7bb7 dd3e c027 253f
00000080: cbdc 41bf ecb7 6dbd 7c2c f23d 9ef6 31be
00000090: acbd 8ebf 24f9 02bf dc56 76bf e9b8 3cbf
000000a0: 3513 1a3f 63d3 b23e f44e 4ebe 2faf a9be
000000b0: 4318 c43d ef8f 383f b34b 78bf e783 c93e
000000c0: cabc 3fbf 0e0a 25bf bf0f c63f ca9b 103f
000000d0: 7def 103f 305e 7a3e a765 56be a65c d93f
000000e0: e647 38be 2252 10bf 2a88 72bf f81d cf3d
000000f0: 74ae f03e 96e8 b13e 8ced e9be 22c1 8a3e
00000100: 0a6d 54be b7ee 033e 07e5 703e ccde 8abf
00000110: a979 61bd 0eca 55be 702f 593f c0a3 823f
00000120: 0556 913e 15f8 06be 31c1 d6bc 855d 11bf
00000130: 4b81 0ebf b746 88be bdcd f7bd 1e60 cebe
00000140: 7004 3cbd de87 853e 3438 cb3e 6914 acbe
00000150: 6322 06bf 0210 babc df57 623d dc51 d5be
00000160: d8c8 b53e 9576 11bf a65e 163f 82df a13e
00000170: c903 233e 4605 75be 7dbb 30bf a3be 0bbf
00000180: 4237 82be da64 05bf 92aa 9fbe 7b5a df3e
00000190: a191 41bf f582 a8bf 7b56 763d e242 a1bf
000001a0: c841 593e 7641 70be 9e3f d9bf 6942 593e
000001b0: d1bd e9be 860a 8dbf f84d bcbd 8c18 0f3e
000001c0: 06cd 893e 51cd a3ba 2743 86bd 3b2e 4cbe
000001d0: 5bc0 e13e 3a7e f13e 142d 863f 0e05 6dbe
000001e0: d357 863f f38f 073f 688a dc3e 8b10 42bf
000001f0: 531b 2a3f 25c6 64bf 2ad4 80be 554c 123f
00000200: 1954 fb3d d2f6 94bd 4ee4 9b3e 7b4f 03bf
00000210: c134 823e a05f 20bf 9bbb 79bc d801 8f3e
00000220: 2e87 81bf e5a1 17bd 2d49 6fbd 573f 7fbf
00000230: 5ae2 923d cd19 9cbf 1070 37bf 8245 4bbf
00000240: 6bb0 f73e 3909 a1bd 909b 78be e846 09bf
00000250: c1c5 8abf 412c b1bf d545 453e b812 26bf
00000260: 7da1 73bf 7ae4 983e 6f01 1abe db2d f3be
00000270: 52bf 84bf 6363 5dbe 5b75 c83e 8205 4ebe
00000280: ac07 b4bd da57 d93f 8e50 803d 24d9 903c
00000290: 39a1 9ebe f5e5 18bf 81ee aa3f 21e1 a03e
000002a0: f971 38be 7982 aa3f 8d3c 45bf 854a 583f
000002b0: d33d 543f 5a33 b7bd 4b78 b9be cb09 05c0
000002c0: 4630 05bf 1ebe 023e 1efe 47bf a332 ea3d
000002d0: b44b 41bf 6bdf b4be 65cc d4bd f889 c6bd
000002e0: f2e8 063e adba a63d c53e 4dbf 3de6 8e3d
000002f0: 7e19 a53e d8c5 98bf 7283 92be 075e 303f
00000300: 1b44 3c3e 8ffd 81bf b5b9 fdbd 87ca 02bf
00000310: c768 d53e 94b5 043f ffc0 c9be d6ed 083e
00000320: 2375 dcbe 9abd 983f df20 24bd c7f4 be3e
00000330: 44ef b53c ae70 b43d a97a 243e 63b8 3abe
00000340: 624e 69be d99f 0e3e 2c39 32bf 732c f83e
00000350: 2f1e 01bf 00f9 efbe 9eb8 a6bf 014f b3be
00000360: 4d96 ef3e 8778 76be 304d 4a3f b3f6 c4be
00000370: 4a39 54bc 0d96 75be 089c 3fbf 0721 81bf
00000380: a43a 6ebe e308 e73e 80e6 9e3e a5c8 133f
00000390: 4d3e b4bf 475c 39be aa64 7a3d 06ff 67be
000003a0: 40d6 27be 1f71 c83e afdd 403e 2ebf 52bf
000003b0: b6fb b8be eae6 31be f3d5 febe 5f75 58be
000003c0: b2f5 8e3d 1cf5 a3be 6673 7e3e f33c dabe
000003d0: ee03 243f 9496 973f 04c0 b3be 68c8 0c3f
000003e0: efbb 09bf 00f2 c5be 63c7 06bf ebb3 4f3f
000003f0: f3cf a63f 9063 563f 74a6 f0be 0cfe b6bd

mu.weight f4 [3, 256]
-0.044960283 0.037217468 0.034375474 -0.2877349 0.12268549 -0.046294034 0.1450701 -0.032425985
0.015267472 0.052996684 0.24319136 0.109342664 -0.19477417 0.38524878 0.01259818 -0.12862428
0.040936958 -0.06387337 0.15040475 -0.039488 -0.009513504 -0.05946067 -0.0772361 -0.048285324
0.28292665 -0.19173598 0.06473945 0.0689193 0.02786842 0.012278321 -0.10989442 -0.106417194
-0.07632346 -0.2678828 0.08550233 0.16784944 -0.07764256 -0.1237718 0.21113208 0.002768796
-0.009565825 0.14945847 0.14601637 -0.4603014 -0.10533532 0.0053799935 0.09289495 -0.075226605
0.09046116 0.2021257 0.0014736793 -0.002741654 -0.0016047982 -0.0119736865 -0.035559352 -0.036182743
0.08709667 -0.11664281 -0.2834067 -0.0760142 0.22644399 -0.09032991 -0.7708561 0.14504814
0.0011522258 -0.15829255 0.11639635 0.026056094 -0.010680697 0.3270944 0.042768035 0.06205453
-0.10560808 -0.22205688 0.1389278 -0.1741802 -0.06898763 -0.15759869 0.07925208 0.29492432
-0.037889197 -0.24536657 -0.039677236 -0.07392321 0.010215003 0.22412257 0.0369446 0.01871995
0.11866499 -0.033938583 0.19171749 0.12350331 0.12618564 0.049938004 -0.10795561 0.035195556
-0.10867309 -0.096350536 0.036668386 -0.08489495 -0.09834832 0.043855574 -0.010615444 -0.000568233
0.023704162 0.45733505 -0.08989365 0.01790265 0.12818989 -0.005923889 -0.06186004 -0.31369314
0.04918606 -0.13667265 0.0733905 -0.056680016 -0.066678256 0.089652345 0.1746353 0.17323937
0.20503807 0.09225068 -0.065662935 -0.20054553 -0.22062337 0.1694895 -0.040686574 0.46058738
0.11182818 0.09369806 0.0062144254 -0.03701862 0.047923807 0.105411306 -0.049190346 0.005160243
-0.03475126 0.025573472 -0.5217231 0.14705451 0.1735079 -0.13982826 0.18827794 0.09816065
0.063973635 0.08965692 0.14369999 0.19998488 0.02223317 0.10945171 0.24428628 -0.097433254
0.08551768 0.09906119 0.2188801 -0.08014027 0.24019194 0.094803445 0.9035142 -0.38639516
-0.029907001 -0.08211173 -0.05440251 0.12756328 0.006345491 -0.15540004 0.0036899336 -0.104551785
-0.15910585 -0.01798622 -0.14794639 -0.04362361 -0.18886073 0.024691341 0.08948106 -0.0388686
0.030354572 -0.17313182 0.09424883 0.20151854 -0.13041176 0.043888964 -0.13263188 0.09401317
-0.1318033 0.13521262 0.08260391 0.019478451 -0.047906272 -0.036032155 0.100622416 -0.19668481
-0.02455026 0.19131355 0.054866306 0.0079256445 -0.026694033 -0.01493188 -0.08211558 -0.0046647256
0.12273204 0.07723025 -0.11528163 -0.0334322 -0.10394422 -0.1255443 -0.08869931 0.10269111
0.1101357 0.08626734 -0.17385045 -0.017061805 0.14970717 0.07663531 0.015528553 0.047675382
0.029870292 -0.012391272 -0.37683794 0.01188317 0.07069009 -0.106621705 -0.053029317 -0.28126824
-0.25520763 0.05367309 0.020660983 0.030541174 0.5457037 0.12653704 -0.02533187 0.09337273
-0.25730625 0.037553243 0.06574711 0.12132899 -3.6318877e-05 0.07523631 -0.072846584 -0.123090416
-0.05902557 0.04767593 0.20727679 -0.078782134 -0.05296536 0.11465946 -0.12021183 0.106587894
-0.072558634 0.004886688 -0.032708563 -0.1233903 -0.097189404 0.10575035 0.014490119 0.08065213
00000000: 4628 38bd 5871 183d 4ccd 0c3d fd51 93be
00000010: 8842 fb3d d09e 3dbd 428d 143e 1cd1 04bd
00000020: 6b24 7a3c 0d13 593d 2807 793e 0cef df3d
00000030: e172 47be 543f c53e 9968 4e3c 15b6 03be
00000040: 83ad 273d 0bd0 82bd b403 1a3e 2bbe 21bd
00000050: 87de 1bbc 088d 73bd f62d 9ebd d5c6 45bd
00000060: c3db 903e 7056 44be 1e96 843d 9025 8d3d
00000070: 504c e43c 032b 493c 5310 e1bd 42f1 d9bd
00000080: 794f 9cbd ef27 89be d81b af3d b9e0 2b3e
00000090: 1003 9fbd 127c fdbd 0233 583e b074 353b
000000a0: fab9 1cbc a40b 193e 5185 153e a0ac ebbe
000000b0: 0bba d7bd a84a b03b b53f be3d 6810 9abd
000000c0: b343 b93d 0afa 4e3e 7928 c13a 52ad 33bb
000000d0: 1858 d2ba 482d 44bc afa6 11bd 5b34 14bd
000000e0: bd5f b23d 6de2 eebd af1a 91be 55ad 9bbd
000000f0: efe0 673e e3fe b8bd d356 45bf 8087 143e
00000100: 4806 973a 7117 22be 3661 ee3d 9773 d53c
00000110: 17fe 2ebc eb78 a73e 892d 2f3d e42c 7e3d
00000120: 0d49 d8bd e162 63be 1743 0e3e 4b5c 32be
00000130: 6349 8dbd 8d61 21be ea4e a23d 5200 973e
00000140: b431 1bbd 6041 7bbe 9984 22bd 0d65 97bd
00000150: d45c 273c 6380 653e 3953 173d 955a 993c
00000160: a106 f33d 2f03 0bbd 9751 443e 4eef fc3d
00000170: cf36 013e cb8b 4c3d d517 ddbd 3729 103d
00000180: ff8f debd 6e53 c5bd 9731 163d 67dd adbd
00000190: d86a c9bd e7a1 333d 66ec 2dbc 79f5 14ba
000001a0: 3b2f c23c d227 ea3e 291a b8bd 94a8 923c
000001b0: 3644 033e 2f1d c2bb f460 7dbd 639c a0be
000001c0: 5277 493d eaf3 0bbe c24d 963d 4e29 68bd
000001d0: 9c8e 88bd a69b b73d 99d3 323e a965 313e
000001e0: 80f5 513e eded bc3d 4a7a 86bd cf5b 4dbe
000001f0: 18eb 61be a88e 2d3e f7a6 26bd 1cd2 eb3e
00000200: 2c06 e53d c5e4 bf3d 61a2 cb3b d6a0 17bd
00000210: c14b 443d e2e1 d73d d17b 49bd 4117 a93b
00000220: 5657 0ebd 757f d13c a58f 05bf 7595 163e
00000230: 0eac 313e 242f 0fbe efcb 403e 7308 c93d
00000240: 9c04 833d 0c9e b73d 1726 133e d6c8 4c3e
00000250: 5622 b63c 3828 e03d 2f26 7a3e 168b c7bd
00000260: e523 af3d 98e0 ca3d 1b22 603e 9520 a4bd
00000270: e0f4 753e 4f28 c23d b54c 673f 96d5 c5be
00000280: 87ff f4bc 322a a8bd 2bd5 5ebd f39f 023e
00000290: d6ed cf3b 3021 1fbe d0d2 713b 3f1f d6bd
000002a0: a5ec 22be d657 93bc 427f 17be acae 32bd
000002b0: b564 41be 7f45 ca3c d941 b73d ae34 1fbd
000002c0: 27aa f83c 7849 31be 8805 c13d e05a 4e3e
000002d0: a98a 05be eac4 333d a7d0 07be fa89 c03d
000002e0: 72f7 06be 2d75 0a3e 3d2c a93d 4691 9f3c
000002f0: 5e39 44bd 7496 13bd 2013 ce3d be67 49be
00000300: a01d c9bc b3e7 433e 7ebb 603d 90da 013c
00000310: 72ad dabc d8a4 74bc 372c a8bd 8eda 98bb
00000320: f05a fb3d e52a 9e3d c618 ecbd 34f0 08bd
00000330: b5e0 d4bd af8e 00be fca7 b5bd b74f d23d
00000340: d38e e13d eeac b03d da05 32be 33c5 8bbc
00000350: d64c 193e f9f2 9c3d 796b 7e3c 4347 433d
00000360: 8bb2 f43c c304 4bbc e7f0 c0be a1b1 423c
00000370: f7c5 903d 7b5c dabd 4535 59bd 6402 90be
00000380: 93aa 82be 50d8 5b3d 3941 a93c 7c31 fa3c
00000390: 3db3 0b3f ed92 013e c884 cfbc 343a bf3d
000003a0: a5bd 83be 6ed1 193d 6ca6 863d 557b f83d
000003b0: 1955 18b8 7f15 9a3d 9730 95bd d416 fcbd
000003c0: ccc4 71bd d647 433d 5e40 543e 8758 a1bd
000003d0: 35f2 58bd 94d2 ea3d 9f31 f6bd c14a da3d
000003e0: 9f99 94bd 8320 a03b 6af9 05bd 0eb4 fcbd
000003f0: 3d0b c7bd a493 d83d f767 6d3c f22c a53d

mu.bias f4 [3]
0.042266097 0.22454733 -0.010784148
00000000: 371f 2d3d bcef 653e ffaf 30bc

log_std.weight f4 [3, 256]
0.060629174 0.03240503 0.043991774 0.02546367 0.049467884 -0.034501996 -0.12674952 0.028107472
0.027529987 0.07269097 -0.0005135463 0.004785279 0.024693089 0.22444373 0.0047087627 0.0067810556
0.03278581 0.071877606 -0.027797835 0.006377617 0.07247157 0.009505843 -0.062283847 -0.028948292
0.026391754 0.054245118 0.2737202 0.008783701 -0.021440545 0.016397513 -0.18239911 -0.013971074
-0.01347579 -0.046907984 -0.010699205 -0.10336422 -0.05028203 0.013744753 -0.018966442 -0.0026829855
0.09436918 -0.003139462 -0.022944108 0.026483662 -0.0005123743 -0.014371735 0.09971028 -0.17684188
0.069382645 -0.0117763635 0.0007817888 0.0112724705 0.04398308 0.082247205 0.07876521 -0.048463106
0.024404105 0.011105369 0.0031207146 0.032630753 0.08557256 -0.07781829 0.08386258 -0.00067442446
-0.0076085036 -0.013289866 -0.02082414 -0.020239769 0.007314495 0.29795283 -0.0077917213 -0.02399387
0.029705057 0.010365692 0.026550936 -0.0019562964 0.4391305 0.03738004 0.052874226 0.17048901
-0.023304772 0.060906254 0.120173454 0.022552192 0.025094992 0.07384822 0.002974546 -0.023914004
-0.008091322 -0.08968029 0.021217855 -0.038144264 0.0039237547 -0.0089848535 0.0047636987 0.0117758345
-0.03885275 0.073689096 0.039189994 0.047132697 0.0078424765 0.08428003 -0.07322077 0.012059701
0.049682755 0.09828221 -0.023262817 -0.031691805 0.09133336 0.0052519706 0.056714214 -0.11386166
0.02309136 -0.042176936 -0.0023480204 -0.015278158 -0.02732031 0.048680197 0.006609801 0.017131278
-0.037409473 -0.00786277 0.016498387 0.22707322 -0.036628947 0.07077253 0.004559967 -0.032669164
-0.006403514 -0.0384434 0.051009838 0.021366548 0.04829671 -0.032420408 -0.0361333 -0.026971778
0.52332675 0.0064711412 0.11471883 0.044242628 -0.051647816 0.05001393 0.0111267315 0.033269588
-0.0039434596 -0.016323812 -0.009410323 0.04785319 0.030026227 0.023502868 0.014680688 0.012561187
0.20752056 0.010118257 -0.0070617506 -0.028050564 -0.029690284 0.09824466 0.14900334 0.069559574
-0.007341649 0.018658718 0.010873418 0.10230506 0.013206913 0.012289521 0.08088702 0.016714675
0.04541571 0.030263627 0.026814723 0.0011112134 0.006283198 0.041115858 0.00722334 -0.010637797
0.057253197 -0.05678713 -0.016531406 0.04433116 -0.0036124268 0.038070027 0.0034533644 -0.01878727
0.016193837 0.031240648 0.01656832 -0.029958088 -0.021163482 0.028462198 0.014325527 0.014067593
0.030659238 -0.009526917 -0.045225658 -0.02233119 0.026842618 0.0038240552 -0.049701028 0.080624625
0.017431768 0.020314908 0.07620321 -0.04015127 -0.030354494 -0.026861956 0.0067661894 -0.011561874
-0.019513693 -0.0074552502 -0.014088451 -0.00994908 0.0326046 0.012558776 0.22687557 0.013264155
-0.0050105383 0.0005773431 0.10999336 0.021638315 0.015032359 -0.0097469585 -0.016250368 0.012811615
0.06840712 0.035406314 -0.0420015 0.028754454 0.24105188 0.0071038585 -0.014850046 0.039852697
0.044538617 0.0063309865 0.05669627 0.016261183 0.02177944 -0.002710857 0.0046133744 -0.14190303
-0.06904104 -0.03289459 0.0143614905 -0.011106375 -0.07870655 0.018862054 0.01640118 3.7927013e-05
-0.06276064 -0.031446163 0.0026297823 0.02259658 -0.03371643 0.023500007 0.07519955 0.05610994
00000000: 4c56 783d 23bb 043d b830 343d 3099 d03c
00000010: d69e 4a3d f751 0dbd a0ca 01be a441 e63c
00000020: 9186 e13c 01df 943d 829f 06ba d4cd 9c3b
00000030: 2949 ca3c 94d4 653e f74b 9a3b 9e33 de3b
00000040: 6a4a 063d 9134 933d 49b8 e3bc 54fb d03b
00000050: f96b 943d 65be 1b3c 591d 7fbd f824 edbc
00000060: 8533 d83c 2130 5e3d 0e25 8c3e 83e9 0f3c
00000070: 15a4 afbc 1454 863c d5c6 3abe eee6 64bc
00000080: 8fc9 5cbc 9622 40bd b84b 2fbc 9fb0 d3bd
00000090: 88f4 4dbd ac31 613c 835f 9bbc 07d5 2fbb
000000a0: a144 c13d 6fbf 4dbb 48f5 bbbc 44f4 d83c
000000b0: db50 06ba 6d77 6bbc e734 cc3d 0a16 35be
000000c0: 7d18 8e3d a6f1 40bc f5f0 4c3a 2bb0 383c
000000d0: 9a27 343d 3971 a83d a84f a13d 4081 46bd
000000e0: 1eeb c73c 4bf3 353c e784 4c3b d3a7 053d
000000f0: ab40 af3d 325f 9fbd 25c0 ab3d dccb 30ba
00000100: c150 f9bb bdbd 59bc 6397 aabc dfcd a5bc
00000110: 6eae ef3b 468d 983e b251 ffbb cb8e c4bc
00000120: 0558 f33c ddd4 293c 5981 d93c 3535 00bb
00000130: b7d5 e03e d01b 193d a592 583d ac94 2e3e
00000140: a6e9 bebc d678 793d 801d f63d 60bf b83c
00000150: 0394 cd3c bc3d 973d 9af0 423b 4de7 c3bc
00000160: 7791 04bc 4daa b7bd 11d1 ad3c 293d 1cbd
00000170: d792 803b 3535 13bc cd18 9c3b 6eef 403c
00000180: 1024 1fbd 4fea 963d b085 203d 370e 413d
00000190: bb7d 003c 029b ac3d c5f4 95bd 0d96 453c
000001a0: 2580 4b3d 2f48 c93d aa91 bebc 44cf 01bd
000001b0: fc0c bb3d b918 ac3b 2a4d 683d 4d30 e9bd
000001c0: 182a bd3c b9c1 2cbd 3fe1 19bb 3d51 7abc
000001d0: d8ce dfbc e364 473d 0897 d83b e556 8c3c
000001e0: ad3a 19bd d9d2 00bc a027 873c e285 683e
000001f0: 3c08 16bd 30f1 903d c76b 953b 1ad0 05bd
00000200: 92d4 d1bb d476 1dbd b1ef 503d e608 af3c
00000210: c5d2 453d 43cb 04bd 8300 14bd ebf3 dcbc
00000220: bef8 053f de0b d43b b5f1 ea3d c237 353d
00000230: a98c 53bd 68db 4c3d e54c 363c b145 083d
00000240: 2338 81bb 84b9 85bc c12d 1abc b501 443d
00000250: 90f9 f53c 1689 c03c 4587 703c 70cd 4d3c
00000260: 4580 543e 0cc7 253c 4266 e7bb 4cca e5bc
00000270: 0a39 f3bc 7f34 c93d 5594 183e 4075 8e3d
00000280: 3792 f0bb 2bda 983c 6c26 323c 5185 d13d
00000290: cf61 583c fd59 493c 18a8 a53d 37ed 883c
000002a0: d305 3a3d 6deb f73c 8daa db3c 22a6 913a
000002b0: 49e3 cd3b 1a69 283d c5b1 ec3b 284a 2ebc
000002c0: 5482 6a3d 9f99 68bd df6c 87bc 9794 353d
000002d0: 77be 6cbb 51ef 1b3d d751 623b c3e7 99bc
000002e0: f0a8 843c 63ec ff3c 49ba 873c aa6a f5bc
000002f0: 0a5f adbc 8e29 e93c 9db5 6a3c c37b 663c
00000300: 1529 fb3c c916 1cbc 8a3e 39bd e6ef b6bc
00000310: 0de5 db3c 009d 7a3b 4e93 4bbd 861e a53d
00000320: 11cd 8e3c 736b a63c 6e10 9c3d a875 24bd
00000330: fda9 f8bc 9b0d dcbc e9b6 dd3b 046e 3dbc
00000340: 2edb 9fbc 2c4b f4bb 3fd3 66bc 7701 23bc
00000350: 678c 053d 53c3 4d3c 1252 683e e651 593c
00000360: 712f a4bb d758 173a 3344 e13d d642 b13c
00000370: 494a 763c b5b1 1fbc 7e1f 85bc cfe7 513c
00000380: 0819 8c3d 3606 113d c409 2cbd 768e eb3c
00000390: 4ed6 763e 7cc7 e83b 9b4d 73bc 953c 233d
000003a0: 206e 363d 2a74 cf3b 593a 683d 2c36 853c
000003b0: cc6a b23c a2a8 31bb ca2b 973b 074f 11be
000003c0: 6465 8dbd 7abc 06bd 754c 6b3c 83f7 35bc
000003d0: e630 a1bd 9884 9a3c c45b 863c d213 1f38
000003e0: a788 80bd b1cd 00bd 6d58 2c3b 771c b93c
000003f0: 3d1a 0abd 1683 c03c 3902 9a3d 89d3 653d

log_std.bias f4 [3]
-0.6703932 -0.6683142 -0.9992505
00000000: e49e 2bbf a416 2bbf e1ce 7fbf
