Hopper-v2/weights.pth (torch, 284047 bytes, 8 tensors)

hidden1.weight f4 [256, 11]
000000 95 84 83 3e 3d bf 6a 3e c2 42 f0 bd c3 51 ef bd
       0.2568709 0.22924514 -0.11731483 -0.11685517
000010 59 55 2f bd c3 6c 8f 3c 17 93 02 bd 47 82 ca bb
       -0.042806003 0.017507916 -0.031878557 -0.006180081
000020 3f a2 bd 3c f9 8d 50 3b 32 37 d2 ba b4 60 3d bd
       0.023148654 0.0031822904 -0.0016038178 -0.0462348
000030 09 2e 73 bc ce 07 13 3e db 9d 95 3d 88 54 1d be
       -0.014842519 0.14358446 0.07305499 -0.15364277
000040 05 b1 55 be 5f 23 7e 3d 14 36 22 3e b5 2b 05 be
       -0.20868309 0.06204545 0.15840942 -0.13004954
000050 3f 2d 6f bd cc 0a 6e 3c 92 da c5 bf a0 88 57 40
       -0.05839276 0.014528941 -1.5457327 3.367714
000060 43 b1 3f 3d 17 ce 7a 3e 5a d8 8b be 52 7a df 3d
       0.04679991 0.2449268 -0.273135 0.109120026
000070 6f 37 46 be 18 d6 ae 3d 0f ce 81 3e 1c 4d ef 3c
       -0.19357084 0.08536929 0.25352523 0.029211573
000080 e4 d4 fa bc 72 ed 24 be 22 29 21 c0 4b fd 08 bc
       -0.030619092 -0.16106203 -2.5181355 -0.008361171
000090 89 d3 b2 3d c1 b2 eb 3c f8 17 a0 be 98 16 29 bd
       0.087317534 0.02877176 -0.31268287 -0.041281313
0000a0 9d bc 6e 3e 8b 4f 1d be f6 b6 68 bd be 08 30 3b
       0.23314138 -0.15362374 -0.05681511 0.002686068
0000b0 6d 6b a4 be 05 2c c1 3d 68 55 84 3e fd 1b 10 3e
       -0.3211321 0.09432224 0.2584641 0.14073177
0000c0 e8 99 35 bd d2 59 45 be bf 71 d4 bd 6d ff 51 be
       -0.04433623 -0.19272545 -0.10373258 -0.20507593
0000d0 e0 36 47 3e aa 68 de 3d cf 42 0c 3d 38 ad 90 bf
       0.19454527 0.10859807 0.0342434 -1.1302862
0000e0 13 38 ff c0 3a b4 c2 be 32 b0 23 be af a0 2d 3e
       -7.975595 -0.38028127 -0.15985182 0.16955827
0000f0 b4 cb 01 bf 12 7f d4 3d 22 db 07 be a4 18 51 3e
       -0.5070145 0.10375799 -0.13267186 0.20419556
000100 9b 16 44 3e f3 bd 71 3d 85 b7 33 bf c2 5b 40 bf
       0.19149248 0.05901904 -0.70201904 -0.7514001
000110 04 19 98 3e 2a 8d 7f 3f 98 28 dd be a1 7e 3a be
       0.29706585 0.99824774 -0.43195033 -0.18212368
000120 bb b3 9e 3e a7 ee 02 3e e5 92 73 bd 3a f0 73 bd
       0.30996498 0.12786351 -0.05946626 -0.05955527
000130 3f b8 8f ba 86 75 12 bf 3e fe 06 c0 31 e2 16 3f
       -0.0010964944 -0.57210577 -2.1092677 0.5893889
000140 b7 24 b8 3f 22 ea ea be da 88 cc be 7e 44 9c 3e
       1.4386204 -0.45881754 -0.3994816 0.30521005
000150 4c 5c db bd e7 e2 08 3e 9c c3 be 3d ad 75 9e 3d
       -0.107109636 0.13367806 0.09314653 0.077372886
000160 5e 97 8e be 37 a8 12 40 b3 df c4 3f 89 5a 83 3e
       -0.2784986 2.291517 1.5380768 0.2565501
000170 47 43 e2 3e 10 f0 af bd 94 da 20 3e da e2 a4 3e
       0.44191954 -0.0859071 0.15708381 0.32204324
000180 ff 31 99 bd ca 01 d9 bd cd 4e 15 3d 2e e7 c5 3d
       -0.07480239 -0.10596044 0.036452103 0.09663235
000190 e4 a4 d0 3d 46 2a e6 3d 15 3d dd 39 8b f7 7a 3d
       0.101877004 0.11238532 0.00042197914 0.06127123
0001a0 df 45 46 bd c8 e9 89 bb f4 9d fb 3c 1a 2d 6a ba
       -0.048406478 -0.004208777 0.030714966 -0.0008933112
0001b0 34 c4 94 bb a7 e0 88 bb ea 54 20 bf bf 78 08 3f
       -0.004539991 -0.0041771713 -0.6262957 0.53309244
0001c0 89 aa ec 3d b8 f4 20 3f 5b 8e 4d bf 3b ee d0 bb
       0.115559645 0.6287341 -0.8029534 -0.0063760555
0001d0 14 b6 e1 3d ee 9f cd 3c 72 a8 2b bc 02 e5 1d 3b
       0.11021057 0.025100674 -0.010477172 0.0024092798
0001e0 a3 b1 6e 3b 94 4c 0e bf 26 33 fc 3e 16 06 5d 3e
       0.0036421798 -0.555856 0.49257773 0.21584353
0001f0 69 b8 5b be c3 8b 81 be 33 48 35 bf 67 02 12 bd
       -0.21457066 -0.25301942 -0.7081329 -0.035646822
000200 88 b0 10 be b8 50 4f 3e 79 60 1a 3e b6 f7 a0 3d
       -0.14129841 0.20245636 0.15075864 0.07859747
000210 bf 4e 90 bf 0e 27 ba bc 6c d8 8d 3f 45 00 f6 3e
       -1.1274031 -0.0227237 1.1081672 0.4804708
000220 55 0f a9 be da 15 08 bf e9 08 14 3f 1e 1a 25 3f
       -0.3301951 -0.5315834 0.57826096 0.64492977
000230 8b 35 22 bf 27 26 75 be 26 28 15 3d 02 99 55 bf
       -0.6336295 -0.23940335 0.03641524 -0.83436596
000240 05 73 c4 be 4d 52 b2 3f e6 d3 2b 3d 24 74 99 be
       -0.38369003 1.3931366 0.04195013 -0.2997142
000250 9e 9a 2d bf da a7 91 3d 0e 45 4e 3e f5 ff 9c bd
       -0.6781405 0.07112093 0.2014353 -0.076660074
000260 ba 21 4b bd 32 6a 6d 3d 02 87 bb 3d bd b3 1c 40
       -0.04959271 0.057962604 0.0915661 2.4484704
000270 da 14 02 3e 59 41 37 be d5 24 76 bc cf df 1b bd
       0.12703267 -0.17896022 -0.01502343 -0.038055237
000280 45 dd 2f bd 60 e6 69 3e 82 ab 55 bd 18 38 8d bd
       -0.04293563 0.22841787 -0.052165516 -0.06895465
000290 bf 8e 17 3c 65 0c 44 bf 28 0a 16 bf a4 8b 14 3f
       0.009250342 -0.7658141 -0.5860925 0.58025575
0002a0 c8 a8 1e 3f a9 d0 d0 3c e5 d0 22 bf 26 fb 4e 3d
       0.6197629 0.025490122 -0.636 0.050532483
0002b0 84 7a e8 3e 93 35 8f be 08 de a8 bd 57 61 3c 3d
       0.45405972 -0.2797056 -0.08245474 0.045991268
0002c0 be b3 69 3e ca 7f 01 3d a6 09 d0 3e 9e c7 46 3e
       0.22822472 0.03161601 0.4063236 0.19412085
0002d0 99 d6 8b 3d 5f 8a e2 bd f5 69 ea bc da 0d 8f 3d
       0.06828041 -0.110615484 -0.028614977 0.06985064
0002e0 a7 52 4a bd 32 80 0e bd 01 dc 38 bb 54 31 0f bf
       -0.04939523 -0.034790225 -0.0028207304 -0.55934644
0002f0 51 93 3b 3f cc 4e cd 3e 36 40 96 3c 5b ac 8b be
       0.7327166 0.4009918 0.018341165 -0.27279934
000300 74 b2 e6 be 08 11 9a 3e 7a 88 07 3e 14 95 bc bd
       -0.45058024 0.3009112 0.13235655 -0.09208122
000310 88 92 e7 3c 43 5a d6 3c 2a 0d 24 bf 8a 59 8d 3d
       0.028268114 0.026166087 -0.64082587 0.06901844
000320 9f de bc 3f c3 d2 a9 3e 18 49 26 3e df 4b 16 be
       1.4755439 0.3316861 0.1623882 -0.1467738
000330 90 b9 8b bd c2 97 a5 be ac 51 b1 3e 02 50 4d 3e
       -0.068225026 -0.32342345 0.34632623 0.20050052
000340 28 fb f7 3c d0 0c b8 3d 3b 1d 0a 3f 3b e8 14 be
       0.030271128 0.08986819 0.5395085 -0.14541714
000350 39 76 c2 3e d6 9e fd ba 43 db c5 be 76 c4 65 3e
       0.37980822 -0.0019349705 -0.38643846 0.22438225
000360 37 73 40 3e 6f 87 d3 bd 4e 12 a5 bc b3 33 77 bd
       0.18793951 -0.10328566 -0.02015033 -0.06035204
000370 4f b1 cd bf 87 29 4a 40 1b df 0b 3f 9f 44 0d 3f
       -1.6069735 3.1587846 0.54637307 0.5518283
000380 74 60 28 3e e7 10 92 be af 12 63 bc b6 2c 85 3e
       0.16443044 -0.2852852 -0.013859435 0.26010674
000390 ae 4b 45 bd 3c 52 8a 3d b4 1e af 3d 9d 82 b8 bd
       -0.048167877 0.06753966 0.08550778 -0.090092875
0003a0 18 c3 c2 3f 2e ab 1a 3f 04 cd 65 3e 57 70 ce 3d
       1.5215788 0.6041745 0.22441489 0.10080021
0003b0 c0 7f 65 bc a3 b0 e5 3b dd 77 c0 3c dc 7c 62 bc
       -0.014007509 0.007009582 0.023494655 -0.013823714
0003c0 e9 69 4a bc a5 c1 05 bc aa b2 43 bf 32 75 6d be
       -0.0123543525 -0.008163844 -0.76444495 -0.23189238
0003d0 f1 9a 22 3e 97 67 ba 3d c5 4e a6 be 00 29 2a bf
       0.15879418 0.091017894 -0.3248197 -0.6646881
0003e0 34 bf a8 3d f0 0d f1 3e 38 97 88 be 7f 04 8f bd
       0.08239594 0.47080946 -0.2667787 -0.069832794
0003f0 eb 33 89 3d 49 e9 db ba e3 f6 f8 3f 05 8c 29 3e
       0.06699356 -0.0016777898 1.9450344 0.1655732

hidden1.bias f4 [256]
000000 44 59 d9 be 58 bc ac be 3c 37 d6 be ed df ec be
       -0.42450917 -0.33737445 -0.41839015 -0.46264592
000010 fd ab 04 bf bc 65 b2 bf 1b 66 91 be 4e dc 60 bf
       -0.51824933 -1.3937297 -0.28398213 -0.8783616
000020 73 8b b6 be 1c a1 9f b9 d1 0b 86 be d5 d7 7c bf
       -0.35653266 -0.0003044688 -0.2618089 -0.98766834
000030 2e b3 18 bf 33 58 d7 be 8b e3 e5 be 3e 32 55 be
       -0.59648407 -0.42059478 -0.44900164 -0.20819947
000040 dc b6 05 be ae ea 13 bf f2 3c db be d8 bf 0e bf
       -0.13058037 -0.5777997 -0.42819935 -0.5576148
000050 6b b5 e7 be b1 7c c8 be 2a d8 05 bf 7a fa 5d bf
       -0.45255598 -0.39157632 -0.52282965 -0.8671032
000060 94 2b 38 bf 89 14 8f be 1f 2b db be bf b3 c3 bd
       -0.71941495 -0.27945355 -0.42806336 -0.09555768
000070 43 ff e0 be e1 86 47 bf 6b da 02 bf e7 c7 cf be
       -0.4394475 -0.77940184 -0.5111453 -0.405822
000080 b9 55 2a bf ea 85 5a bf 77 a2 ed bd 6d 02 de be
       -0.6653705 -0.85360587 -0.11603253 -0.43361226
000090 0c 62 06 bf 6f 22 34 be 2c a4 08 be 12 87 25 bf
       -0.5249336 -0.1759126 -0.13343877 -0.64659226
0000a0 65 a4 30 be 6b 50 28 bf c8 27 4b bf ba 30 76 be
       -0.17250212 -0.6574771 -0.79357576 -0.24042025
0000b0 ae ec 30 bf 30 48 64 bf ff 08 c0 be e8 3a a6 be
       -0.69111145 -0.8917265 -0.37506863 -0.32466817
0000c0 a8 d4 91 be c4 6b cf bd ad f8 05 bf d5 dc 4f be
       -0.28482556 -0.101279765 -0.52332574 -0.20299084
0000d0 53 45 a5 be 23 0e 8e bf e5 35 ed be b0 ff 3e bf
       -0.32279453 -1.1098064 -0.4633018 -0.746089
0000e0 eb 09 b2 bf c5 7e d4 bc ac 06 da be d8 8f 23 bf
       -1.3909277 -0.025939355 -0.42583215 -0.63891363
0000f0 d8 f6 06 bf 40 46 25 bf 8c 48 44 be 4e 7a d5 bd
       -0.52720404 -0.6456032 -0.191683 -0.104237184
000100 53 43 6f bf ca 00 9c be e7 88 13 be 0b 62 5a bf
       -0.93462104 -0.30469352 -0.14407693 -0.8530585
000110 cf 84 88 be f1 ad 81 bd 34 5a fc be cf bb 26 bf
       -0.26663825 -0.06332005 -0.4928757 -0.65130323
000120 ca b0 13 bf 30 22 3e be 4a 6c 15 bf 74 48 01 bf
       -0.57691634 -0.18567729 -0.5836836 -0.5050118
000130 79 e0 14 bf a9 a1 bc be d9 88 00 bf d6 4a 3b be
       -0.5815502 -0.36842087 -0.5020881 -0.18290266
000140 bf d5 95 be 33 06 0d bf 93 18 0f bf 3d 88 e0 be
       -0.29264638 -0.55087584 -0.5589687 -0.43853942
000150 8d f4 0d bf 76 04 d9 be 17 49 97 be 8e ee 26 bf
       -0.5545128 -0.42386216 -0.2954795 -0.65207756
000160 8e 0b 23 be 0a 22 04 bf 30 93 a3 bf 9c 39 bb be
       -0.15922377 -0.5161444 -1.2779293 -0.3656739
000170 47 b0 15 bf 46 27 41 be 84 7e 1f bf 15 42 fd be
       -0.584721 -0.18862638 -0.6230242 -0.4946448
000180 a3 c5 7f bf a4 b3 f2 3d 18 60 e3 be 5c 8b 80 be
       -0.99910945 0.1185067 -0.4440925 -0.25106323
000190 92 ce da be fc a2 08 bf ce 0b f2 be c2 9f 8b be
       -0.42735726 -0.53373694 -0.4727463 -0.27270323
0001a0 f2 a0 da be 50 ef ab be 3b 92 ec be 96 41 87 be
       -0.42700917 -0.33581018 -0.46205315 -0.26417226
0001b0 40 7d 8a be 1d 32 15 bf c5 99 10 bf 10 36 11 bf
       -0.27048683 -0.5827959 -0.56484634 -0.5672312
0001c0 ad 63 57 be 86 c1 fc be 75 69 7c bd a1 e2 75 be
       -0.21034117 -0.49366397 -0.06162401 -0.24012233
0001d0 b5 a8 b3 bf 36 e5 88 3d 6f b5 47 bf e4 ec 80 be
       -1.403586 0.066843435 -0.7801122 -0.25180733
0001e0 c2 a0 32 bf 8e 2f 13 bf d3 3a a0 be 3b b2 e9 be
       -0.69776547 -0.5749444 -0.3129488 -0.45643792
0001f0 84 6c 37 bf b5 21 80 bf 00 b9 3c be 99 f3 fe bc
       -0.71649957 -1.0010287 -0.18429947 -0.031122016
000200 a4 36 c2 be 5d 4e eb be 71 fe f6 be 03 41 46 3d
       -0.37932312 -0.45958224 -0.48240998 0.048401844
000210 6d 5f 95 be f1 92 04 bf 10 c4 44 bf 35 d6 05 bf
       -0.29174367 -0.51786715 -0.7686167 -0.5227998
000220 0d 9d 14 bf 70 08 48 bd bd a9 d8 be 9f a8 91 be
       -0.5805214 -0.04883617 -0.42317 -0.2844896
000230 f1 26 b1 be 8b e0 82 bf a8 a3 0e bf ca 84 6e be
       -0.34600022 -1.0224775 -0.5571847 -0.23292843
000240 42 08 77 bf 86 aa 00 bf 83 f4 a9 be 2d 5b 02 bf
       -0.96496975 -0.502602 -0.3319436 -0.50920373
000250 57 79 15 bf 3c bf b2 be 70 0f 28 bf 85 63 fc be
       -0.58388275 -0.34911525 -0.65648556 -0.49294677
000260 7c 32 f6 be 11 66 f5 be f5 eb ca be b6 3a 24 bf
       -0.48085392 -0.47929433 -0.39633146 -0.64152086
000270 07 98 f7 be 93 f4 b7 be 44 e5 b1 be 7a 00 5e bf
       -0.48358175 -0.35928783 -0.34745228 -0.8671948
000280 46 a8 28 bd 10 6d 80 bf 7f 61 90 be c1 88 b6 be
       -0.041176103 -1.0033283 -0.28199384 -0.3565121
000290 7a 3f 49 be 2a e9 b1 be c6 e7 a3 be c3 2a a5 be
       -0.1965312 -0.34748203 -0.32012767 -0.32259187
0002a0 11 74 8e be 94 04 7e be 7b 43 78 be 91 a5 38 bf
       -0.27822927 -0.24806434 -0.24244492 -0.72127634
0002b0 0c 2b da be 30 f9 c2 be 8c a1 40 be 3a 3e 73 bf
       -0.42610967 -0.3808074 -0.18811625 -0.95016825
0002c0 b0 98 b3 be ad da 98 bb 8a bf 79 bf ad 6d 1c bf
       -0.3507743 -0.00466474 -0.9755789 -0.6110485
0002d0 9e 5b f0 be d6 ce f6 bd 0b e6 ca be 57 e6 a5 be
       -0.46944898 -0.120511696 -0.39628634 -0.32402298
0002e0 4e 3e 01 bf 25 22 3c bd 34 b5 81 bf 16 49 cf be
       -0.50485694 -0.045931 -1.0133424 -0.40485448
0002f0 68 bf d9 be bb 0c 03 bf de 31 b3 3a 16 40 0b bf
       -0.42528844 -0.511913 0.0013671478 -0.5439466
000300 2e d1 f3 be e6 e2 17 be 50 f5 f5 be d9 87 10 c0
       -0.4762053 -0.14832649 -0.4803872 -2.2582915
000310 83 f5 40 bf b5 ac 10 bf 19 e6 f3 be bf 7b e0 be
       -0.7537462 -0.5651353 -0.47636488 -0.4384441
000320 bb c1 86 be 4f f2 0b bf e4 2f 05 bf 52 33 0f bf
       -0.2631968 -0.5466661 -0.520262 -0.55937684
000330 bd 4a f0 be bc ec 33 bf dc dc 9d be 85 0c 9c be
       -0.4693202 -0.70283103 -0.30832565 -0.30478302
000340 d3 b7 6f bf e5 7f 55 bc 25 15 a6 be 6d 00 5a bd
       -0.9363987 -0.013030981 -0.32438007 -0.053223062
000350 d4 5f 88 bc f1 04 96 bf 2f 55 88 be c2 05 b1 bf
       -0.016647257 -1.1720258 -0.2662749 -1.3829882
000360 d8 72 8d be 57 4d 43 bf 2a dd 53 bf 3f 19 2c bf
       -0.2762668 -0.76289886 -0.82759345 -0.6722602
000370 c3 11 12 bf ed 58 2b bd 4f 42 3c 3d 49 d7 b0 be
       -0.5705835 -0.041832853 0.045961674 -0.3453925
000380 3b c1 f6 be 64 e6 b4 be 89 76 61 bf 42 92 4b bf
       -0.48194298 -0.35332024 -0.88071495 -0.79520047
000390 67 c2 33 bf 8f d6 04 bf ee b4 b8 be e6 f7 19 3c
       -0.7021851 -0.5188989 -0.36075538 0.0093974825
0003a0 7c 25 1f bf a0 f8 20 bf 67 d9 27 be 93 6f b6 be
       -0.6216657 -0.6287937 -0.16391526 -0.35632
0003b0 d6 a3 02 bf 24 bf e7 be 47 d2 9e bf 9c 80 bc bd
       -0.51031244 -0.45263016 -1.2407922 -0.09204218
0003c0 c6 99 af be 87 eb 0f be 18 8b c9 bd a8 c2 5e bd
       -0.34297007 -0.1405469 -0.09840983 -0.054384857
0003d0 6d f4 18 bf c1 85 8f be 76 2b 9b be 36 12 8f bc
       -0.59747964 -0.28031734 -0.30306596 -0.017464738
0003e0 72 95 45 bf ce a9 2c be ac 10 e4 be c6 26 17 bf
       -0.7718116 -0.1686165 -0.4454397 -0.5904354
0003f0 b4 df 44 bf 00 8b b5 bd 77 37 e6 be b0 e1 a5 bf
       -0.76903844 -0.08864403 -0.4496419 -1.2959499

hidden2.weight f4 [256, 256]
000000 78 7c d0 bc 8c 23 47 bd e0 fc 3a 3d 4c 86 f4 bd
       -0.025449976 -0.048617885 0.045651317 -0.119396776
000010 82 2b b9 bc 70 3e 13 bd 33 a4 3b bd 9a 94 97 3d
       -0.022603754 -0.035948217 -0.04581089 0.074013904
000020 7d d9 7e bc 35 18 8b bd 29 70 38 bd f3 ad 80 3d
       -0.015554783 -0.067917265 -0.04502884 0.06283178
000030 66 63 48 be 3d 62 a2 3d 10 5d bd 3d c6 4f 65 ba
       -0.19569167 0.07928894 0.09246266 -0.0008747544
000040 26 62 cc bc 6e 83 b9 3d 54 be cc bc 40 62 95 bd
       -0.024949145 0.09058271 -0.0249931 -0.0729413
000050 cd 7a 03 bd 3d e6 01 bc 15 b5 b4 bd a5 16 0b 3e
       -0.032099534 -0.007928428 -0.08823601 0.13582857
000060 c5 81 6f bd 8b 75 20 3d d4 48 3c 3c 6c f9 7e 3d
       -0.058473367 0.039174598 0.011491973 0.062249586
000070 2e 80 f1 3d a1 65 f5 ba f1 f5 3c 3b 40 7e c3 3d
       0.117920265 -0.0018722304 0.0028833116 0.09545565
000080 ea 99 b0 3b 5b e1 ef 3d 8e 00 ed 3d cc 7e 73 bd
       0.0053894417 0.11712905 0.115723714 -0.059447095
000090 65 5e 8f 3d 43 06 b3 3d 4d d0 8e 3d 8b 39 a0 3d
       0.07000426 0.08741429 0.06973324 0.078234755
0000a0 c7 76 4c 3d bf 38 08 bd 3f fe 68 3d 41 70 bf bd
       0.049917962 -0.033257242 0.056883093 -0.093475826
0000b0 9c 6e 26 be e4 57 50 3d b4 f7 80 bd aa a0 8b 3c
       -0.16253132 0.05086507 -0.062972456 0.017044384
0000c0 c6 d2 dc 3a 8a 36 f3 3d 47 2e ac bd 09 0c 59 3c
       0.0016847483 0.11875637 -0.08407264 0.013247498
0000d0 a0 42 f7 3c 45 eb a4 3c 33 e9 54 3d 50 ee 66 bd
       0.030183136 0.020131717 0.05198021 -0.056379616
0000e0 5a 69 17 3d 65 d7 8b 3b fc 83 ca 3d d3 41 c6 3d
       0.036965705 0.0042676204 0.09888455 0.09680524
0000f0 6f 66 87 3d 31 90 45 bc 54 cc 7d bd b5 e0 2f be
       0.066113345 -0.012058304 -0.06196244 -0.17175563
000100 7f a4 e3 3d b9 98 21 be b5 34 ba bd a2 e9 a3 bd
       0.111153595 -0.15780915 -0.09092084 -0.08003546
000110 f9 eb 8b 3d 46 b7 37 3d 2d 23 d0 bd 93 7a 3e bd
       0.068321176 0.044852518 -0.10162959 -0.046503615
000120 b3 2c e5 3c 04 0d 2a 3e 1b db 7f 3d 0d c0 a8 3d
       0.027975416 0.16606528 0.062464815 0.08239756
000130 38 75 c3 3d 35 31 e3 bd 6d f3 72 bd 67 99 b7 bd
       0.09543842 -0.1109337 -0.05931418 -0.08964806
000140 da ce 4e 3e 2b c4 0c bc df e8 51 3c ee b4 1a 3d
       0.20196095 -0.008591692 0.012811868 0.037770204
000150 93 b8 fc bc 68 6f d4 bd 01 ee 78 bd bc a5 2a 3c
       -0.03084973 -0.103728116 -0.060773853 0.010415491
000160 0e aa bd 3c 85 f0 8e 3d ae 87 66 bd 2f c6 89 bd
       0.023152377 0.06979469 -0.056281738 -0.06727254
000170 80 a6 80 bc 51 c7 5f 3d b8 19 ff 3d 82 96 95 3d
       -0.015704393 0.054633442 0.12456077 0.07304098
000180 3e 46 3a bd 33 6f bc 3d 0b 10 a7 3d d2 ce 53 3e
       -0.045477144 0.09200897 0.08157357 0.20684364
000190 36 ba 25 3d 22 79 1e 3c 21 51 26 3d 10 51 93 3d
       0.040460788 0.009672435 0.040604714 0.07193196
0001a0 90 2c 41 3c 76 1b ba bd 3a 34 db bd c7 b8 8d 3d
       0.01179041 -0.09087269 -0.10703321 0.06920009
0001b0 86 d8 80 bd 63 87 00 be df ef 90 bd 49 46 08 bd
       -0.062912986 -0.12551646 -0.07077002 -0.033270154
0001c0 86 ed d2 bc 69 0e a1 3c ff 56 ed 3d c2 d6 1d 3c
       -0.025748026 0.019660192 0.11588859 0.009633722
0001d0 ca 6f ce bd 39 0a c5 3a 3f 78 7f bc d7 6f e5 3d
       -0.10079916 0.0015032954 -0.015592634 0.112029724
0001e0 4e 74 f5 bc 74 05 1e 3e bc ab 7f 3d 7a a2 3d 3d
       -0.029962685 0.15431768 0.062419638 0.046297528
0001f0 9b 1e 56 bd 6c 7b c3 3c 8c 94 ea bb 17 a0 d4 bd
       -0.05227528 0.023862563 -0.0071588214 -0.10382097
000200 33 fc 9e 3d 7e 30 91 3c c0 af e6 3d 4d c3 f9 bb
       0.07762947 0.017723318 0.112639904 -0.0076221586
000210 74 bb c9 bd 34 14 e7 bd eb 43 e5 bc 87 86 9e 3d
       -0.09850207 -0.1128315 -0.027986487 0.07740503
000220 b6 80 a3 bd 09 4f 9c bd 19 43 4c 3d e9 36 f1 bc
       -0.07983534 -0.07632262 0.049868677 -0.029445129
000230 8a 0f 07 be 22 5e 5b bd f5 07 a3 bb 63 ad 99 3d
       -0.13189521 -0.05355657 -0.004975314 0.07503774
000240 de dd 07 bc 13 ff 6d 3d 1c 84 f9 bd df 94 7c bc
       -0.008292643 0.058104586 -0.12183401 -0.015416353
000250 de bb 97 3d c2 a4 d3 3d 12 97 03 bd ad b1 1e 3e
       0.0740888 0.103341594 -0.032126494 0.15497465
000260 16 b6 19 bd 4b 71 3a bd e8 bd d6 3d 64 52 4c 3d
       -0.037527166 -0.0455182 0.104854405 0.04988326
000270 9d 1d 6e 3d 8d af bc bd 24 17 a5 3c 37 99 eb bc
       0.05813371 -0.09213171 0.020152636 -0.028759582
000280 93 07 cc 3b c4 e7 5f bd da b5 5b 3e 04 e7 e5 ba
       0.006226489 -0.05466439 0.2145609 -0.0017540161
000290 bd 14 94 3c ae 77 7b bc e8 d9 e5 3d 33 a6 19 bd
       0.018076295 -0.015348358 0.11223203 -0.037512016
0002a0 47 7a d7 3b 95 7b 8c 3c 47 a3 b0 bd 4c 19 ce 3c
       0.006575856 0.017148772 -0.08624893 0.025158547
0002b0 4d 56 04 be 5b 8d 0e be 02 e9 de bd 01 d4 a3 bd
       -0.12923546 -0.1392111 -0.108842865 -0.07999421
0002c0 a5 7f fd 3c 97 89 86 bd e6 91 05 bd 7d 17 04 3e
       0.030944655 -0.06569212 -0.032609843 0.12899585
0002d0 36 ed eb bd 3a e3 63 3e d7 5a ad bd 4f 1a a6 bd
       -0.11519854 0.22254649 -0.08464592 -0.08110487
0002e0 65 c2 53 3d ac a3 b6 bd 9b a5 e1 bd 83 0c 48 3d
       0.05169906 -0.08917937 -0.11017915 0.048840057
0002f0 47 10 9e bd 80 f8 bc 3d a9 d8 0c be cd 4b 1f bc
       -0.077179484 0.09227085 -0.13754524 -0.009722662
000300 69 2a 33 3e 7e 82 bd 3c 20 8a fb 3d 36 3b 84 3d
       0.17496647 0.023133513 0.12282205 0.06456606
000310 96 f3 ac 3d 67 22 d4 3d cb ee 3f 3d ce 8b 29 3d
       0.08444898 0.10358124 0.04685859 0.041393094
000320 af 36 2d 3e c6 bb fd 3d ff 46 c1 3c 50 ce 9f 3d
       0.16915391 0.123893306 0.023593424 0.07803023
000330 51 c4 1f be 2a d0 b2 3d 02 0b ae bd 7e 8c e9 3d
       -0.15602233 0.087311104 -0.08498193 0.1140375
000340 01 8b 3a bd 38 49 47 3d 45 42 7c 3d 4c e9 80 3b
       -0.04554272 0.04865381 0.061586637 0.003934061
000350 dc 32 12 3e 27 9e 6c 3d 0b b7 f6 3d 38 e5 1e bd
       0.14277214 0.057768013 0.120466314 -0.03879282
000360 d2 36 a7 bc 2a 95 89 3d e8 31 f6 3c 20 d0 5f bd
       -0.020411883 0.06717904 0.030053094 -0.054641843
000370 cc a6 a6 bd 97 c2 0d 3e eb 50 7d 3d 2e 9d 9f 3c
       -0.08137283 0.13843761 0.061844748 0.019484129
000380 9d 65 17 bd a9 46 d6 3d 86 73 46 3d 09 55 28 bd
       -0.03696214 0.10462696 0.048450015 -0.04109672
000390 9d a0 11 3e d9 5b d3 bc 72 7d 9a bd 86 e7 d6 bd
       0.14221425 -0.025800632 -0.07543458 -0.10493378
0003a0 8e 5e e2 bd 72 83 08 bd 28 d1 92 bd 04 4f 24 3e
       -0.11053191 -0.03332848 -0.071688 0.16045767
0003b0 d7 22 5b be 9a ef 0a 3e 27 51 cf 3d 12 45 82 bc
       -0.21400009 0.13567963 0.101229005 -0.015902076
0003c0 1a f0 9a 3b 22 ce 9f bc 9d a2 28 3d a5 c6 91 3d
       0.0047283294 -0.019507471 0.041170705 0.071179666
0003d0 85 47 1e 3c a5 62 83 3d 09 6d 8e bd c7 6c 5f bd
       0.009660606 0.06415299 -0.069543906 -0.054547098
0003e0 40 04 64 bd e6 54 e9 3c aa 5a aa bd 45 29 48 3d
       -0.055668116 0.028482866 -0.08318074 0.048867483
0003f0 4b 9a 2f 3e 6d 3c 04 3e ee f8 81 bd 79 d6 0d 3d
       0.17148702 0.12913676 -0.06346308 0.034628365

hidden2.bias f4 [256]
000000 00 00 00 00 00 00 00 00 00 00 00 00 00 00 00 00
       0.0 0.0 0.0 0.0
000010 00 00 00 00 00 00 00 00 00 00 00 00 00 00 00 00
       0.0 0.0 0.0 0.0
000020 00 00 00 00 00 00 00 00 00 00 00 00 00 00 00 00
       0.0 0.0 0.0 0.0
000030 00 00 00 00 00 00 00 00 00 00 00 00 00 00 00 00
       0.0 0.0 0.0 0.0
000040 00 00 00 00 00 00 00 00 00 00 00 00 00 00 00 00
       0.0 0.0 0.0 0.0
000050 00 00 00 00 00 00 00 00 00 00 00 00 00 00 00 00
       0.0 0.0 0.0 0.0
000060 00 00 00 00 00 00 00 00 00 00 00 00 00 00 00 00
       0.0 0.0 0.0 0.0
000070 00 00 00 00 00 00 00 00 00 00 00 00 00 00 00 00
       0.0 0.0 0.0 0.0
000080 00 00 00 00 00 00 00 00 00 00 00 00 00 00 00 00
       0.0 0.0 0.0 0.0
000090 00 00 00 00 00 00 00 00 00 00 00 00 00 00 00 00
       0.0 0.0 0.0 0.0
0000a0 00 00 00 00 00 00 00 00 00 00 00 00 00 00 00 00
       0.0 0.0 0.0 0.0
0000b0 00 00 00 00 00 00 00 00 00 00 00 00 00 00 00 00
       0.0 0.0 0.0 0.0
0000c0 00 00 00 00 00 00 00 00 00 00 00 00 00 00 00 00
       0.0 0.0 0.0 0.0
0000d0 00 00 00 00 00 00 00 00 00 00 00 00 00 00 00 00
       0.0 0.0 0.0 0.0
0000e0 00 00 00 00 00 00 00 00 00 00 00 00 00 00 00 00
       0.0 0.0 0.0 0.0
0000f0 00 00 00 00 00 00 00 00 00 00 00 00 00 00 00 00
       0.0 0.0 0.0 0.0
000100 00 00 00 00 00 00 00 00 00 00 00 00 00 00 00 00
       0.0 0.0 0.0 0.0
000110 00 00 00 00 00 00 00 00 00 00 00 00 00 00 00 00
       0.0 0.0 0.0 0.0
000120 00 00 00 00 00 00 00 00 00 00 00 00 00 00 00 00
       0.0 0.0 0.0 0.0
000130 00 00 00 00 00 00 00 00 00 00 00 00 00 00 00 00
       0.0 0.0 0.0 0.0
000140 00 00 00 00 00 00 00 00 00 00 00 00 00 00 00 00
       0.0 0.0 0.0 0.0
000150 00 00 00 00 00 00 00 00 00 00 00 00 00 00 00 00
       0.0 0.0 0.0 0.0
000160 00 00 00 00 00 00 00 00 00 00 00 00 00 00 00 00
       0.0 0.0 0.0 0.0
000170 00 00 00 00 00 00 00 00 00 00 00 00 00 00 00 00
       0.0 0.0 0.0 0.0
000180 00 00 00 00 00 00 00 00 00 00 00 00 00 00 00 00
       0.0 0.0 0.0 0.0
000190 00 00 00 00 00 00 00 00 00 00 00 00 00 00 00 00
       0.0 0.0 0.0 0.0
0001a0 00 00 00 00 00 00 00 00 00 00 00 00 00 00 00 00
       0.0 0.0 0.0 0.0
0001b0 00 00 00 00 00 00 00 00 00 00 00 00 00 00 00 00
       0.0 0.0 0.0 0.0
0001c0 00 00 00 00 00 00 00 00 00 00 00 00 00 00 00 00
       0.0 0.0 0.0 0.0
0001d0 00 00 00 00 00 00 00 00 00 00 00 00 00 00 00 00
       0.0 0.0 0.0 0.0
0001e0 00 00 00 00 00 00 00 00 00 00 00 00 00 00 00 00
       0.0 0.0 0.0 0.0
0001f0 00 00 00 00 00 00 00 00 00 00 00 00 00 00 00 00
       0.0 0.0 0.0 0.0
000200 00 00 00 00 00 00 00 00 00 00 00 00 00 00 00 00
       0.0 0.0 0.0 0.0
000210 00 00 00 00 00 00 00 00 00 00 00 00 00 00 00 00
       0.0 0.0 0.0 0.0
000220 00 00 00 00 00 00 00 00 00 00 00 00 00 00 00 00
       0.0 0.0 0.0 0.0
000230 00 00 00 00 00 00 00 00 00 00 00 00 00 00 00 00
       0.0 0.0 0.0 0.0
000240 00 00 00 00 00 00 00 00 00 00 00 00 00 00 00 00
       0.0 0.0 0.0 0.0
000250 00 00 00 00 00 00 00 00 00 00 00 00 00 00 00 00
       0.0 0.0 0.0 0.0
000260 00 00 00 00 00 00 00 00 00 00 00 00 00 00 00 00
       0.0 0.0 0.0 0.0
000270 00 00 00 00 00 00 00 00 00 00 00 00 00 00 00 00
       0.0 0.0 0.0 0.0
000280 00 00 00 00 00 00 00 00 00 00 00 00 00 00 00 00
       0.0 0.0 0.0 0.0
000290 00 00 00 00 00 00 00 00 00 00 00 00 00 00 00 00
       0.0 0.0 0.0 0.0
0002a0 00 00 00 00 00 00 00 00 00 00 00 00 00 00 00 00
       0.0 0.0 0.0 0.0
0002b0 00 00 00 00 00 00 00 00 00 00 00 00 00 00 00 00
       0.0 0.0 0.0 0.0
0002c0 00 00 00 00 00 00 00 00 00 00 00 00 00 00 00 00
       0.0 0.0 0.0 0.0
0002d0 00 00 00 00 00 00 00 00 00 00 00 00 00 00 00 00
       0.0 0.0 0.0 0.0
0002e0 00 00 00 00 00 00 00 00 00 00 00 00 00 00 00 00
       0.0 0.0 0.0 0.0
0002f0 00 00 00 00 00 00 00 00 00 00 00 00 00 00 00 00
       0.0 0.0 0.0 0.0
000300 00 00 00 00 00 00 00 00 00 00 00 00 00 00 00 00
       0.0 0.0 0.0 0.0
000310 00 00 00 00 00 00 00 00 00 00 00 00 00 00 00 00
       0.0 0.0 0.0 0.0
000320 00 00 00 00 00 00 00 00 00 00 00 00 00 00 00 00
       0.0 0.0 0.0 0.0
000330 00 00 00 00 00 00 00 00 00 00 00 00 00 00 00 00
       0.0 0.0 0.0 0.0
000340 00 00 00 00 00 00 00 00 00 00 00 00 00 00 00 00
       0.0 0.0 0.0 0.0
000350 00 00 00 00 00 00 00 00 00 00 00 00 00 00 00 00
       0.0 0.0 0.0 0.0
000360 00 00 00 00 00 00 00 00 00 00 00 00 00 00 00 00
       0.0 0.0 0.0 0.0
000370 00 00 00 00 00 00 00 00 00 00 00 00 00 00 00 00
       0.0 0.0 0.0 0.0
000380 00 00 00 00 00 00 00 00 00 00 00 00 00 00 00 00
       0.0 0.0 0.0 0.0
000390 00 00 00 00 00 00 00 00 00 00 00 00 00 00 00 00
       0.0 0.0 0.0 0.0
0003a0 00 00 00 00 00 00 00 00 00 00 00 00 00 00 00 00
       0.0 0.0 0.0 0.0
0003b0 00 00 00 00 00 00 00 00 00 00 00 00 00 00 00 00
       0.0 0.0 0.0 0.0
0003c0 00 00 00 00 00 00 00 00 00 00 00 00 00 00 00 00
       0.0 0.0 0.0 0.0
0003d0 00 00 00 00 00 00 00 00 00 00 00 00 00 00 00 00
       0.0 0.0 0.0 0.0
0003e0 00 00 00 00 00 00 00 00 00 00 00 00 00 00 00 00
       0.0 0.0 0.0 0.0
0003f0 00 00 00 00 00 00 00 00 00 00 00 00 00 00 00 00
       0.0 0.0 0.0 0.0

mu.weight f4 [3, 256]
000000 d3 ef 0e be f5 2e 06 be e6 ff db bd 49 c0 cf bc
       -0.13958673 -0.1310385 -0.10742168 -0.025360243
000010 1e b9 17 3d b6 c4 93 bb bf 9a c8 3d ba bb 53 be
       0.037041776 -0.0045095338 0.097951405 -0.20677081
000020 39 33 8f be 09 40 32 be 87 6f 6d bd c8 4d 8b 3d
       -0.27968767 -0.1740724 -0.05796769 0.06801945
000030 71 42 ec 3d 9a 5c 08 3d 7a 73 07 bd 4b 31 c0 b8
       0.1153611 0.033291437 -0.03306911 -9.164455e-05
000040 0e a7 5c bc b6 81 c0 bc f9 10 55 bc 50 10 ab bd
       -0.013467563 -0.023499351 -0.013004535 -0.08352721
000050 f2 f7 a0 3d 41 ab 01 3d 3d ac 29 be 01 c6 a7 3c
       0.07859792 0.03165746 -0.1656961 0.020480158
000060 6a 81 88 bd bb a6 95 bd 80 1f 31 3e f1 00 15 3d
       -0.06665309 -0.07307192 0.17297173 0.03637785
000070 89 fc 5d 3e 8c e9 00 bd 89 6e cd 3d 78 41 9c 3d
       0.21678366 -0.031472728 0.100308485 0.07629675
000080 79 e2 22 3c 35 27 67 3c 77 38 0b 3f 09 f1 e5 bb
       0.009941691 0.014108469 0.54383034 -0.007017259
000090 73 31 07 bf 2d e4 64 3c d2 75 13 be c4 28 e2 3d
       -0.5280983 0.013970417 -0.14400414 0.11042932
0000a0 47 c1 05 3b 64 64 1b 3e 73 81 0b be cb b6 d3 bd
       0.0020409392 0.15175015 -0.136236 -0.10337599
0000b0 04 ee a9 3e b4 f0 87 bc 7a 2e 68 3c db ae 9d bb
       0.33189404 -0.016594268 0.014171237 -0.004812104
0000c0 fa bd 09 3d 68 30 ef bd e8 cb b0 3b dd 60 40 3e
       0.03362844 -0.11679155 0.0053954013 0.1878695
0000d0 72 76 15 3c 20 47 b4 bd de d3 c0 bd d4 fe e4 bd
       0.009122478 -0.088026285 -0.094154105 -0.11181417
0000e0 30 55 99 3e ba d3 54 bc 7b 43 f4 3e c6 28 50 bc
       0.29947805 -0.012989933 0.47707734 -0.012705034
0000f0 d7 ba 10 3c d8 17 6b 3e 47 5c 63 3e e1 f3 32 bd
       0.008833609 0.22958314 0.2220317 -0.043689612
000100 59 48 ad bc c2 e1 c3 bc 12 d2 5f bc e6 0f b6 bd
       -0.021152662 -0.02391136 -0.0136609245 -0.08889751
000110 a8 50 59 be 08 f1 ee 3c c8 7a 1d bb 3a d1 f2 bd
       -0.21222174 0.029167667 -0.0024029482 -0.11856313
000120 5c 9a cb 3c fc 71 54 bd c8 a1 2b be e8 b5 1d 3d
       0.024853878 -0.051866516 -0.16760933 0.038503557
000130 6f f3 2d b9 9c 53 4a 3d e4 f7 f9 3b c4 3a 29 be
       -0.00016589252 0.049396142 0.007628428 -0.16526324
000140 dc 41 16 3d 05 57 25 3e a3 8d 71 be 50 7d 02 bd
       0.036683902 0.16146477 -0.23589186 -0.03185779
000150 5b 10 44 3d 13 c3 2c be 3a ba c7 be 5b ae d3 3c
       0.04786716 -0.1687129 -0.39009267 0.025839975
000160 db 47 a5 3d 8f 14 d5 ba 7e ca 5a 3c 8f 05 51 bd
       0.08070346 -0.0016256737 0.013353942 -0.05103069
000170 f8 0f a8 bd a4 e3 b0 bd 32 be 75 3c c0 d9 00 3e
       -0.08206171 -0.08637169 0.014998959 0.12583065
000180 16 12 91 3a 52 ad a0 3d 52 b4 d0 3d 78 0c 92 bd
       0.0011068012 0.07845558 0.10190643 -0.071312845
000190 a0 55 e4 bb d6 8a 8e 3d 96 6a 2f 3d d8 38 41 3b
       -0.006968215 0.069600746 0.042826258 0.0029483344
0001a0 19 84 ef 3d 2b b3 3f be 20 cb 81 bd cc 3f 06 3e
       0.116951175 -0.18720691 -0.06337571 0.13110274
0001b0 21 b0 57 bb b2 81 04 be e3 3b f1 3c b0 5e f6 bc
       -0.0032911377 -0.129401 0.029447502 -0.030074447
0001c0 66 ee 80 bc 3d be 81 be 8a d1 d7 bc 66 2b 70 3c
       -0.015738677 -0.25340453 -0.026345033 0.0146587845
0001d0 48 7c 1b 3e 69 9d 00 bd 3d 1e 87 3d d3 d1 11 3e
       0.15184128 -0.031400118 0.06597564 0.14240198
0001e0 05 01 3c 3e 93 60 1c be 5d c9 06 3e 8a c9 ea bd
       0.18359764 -0.15271215 0.13162751 -0.11464222
0001f0 09 13 8d 3b 07 84 09 3e 52 38 88 bd 74 95 bf 3d
       0.0043052477 0.1342927 -0.06651367 0.09354678
000200 8e 66 c4 bd d7 f0 e4 3d 98 35 46 bd 7d 3c 0c be
       -0.09589873 0.11178749 -0.048390955 -0.1369495
000210 93 13 05 bb 6b 8f 69 3c ce 5d bb bd 04 70 5e bd
       -0.0020305857 0.014255385 -0.09148751 -0.054306045
000220 b2 37 9d 3d a4 dc 2f 3d fe a6 4e 3c 93 31 41 3d
       0.07676639 0.04293503 0.012613056 0.04716642
000230 75 6a b3 3d e0 e8 7e 3d 4d f8 37 bd c2 3a 82 bd
       0.087605394 0.062233806 -0.044914532 -0.063588634
000240 1d 18 16 bd a1 c8 26 3d 82 0f 1b be 67 54 81 3c
       -0.03664409 0.04071868 -0.15142635 0.015787316
000250 ee d3 46 3c 4b 1e c5 bc 8d f0 6e bd 4b 0d 1b 3e
       0.012135489 -0.024062296 -0.058334876 0.1514179
000260 8f a9 81 3d ba 44 37 38 1b 3a a2 bd a0 75 5e bd
       0.06331169 4.3694607e-05 -0.07921239 -0.054311395
000270 5b 5f 65 3d 16 0b 94 bc 6e 03 b4 3d 42 7f 21 be
       0.05599914 -0.018071692 0.08789717 -0.15771201
000280 ad 91 48 be 8f f1 f0 bd 35 d8 61 ba db 31 03 bc
       -0.19586821 -0.11764824 -0.0008615286 -0.008007492
000290 c7 66 ad bd 24 90 98 3d 0d 1f 81 3c 36 38 28 be
       -0.08466869 0.07449368 0.015761876 -0.16427693
0002a0 a3 eb 27 3e da 4d 6b bc a4 a1 88 bb 7e 7a 76 3d
       0.16398482 -0.014361823 -0.0041696597 0.06017541
0002b0 7e 1f 7e bd 00 e1 b2 3c 96 1d cb bc d6 8b a4 3d
       -0.062041752 0.021835804 -0.024794381 0.08034484
0002c0 fe d0 51 bd 96 48 93 3d cd 83 2a bd 19 d4 c9 bd
       -0.0512247 0.07191579 -0.0416296 -0.098549075
0002d0 44 c2 2b 3d c1 7e 39 3d 0e c3 b9 3d c4 1f b7 bd
       0.041933313 0.045286898 0.09070407 -0.08941606
0002e0 e5 13 6f bd 28 36 e2 3d f4 7a 44 3c d3 50 59 3e
       -0.058368582 0.11045486 0.011992205 0.21222238
0002f0 6d 80 ae be 72 65 1b 3e 95 92 a1 3c e5 e7 05 bc
       -0.34082356 0.15175417 0.019723216 -0.008172964
000300 98 6d 0c bd 5c 60 53 3e e6 43 a9 bd 4c 1f 3a be
       -0.034284204 0.20642227 -0.08264904 -0.18176001
000310 80 af 5d 3e 0a fc 05 be a0 6f 3c 3c 8b 91 93 3d
       0.21648979 -0.13084427 0.011501223 0.072054945
000320 7d 74 91 be df a3 b9 be 0d 1c 36 bf 7c 46 bf be
       -0.28409186 -0.36257836 -0.7113655 -0.37358463
000330 a2 57 14 bd bd f7 46 be 45 cd 76 3c 55 9b 17 3e
       -0.036216386 -0.19430442 0.0150635885 0.14805348
000340 e8 ba b6 3d 82 ef 85 bd be ed 10 3e f0 c0 15 3e
       0.08922368 -0.06539823 0.14153191 0.14624381
000350 14 3d ad bd cc 5d 59 3d d3 92 01 bd 1e 88 7a bc
       -0.08458915 0.053067967 -0.031634163 -0.015291242
000360 8c 00 a0 3d e0 21 cc bc 58 88 02 3d 56 54 14 be
       0.07812604 -0.024918497 0.03186831 -0.14485297
000370 96 f3 a3 be 26 e7 18 3e dd 0b 7b bd b3 a4 c5 bc
       -0.3202178 0.14931926 -0.06129061 -0.024126386
000380 f9 49 58 3d 26 d5 a0 3d 66 ad 6d be 96 f9 0d 3e
       0.05280492 0.07853155 -0.23210678 0.1386474
000390 4a d7 ed 3d 64 17 a5 3d 9b db ce bc 48 6e 45 3d
       0.11613329 0.08061102 -0.0252512 0.048200876
0003a0 a9 12 1d bb 0c d7 e5 bd 8f 2e 23 be d7 d6 40 be
       -0.002396742 -0.112226576 -0.1593573 -0.18831955
0003b0 13 2a 80 3d 85 47 48 3d d3 52 81 bd c8 d0 86 be
       0.06258025 0.04889633 -0.063146256 -0.26331162
0003c0 c7 b9 63 3d e1 90 a5 bc 61 52 e9 bd 8c 2a e5 bc
       0.055597093 -0.020210685 -0.11392666 -0.02797439
0003d0 0b b7 d7 bc f6 0d 58 bd b4 46 13 bd ef 05 91 ba
       -0.026332399 -0.05274769 -0.0359561 -0.001106439
0003e0 eb 87 b2 bd 87 46 22 3c a5 37 f6 bd d2 f9 60 3d
       -0.087173305 0.00990451 -0.12022332 0.054925747
0003f0 1b a6 8a 3d 4f 9f bd 3d 2e a3 4c 3e ca cc d6 bd
       0.06769963 0.09258901 0.19984123 -0.10488279

mu.bias f4 [3]
000000 9e cb f5 3e 57 5d 1c 3f 83 a7 c6 bf
       0.4800691 0.61079925 -1.551987

log_std.weight f4 [3, 256]
000000 b2 e7 df 3c 33 62 55 bd 07 bc 94 3d 96 98 2d 3c
       0.02733216 -0.052095603 0.07262426 0.010595461
000010 40 a8 61 3e 57 99 93 3b c7 9f 31 bd d3 5f b9 3d
       0.22036839 0.0045043635 -0.043365266 0.0905148
000020 00 46 bf bd 24 df d8 bd cb 14 82 3d 2f 16 e4 bd
       -0.09339523 -0.10589436 0.06351622 -0.11137044
000030 50 1f 64 bc 40 f9 81 3b 2a 0e 07 bc 8d c2 b5 bd
       -0.013923481 0.0039664805 -0.008243123 -0.08874998
000040 5d a1 2d 3e fc 64 e7 bd ba dc 64 be 53 0e 24 3e
       0.16956086 -0.11298558 -0.22349826 0.1602109
000050 ea 61 b7 bc a7 d4 20 be 04 e8 58 3d ae 8c ed 3d
       -0.022385556 -0.1570612 0.052955642 0.11599098
000060 e7 33 9a 3d 0a 34 7d 3d 0a c2 b9 3d 77 76 3f be
       0.07529431 0.061817206 0.09070213 -0.18697535
000070 32 ab 96 be bb 90 c1 3d 40 01 09 bc 4b 8a 61 3d
       -0.29427487 0.09451433 -0.008362114 0.055063527
000080 f2 23 1f 3d 93 49 32 3e cd 0a d3 be e7 81 1c 3e
       0.03885264 0.17410879 -0.41219178 0.15283929
000090 a8 a2 a7 bd 9d 4d 88 3e b8 f7 90 bb 07 79 72 bc
       -0.08185321 0.26621714 -0.0044240616 -0.014799363
0000a0 59 3e 1e 3d dc 38 02 be 1b 66 e6 bb bd 14 5c bd
       0.038633678 -0.12717003 -0.007031215 -0.053730715
0000b0 bd dc 39 3d 89 f7 4c 3e 1d b1 83 bd 44 a3 ee 3d
       0.045376528 0.20016302 -0.06430266 0.11652234
0000c0 c1 ce 14 bc 21 26 96 3c 87 ca cc 3d fa 53 fe bc
       -0.009082497 0.018328728 0.099995665 -0.031045903
0000d0 76 5f a8 3c 67 f4 b0 3d c8 d1 41 3e da f9 cd 3d
       0.020553332 0.08640366 0.18927681 0.10057421
0000e0 ec 45 dd bd 73 f8 80 be 9c 4d 40 be bc ff ef bb
       -0.10804352 -0.25189552 -0.18779606 -0.007324187
0000f0 09 d2 d1 bc 6e e0 0f 3d a2 97 31 3b ac e8 86 bd
       -0.025612848 0.035126142 0.0027098437 -0.065873474
000100 81 2a 8f 3c a7 aa 19 3d cb 41 06 3e e9 9d 18 3a
       0.017476322 0.037516262 0.13111036 0.000582187
000110 79 d1 3b 3d d4 ea c7 bc c0 37 79 3d eb df 5d bd
       0.045854066 -0.024403967 0.060844183 -0.054168623
000120 e7 7d 01 3e 8a 31 4e 3e 45 fe 14 3e 36 a1 2d 3e
       0.12645684 0.20136085 0.14550121 0.16956028
000130 10 0e 34 bd ed 96 01 3e ae 31 21 3e 16 bd 37 3e
       -0.043958724 0.1265523 0.15741608 0.17943224
000140 25 4a 00 be 5f a2 2a be bd cb 54 be dd 4e 64 bd
       -0.12528284 -0.16663502 -0.20780845 -0.055739272
000150 a3 31 0c bc 62 68 7e bd 51 f1 ea bd 92 8e a2 3d
       -0.008556756 -0.062111266 -0.11471809 0.079373494
000160 ad 36 e4 3d 83 62 6a 3b 69 f3 49 3c 57 c7 2d be
       0.11143241 0.0035764284 0.0123261 -0.16970573
000170 b4 1b 42 be 10 91 5f 3d 32 d5 af 3d bd 32 f0 bb
       -0.1895588 0.0545817 0.08585586 -0.007330267
000180 82 03 de bd 63 fb f4 3a 55 aa 6f 3e b5 d2 b9 bd
       -0.10840513 0.0018690642 0.2340482 -0.09073392
000190 ef 7d 08 3d 26 7f f1 bd cb 9e 12 be 86 97 ab be
       0.033323225 -0.1179183 -0.14318387 -0.3351404
0001a0 b0 6e 6f bc 38 68 6f 3e ad d6 8f 3d b0 d1 04 be
       -0.014613792 0.233796 0.07023368 -0.12970614
0001b0 90 2b c1 3c b3 3e 05 39 9f 3e 2f 3e ba 80 76 3e
       0.023580343 0.00012707226 0.17113732 0.24072543
0001c0 c6 ee ea bb 09 3b 4a 3e 48 6f 29 3e 59 06 93 3d
       -0.0071695773 0.19749083 0.16546357 0.07178945
0001d0 82 8e 3c bd e9 c0 4a 3e 35 77 a4 3d 29 35 af 3d
       -0.046034344 0.19800152 0.080305494 0.08555061
0001e0 7c 31 2f bd 60 e5 dc 3d 3e 73 b8 bd 29 7f 03 3e
       -0.0427718 0.10785937 -0.09006356 0.12841477
0001f0 61 73 8e bc 51 fd 21 bd 72 c5 9e 3a 13 7e 59 3a
       -0.017389001 -0.039548222 0.0012113287 0.00082966796
000200 89 f0 dd 3d 54 50 00 bd f7 f7 d8 3d 0f 06 f2 3c
       0.10836894 -0.031326607 0.105941705 0.029543905
000210 57 1f 00 bd 70 94 ef bc 5c 4e 46 3d f3 60 88 bd
       -0.031279888 -0.029245585 0.048414573 -0.066591166
000220 ca 46 19 be 81 81 33 3d 72 a2 1c be d9 98 b0 3d
       -0.1496841 0.043824676 -0.15296343 0.086229034
000230 17 3e d7 bd 89 20 fa 3d 14 42 f1 bd 97 91 3a bc
       -0.105098896 0.12213237 -0.117801815 -0.01138725
000240 20 b7 95 bd e2 e6 45 3c 0e e6 e1 bc 81 eb 35 3d
       -0.07310319 0.0120789725 -0.027575519 0.044414047
000250 44 1f 88 bd 1d 0e 1a 3e 5f 1e db 3d 75 3b 4c 3e
       -0.066465884 0.15044446 0.10699152 0.19944556
000260 ef 06 3f 3d 78 1c 76 3e 87 0c 35 3e 4f be 9a 3d
       0.04663747 0.24034297 0.1768056 0.0755583
000270 58 58 ad 3d 43 29 38 bd bc d8 c9 bd 92 68 6f 3c
       0.08464116 -0.044961225 -0.09855792 0.014612334
000280 bc 62 75 3d 74 58 ce 3d 02 6b 90 3e fe e4 c2 3c
       0.059908614 0.10075465 0.2820664 0.023790833
000290 5a 83 69 3d 7c 45 74 bd ef 9c 40 3e ec 5e d1 bd
       0.057010032 -0.059636578 0.18809865 -0.10223183
0002a0 bc 2f 34 bd f0 f3 ad bd 99 d6 f6 3d a4 7a e1 3c
       -0.043990836 -0.08493793 0.1205265 0.0275243
0002b0 3f b9 40 3e 76 60 a8 3d c4 78 70 bc f5 cc 4d be
       0.18820666 0.082215235 -0.01467723 -0.20097716
0002c0 90 71 64 3e 4e 21 e9 bd 34 1f a8 3d 39 08 72 bd
       0.22308946 -0.113833055 0.082090765 -0.059089873
0002d0 fc 67 86 3d 76 e2 b8 bc 5a cc cb bd 8a f8 cd 3c
       0.06562802 -0.022568922 -0.09951086 0.025142927
0002e0 6f bf 28 3e b7 1e 0b 3e 12 e2 a1 3d 80 c0 aa bd
       0.16479276 0.13585936 0.079044476 -0.08337498
0002f0 fd e0 c0 bd 49 0d ff bd 74 1f 66 3d b2 b7 6a 3d
       -0.09417913 -0.12453706 0.05618234 0.05730409
000300 d6 ed c2 3c 6c 80 13 3d 11 37 85 3d ed 4c 11 3d
       0.02379505 0.036011145 0.06504644 0.035473753
000310 8d 5f 97 bd b3 8f 9e 3d ce 91 c1 bc 7a 4b a9 3d
       -0.07391272 0.07742252 -0.023629095 0.08266349
000320 dd 5e 62 bc 0f 50 89 be 5a 49 af bd 9d 0b c3 bd
       -0.0138165625 -0.26818892 -0.085589126 -0.095236994
000330 6d 9b 0c 3c 32 4a c7 bb 32 33 6e be 47 a2 d4 3d
       0.008581978 -0.006081843 -0.23261717 0.103825144
000340 43 98 ce 3d fd 56 4d 3d 0a 6b 18 3e cf 95 86 bd
       0.10087635 0.050131787 0.14884582 -0.065715425
000350 bb ff 80 3e 0d c2 67 3d cb 27 66 3d 8c 1b 2f bd
       0.25195107 0.056581546 0.056190293 -0.04275088
000360 47 d6 01 3e 38 fb 77 bc ff 04 e8 bc f9 a8 17 3e
       0.12679397 -0.015135579 -0.028322695 0.14810552
000370 cc 5d 2a 3e 91 15 e2 bd 88 54 5e bd 0f 35 ab 3d
       0.16637343 -0.1103927 -0.054279834 0.083597295
000380 81 38 de bd 53 1d f2 3c 61 60 19 bd 7d 10 28 3d
       -0.10850621 0.029554999 -0.03744543 0.04103135
000390 b8 df 4d 3c 6c dd ba 3d a2 e4 9f bd ff 91 30 bd
       0.012565546 0.09124264 -0.0780728 -0.043107983
0003a0 19 c5 31 3e 8f 78 42 3e a1 eb 40 3e 16 6e dc 3c
       0.17360343 0.18991302 0.18839885 0.026907962
0003b0 c6 a7 3c 3e 57 5c 68 3e 7e 6f a8 3d af b9 84 3d
       0.18423375 0.22691475 0.082243904 0.06480729
0003c0 c4 ba 14 3e 67 e9 3c bd 77 51 75 3e f7 61 31 3e
       0.1452437 -0.046121027 0.23956858 0.17322527
0003d0 46 0b b1 bd 3d 08 f5 3d bb b1 eb bc 1e 0f cc 39
       -0.08644728 0.11964462 -0.028771272 0.00038921175
0003e0 69 a6 e7 3c 6e 7e 84 3d 06 b0 2c be 7d cb 5d 3b
       0.028277593 0.06469427 -0.16864023 0.0033843212
0003f0 a7 af cf 3d 74 e8 7e 3d 7b 47 16 3d 70 57 78 bc
       0.10140925 0.062233403 0.036689263 -0.0151575655

log_std.bias f4 [3]
000000 ce 5a a5 bf c1 17 f4 be 31 51 5d bf
       -1.2918336 -0.47674373 -0.86452013
